e_model_files/e_model/eSR-TR_s2_K3_C8.pth (torch, 852920 bytes, 80 tensors)

layer.filter.weight f4 [288, 48, 3, 3]
00000000: d0e5 07bd 7e96 61bc 6aaa 41ba 54d9 9a3b
00000010: 4f86 833f b684 02bd f7d8 77bc 406b f23c
00000020: fd29 bd3b 7eff cb3d 409c 683d 3c1b 79bd
00000030: ad7a 4abd a545 113c 3903 63bb 0012 ff3c
00000040: 118b 75bc 2f00 8d3c ea5c 03bc 004e cfbb
00000050: 1bd7 0bbd ac62 003e 3be2 c93d 781f e6bc
00000060: a58a 95ba 7de8 a53d c27a b6bc 6bab 6dbc
00000070: 9090 5abc 3730 193c 51fb 0fbd 8b0d f0bc
00000080: 46ce 09bb 7873 8b3c 2c01 673d 3322 3e3b
00000090: 98a8 b7bc d345 86bd 92cf 55bd 720c 9f3c
000000a0: 8807 02bd e8ac ad3c eb12 c3ba 3a96 40bd
000000b0: 5e4a 5c3c e8dd 88bc 8cfc 8c3d d45a 1fbc
000000c0: 0f4d 92bb 710a cebb 9fbd 383c 1b0d 703c
000000d0: dd81 17bd 9d64 b63c 03b6 c8bc 4af6 28bd
000000e0: 00c3 023d 20f0 54bd df06 a9bc 33d3 4e3d
000000f0: 8869 d73c 34a5 acbc 0295 20bc 7d9f 16bd
00000100: 22ab bdbd 7b9f efbc fdad 293d 0674 6e3c
00000110: 784f 223c 4e50 35bd c71f 1abd 4bd3 193d
00000120: 9d01 6c3b 137e ce3d cc2e 863d defe 0c3d
00000130: f8f8 5b3d 859f 2fbc aaf3 ad3b 994c d23c
00000140: 3bc2 61bc 6155 80bc a5b3 c2bd 5dee 663c
00000150: e0ce 013b 578b 193d beb5 8a3c c86f 48bd
00000160: e6ed 53bc 93bf e53b 79ca 42bd 1ff6 b03d
00000170: a915 d4bc d70f dc3c 352c 9f3d 766f efbc
00000180: 00ce 7dbc a89d 16bc 4982 383b cde7 a23a
00000190: 8d5b b8bc 1a7b 18bd daed 303d c9a3 43bc
000001a0: 885d c2b9 89c2 fe3b 38d5 9bbc 75f7 fcbb
000001b0: e524 91bd 863d b5bd 0088 e5bc 9253 0f3d
000001c0: d28f 26bd 614a be3c 7c76 1f3d 16d2 073a
000001d0: 7edd 07bc 4b94 54bd bdae 89bd 4235 9dbc
000001e0: ddbd 11bd 559c a63c 2404 0b3d 4434 863d
000001f0: 7cf4 023d cb47 273c 3ec6 4ebd 0002 d93c
00000200: 7700 aebd 995e 4c3d b8fe b73d cc1d 7e3c
00000210: 6450 203d c291 0b3d 16bf 57bb fd62 86bd
00000220: 6c9d 703c fefa a9bb b6d3 aebd 9c9c c03d
00000230: eea6 05bd 3416 d03b 7e69 c6bc 4165 923c
00000240: 103f f2bc b943 db3c c4d8 bf3a 4a00 1c3c
00000250: bef8 92bd 3138 d8bc 409f 28bd 8b38 6dbd
00000260: 750e 563c 7ec1 013c e9b1 603d e8a7 383d
00000270: 67cd 933d ccb1 e4bb 93e2 623c 17a1 d83c
00000280: 2648 d2bc 48dd eabc 7f62 ef3c 6095 85bd
00000290: b809 a13c e467 be3c ebf7 a6bd 0e6d a4ba
000002a0: 49d2 d43b 8290 5f3d 0ec0 e33b 92b3 bf3b
000002b0: 1544 763d 0b40 2e39 4d57 a13d f9e2 813d
000002c0: 0d6c 6e3c 447b 5bbd 47b6 fcbc 8a24 0cbb
000002d0: 63ba 9fbc 1ba7 0abd f4ba 823c 3838 813d
000002e0: e0d7 283d 5eab 7dbd cc00 bd3c 6338 b3bd
000002f0: ee6d 6dbc 999b 00be 5f53 9cbd 77ea e1bc
00000300: f811 2d3d 916f 933d d776 c93b 3c76 5cbd
00000310: 3b13 09bd 43c1 23bc f036 9fbd 97ac c9bc
00000320: 0b7d 783b 2163 4c3c 1621 a03d c16f 20bd
00000330: 2ff7 e0bc efc8 a8bc 1edd e83a 0235 45bd
00000340: 37cf 463d a5a1 d23c 056f 29bc 782d 8d3d
00000350: 6be9 d2bb a97f 2a3d a089 42bc fb48 bcbc
00000360: 5b9d f13c acb0 eb3c e6d4 9abd fc4a a9bb
00000370: baa8 273d b60e 75bc 9cfa 58bd ba88 f03c
00000380: 6864 c3bc 4f4a a8bc 7d5c 1f3d 8f50 2dbc
00000390: a066 a53b 0dc9 11be 7b6e e8bc 79c7 4a3c
000003a0: 1ba5 76bc 371b 91bc b1d8 e43c ae78 1d3d
000003b0: 0739 b33c 4e30 08bd 42ff b9bd ece0 ca3c
000003c0: 3764 8abc 465f 873d 4a70 8dbc 3f27 63bd
000003d0: 3a6e b3bd 9e12 263d bb0a 7abd de29 50bd
000003e0: 64eb 5ebc 3b7f 0cbc 0188 6f3c 17be 093d
000003f0: cd4c e63b 3f6a 3a3c 4dce 6fbd 76a7 343d
-0.03317815 -0.01376879 -0.00073877594 0.0047256146 1.0275363 -0.031864844 -0.015127412 0.029592156
0.0057728277 0.09960841 0.056789637 -0.06081699 -0.0494334 0.008866702 -0.0034639372 0.031136513
-0.014986769 0.017212002 -0.008017758 -0.006326437 -0.034140687 0.1253764 0.09857603 -0.028091177
-0.0011409117 0.08100984 -0.022275332 -0.014506201 -0.01334013 0.009349874 -0.035151783 -0.029303333
-0.002102749 0.017022833 0.056397602 0.0029012084 -0.022419259 -0.06556287 -0.052199908 0.019415114
-0.031745464 0.021200612 -0.0014882957 -0.047018267 0.013445465 -0.016707376 0.06884107 -0.009726245
-0.0044647525 -0.006287866 0.011275678 0.014651562 -0.03698908 0.022264773 -0.024500852 -0.041250505
0.031924248 -0.051986814 -0.02063316 0.050494384 0.026295438 -0.021074869 -0.009801151 -0.036773194
-0.092611566 -0.02925085 0.041425694 0.014554029 0.009906642 -0.044266038 -0.03762796 0.03755502
0.0036011704 0.100826405 0.065518945 0.034422748 0.053704232 -0.010719185 0.005308588 0.02567129
-0.013779218 -0.015665712 -0.09506921 0.014094916 0.0019807145 0.0374864 0.016932365 -0.048934728
-0.012935137 0.007011363 -0.047556374 0.08640694 -0.025889235 0.026863022 0.07772104 -0.029227953
-0.015491009 -0.009192862 0.0028153828 0.0012428701 -0.022504592 -0.037226774 0.043195583 -0.011940905
-0.0003707225 0.0077746552 -0.019022569 -0.007719929 -0.07087115 -0.08849625 -0.028018951 0.03499181
-0.0406645 0.023228826 0.038931355 0.00051811466 -0.008292554 -0.051899236 -0.06722782 -0.019190434
-0.03558146 0.020338217 0.033939496 0.065529376 0.03197144 0.010209988 -0.050482027 0.026490211
-0.084961824 0.049894903 0.089841306 0.015510034 0.039139166 0.034074552 -0.0032920293 -0.06561849
0.01468597 -0.0051873913 -0.085364744 0.09404871 -0.0326299 0.006350303 -0.024220224 0.017870547
-0.029571086 0.026765691 0.0014636745 0.009521553 -0.0717635 -0.026393982 -0.041167498 -0.05791525
0.01306497 0.007919667 0.05485717 0.045082003 0.07216912 -0.006979203 0.013847965 0.026444001
-0.025669169 -0.028669968 0.029221771 -0.06522632 0.019657955 0.023242898 -0.08152755 -0.0012544708
0.0064947945 0.054581173 0.006950385 0.005850264 0.06012352 0.00016617791 0.078779794 0.0634212
0.0145521285 -0.053584352 -0.030848635 -0.0021384084 -0.019498056 -0.03385077 0.015958287 0.06309551
0.0412215 -0.061931007 0.023071669 -0.08750989 -0.014491541 -0.12559356 -0.07633089 -0.027577622
0.042253464 0.07199014 0.0061482 -0.053823695 -0.033465605 -0.009994808 -0.0777415 -0.02461843
0.0037916328 0.012474806 0.07818811 -0.039169077 -0.027461616 -0.020603625 0.0017766093 -0.048146255
0.04853746 0.025711844 -0.0103414105 0.06893438 -0.006436517 0.041625652 -0.011873633 -0.022984019
0.029493978 0.028770767 -0.075601384 -0.0051664095 0.040932395 -0.014957121 -0.052973375 0.029362071
-0.023851588 -0.020543246 0.038906563 -0.010578289 0.0050476342 -0.14236851 -0.028372994 0.01237666
-0.015054013 -0.017713172 0.027935358 0.038445167 0.021877779 -0.033249192 -0.0908189 0.024765454
-0.01689349 0.06609969 -0.017265458 -0.05545735 -0.087612584 0.0405451 -0.06104539 -0.050821178
-0.013605926 -0.008575256 0.014619828 0.03362855 0.0070281983 0.01137787 -0.058546353 0.044105016

rca.ca.conv_du.0.weight f4 [3, 48, 1, 1]
00000000: 6b35 29bd ef31 ae3d 5fb0 a9bd 6c58 7bbb
00000010: 13e5 06bd 28e4 473d fbc1 e3bd 18b3 4bbc
00000020: 2361 013e 889b 6a3d 3f2e 01be b73f 053e
00000030: 657e 53bd 5879 7fbc 8eaa 0cbd 95df 9fbd
00000040: 5365 e83d bfeb d0bd 77a6 313e b855 e8bc
00000050: 9831 e53d f84d 43bd 427d 7d3d 56f9 8d3d
00000060: 7ddf c63d 008f 24be 9277 583c 90fb 8a3d
00000070: 8959 6e3b 0b55 06be 8819 cbbd 98d1 06be
00000080: 5c0b da3d 0383 08be 3128 213e 608f 203d
00000090: e0d8 93bd 29f3 be3d 4e06 3abd 3948 193e
000000a0: 0da4 23be 448b 023e b781 f63c 1e33 1fbe
000000b0: fede 60ba 4009 c9bd d9a3 d33d 932b 66bc
000000c0: 93c9 64bd e4ac 3abd 6113 113e 46ba 703d
000000d0: b83a 9e3d e0ed 193e 8ecb 073e 6565 e63d
000000e0: 91d4 bbbd 2f82 1cbe 3bbe 8dbd 930c 1abd
000000f0: 92ef 94bd d16c 03be 3c30 b83d 1f9b f3bd
00000100: cabb 9e3d 4c7c 8f3c 6ac9 083d c6c2 6a3b
00000110: 99e4 2f3e 3dc1 0abd 1834 bebd 1f57 5b3c
00000120: 2e75 b93c 2c57 883d 261e 20bc b8ec e73c
00000130: 9d74 c93d 7a85 113d f6e1 f33d ca32 7abd
00000140: 2a32 edbd 7930 4c3e 9d39 d43d 6bbe 0a3e
00000150: 1ba8 383d a8b9 0cbe 49b9 5dbd 7d8c 2cbd
00000160: 8e90 eebc aea7 713d 2084 13be 419b aa3d
00000170: 75b2 4ebd 4a25 33bc 1f20 38be 558d 20be
00000180: 7e70 823c 1808 bc3d deb0 143d 3d78 82bd
00000190: e600 cfbc 159d 1dbd 6831 233c bbbb dfbd
000001a0: d6e2 7ebd 33f1 c13d 4f86 87bd ba73 44bd
000001b0: daa9 e13d 2c10 4c3d bff7 0f3d 1521 59bc
000001c0: 4a34 b83d aad9 163e c191 e9bc 0d2b 973d
000001d0: b138 e0bd f090 d9bd 9756 c9bd fdde bebd
000001e0: eecf 303e 8233 1f3d 52bb 8bbd 9121 b93d
000001f0: 571a c03d 737e 473d dce3 983d 6f0e afbd
00000200: d947 263e 5c7a 8cbd 9bd0 98bc 6198 1fbe
00000210: 87a3 b53d 0407 aa3d 04a3 fa3c 8af1 f23b
00000220: 2def 0fbe ab67 8dbd 3db2 c4bd 3e1f 90bd
00000230: 45eb 20bd a90c 6a3d d9b5 22be b543 b8bd
-0.04131071 0.08505618 -0.08285593 -0.0038352264 -0.032933306 0.04880157 -0.11120983 -0.012432836
0.12634711 0.057277232 -0.12615298 0.13012587 -0.05163421 -0.015592895 -0.03434234 -0.07806317
0.11347451 -0.10201215 0.17348658 -0.028361186 0.111911 -0.04768178 0.061887033 0.06932323
0.09710596 -0.16070175 0.0132121015 0.06786263 0.0036369285 -0.13118379 -0.09916979 -0.13165891
0.10646698 -0.13331227 0.15737988 0.039199233 -0.072191 0.09323723 -0.04541617 0.14968957
-0.15980549 0.12748438 0.03009115 -0.15546843 -0.00085781503 -0.098162174 0.10333986 -0.014048475
-0.0558563 -0.045575038 0.14167549 0.058771394 0.077260435 0.15032148 0.13261244 0.11249808
-0.09171403 -0.15284036 -0.06921049 -0.037609648 -0.07272257 -0.12834479 0.08993575 -0.118948214
0.07750662 0.017515324 0.03339521 0.003582166 0.17177047 -0.033875693 -0.0928728 0.0133874705
0.022638883 0.06657252 -0.009772813 0.028311118 0.09836695 0.035527684 0.11908333 -0.061083592
-0.11581834 0.19940366 0.10362551 0.13549201 0.045082193 -0.13742697 -0.05413178 -0.042126168
-0.029121663 0.058997802 -0.1440587 0.083303936 -0.05046316 -0.010934183 -0.17981003 -0.15678914
0.015922781 0.09181231 0.036301486 -0.0637059 -0.025268983 -0.038479883 0.00996051 -0.109244786
-0.062228046 0.09469833 -0.06617414 -0.047961928 0.11018725 0.04982011 0.03514838 -0.013252516
0.08994348 0.1473147 -0.028511884 0.07381258 -0.10948313 -0.10623348 -0.09830969 -0.093198754
0.17266819 0.03886748 -0.06822838 0.090396054 0.09380024 0.048704576 0.07465336 -0.08547675
0.16238345 -0.06859276 -0.018654158 -0.15585472 0.08869081 0.083021194 0.03059531 0.0074140476
-0.14056082 -0.06904539 -0.09604309 -0.07037209 -0.03928687 0.05714098 -0.15889682 -0.08997289

rca.ca.conv_du.0.bias f4 [3]
00000000: 43f7 90bd e50a e13e 6bde 09bd
-0.070784114 0.43953624 -0.03365938

rca.ca.conv_du.2.weight f4 [48, 3, 1, 1]
00000000: 7b62 54bd 9f56 fc3e 6a56 973e 667c e73e
00000010: 921a ccbe a98b 883e e56d 33be dda0 5c3c
00000020: 3161 eabe 595c 05be 7655 07be d5c2 b93e
00000030: 8db8 26be fb40 60bf af1c 593e 2bc0 1e3e
00000040: e286 dbbd adf8 e03c 16fa 5dbd a5dc 18bf
00000050: 5deb 06be cd2c 89be 3cf9 923e 4c74 9abe
00000060: b161 68be 926c 14bf 9b32 e7be e3a9 a4be
00000070: 9bf6 3bbf 8ffd e33d bfc8 8abe 5716 ed3d
00000080: 5f65 51be 4a3f a3be fd9b 353f a55c dabd
00000090: 4b6b 513e 2b92 b9bd 8475 0d3e b680 bdbe
000000a0: a380 583d 93b3 53be 9975 82bd 9ab6 17bc
000000b0: ae91 bbbe 7df1 73be f5bc 5dbf 7818 293e
000000c0: da72 f83b 00ca e3bd 0431 ccbd 7731 fe3e
000000d0: b86a a4be 6fb4 c8bc 145c 8ebe 764d e53e
000000e0: 3f77 8abe e2ba bb3e 9da9 0e3d 4872 d3be
000000f0: 5b5b 66be 4f7e bc3e f619 f9be 2fde 4c3e
00000100: 035f 123f 9dfe 34bd 319e c4be eda7 bb3d
00000110: b1a3 233d 3440 bd3e 8435 5bbd 2eb6 27bd
00000120: 99d6 b7be 7348 b33e ec03 393e cda0 e03d
00000130: 20be 21be cc4c e1be 2696 98be 55cd 863d
00000140: d994 523e 0d8b f9be b28b 4b3e 9f9d d6be
00000150: eac7 8a3c 222f 02be e262 d03e acd7 003d
00000160: d46c b9be 0c5a 893e 8d45 b9bb 9f4a 04be
00000170: d015 ccbe d305 5d3e be30 72be 7ee4 193f
00000180: c5dd 993e b4db 25be f875 643e c8ca 293f
00000190: 67e5 30be 51c9 3a3d ec91 663c ac19 90bd
000001a0: 3013 fa3e cfd1 d0be 3b76 98be 79d1 d13e
000001b0: 7835 0cbd 1549 0d3f 203a 843d 2bc5 fc3e
000001c0: 4fe2 cfbd ad12 8bbe 120e e33d dc81 be3d
000001d0: 7867 293e ecf3 fd3e 5d61 753f 6718 88be
000001e0: 4ce9 d0bd f587 7fbc aa27 dc3e 8c47 d33e
000001f0: 9e90 8abd 36d4 aebe 417c 03be 6832 98be
00000200: 9243 fdbe fd76 bebe f297 06bf 96a6 863e
00000210: a5ac 6a3d ce81 47bd 6b1a 06bf c28c a6be
00000220: fcc4 c63e f545 b6be 6e48 cfbc f3c7 eebd
00000230: 1c7c 9f3d 2275 fb3e 2dd9 33be 73b1 e23e
-0.05185173 0.49284837 0.29558116 0.45212096 -0.39864022 0.26669052 -0.1752239 0.013466087
-0.45777276 -0.13023509 -0.13216195 0.36281458 -0.16281338 -0.8759915 0.21202348 0.15502994
-0.10719086 0.027462328 -0.05419358 -0.59711677 -0.13175721 -0.26791993 0.28705776 -0.30166852
-0.22693516 -0.57978165 -0.45155796 -0.32160863 -0.73423165 0.11132347 -0.27106282 0.115765266
-0.20448826 -0.31884223 0.70941144 -0.10662202 0.20451085 -0.090610825 0.1381436 -0.3701226
0.052857053 -0.20673971 -0.06370086 -0.009259844 -0.36634582 -0.23822589 -0.8661645 0.1651324
0.0075820507 -0.11122513 -0.099702865 0.49647114 -0.3211267 -0.0245001 -0.27804625 0.4478566
-0.27044103 0.36666018 0.034829725 -0.41298127 -0.22495787 0.36815116 -0.4865262 0.20006631
0.57176226 -0.04418813 -0.3840194 0.09162889 0.03995103 0.36963046 -0.053517833 -0.040945224
-0.35905913 0.35016212 0.18067902 0.1096817 -0.15795183 -0.44003904 -0.29802054 0.06582133
0.20564593 -0.487389 0.19877508 -0.4191713 0.01694103 -0.12713292 0.40700442 0.03145568
-0.36215842 0.26826513 -0.005654043 -0.1291909 -0.39860392 0.21584253 -0.23651406 0.60114276
0.3005201 -0.16197091 0.22310627 0.66325045 -0.1727501 0.045602147 0.014072876 -0.070361465
0.48842764 -0.4078507 -0.29777703 0.40980127 -0.03423068 0.5518964 0.06456399 0.49369177
-0.10150587 -0.27162686 0.11086668 0.093021125 0.16543376 0.4960016 0.9585169 -0.26581118
-0.10200748 -0.0155963795 0.4299901 0.41265523 -0.06765865 -0.3414628 -0.12840368 -0.29725957
-0.49465615 -0.37200156 -0.525756 0.2629897 0.057293553 -0.048707776 -0.5238406 -0.32529265
0.38822162 -0.35600248 -0.025303092 -0.11659231 0.07787344 0.49112803 -0.17563315 0.44276008

rca.ca.conv_du.2.bias f4 [48]
00000000: 6133 033e 188a 363f 5126 ee3e 1047 9d3d
00000010: 117b 743f a7de 353f 678d 71be a56d 473e
00000020: 05d6 2a3f 0362 ed3e adbf 203e 6ede 723f
00000030: d757 8a3f 11ba 663f ff15 09bd f845 be3e
00000040: b5bd 433f ba42 df3d 9291 ba3f 528e 12be
00000050: 5bda d73e d079 083e 8e5d 2b3d 3b11 443e
00000060: bf66 41be 1779 db3e 067a 2e3f 8ee2 1f3e
00000070: 0473 163f f843 69bd b8fa 83be a190 043f
00000080: fe08 8a3c 8851 3b3d b18e c8bb fd28 c5bc
00000090: 44d8 573f 7847 71bd 63f1 2a3e b7ad 0dbe
000000a0: 6f87 d13e b4d1 cf3e b33d 2dbc 65ab 81be
000000b0: be85 2c3f 1c0d 5b3f 5fdb b53e 78f3 8abe
0.12812568 0.71304464 0.46513608 0.0767957 0.95500284 0.71042866 -0.23589097 0.1947542
0.6673282 0.4636384 0.15698119 0.9487065 1.0808057 0.90127665 -0.033468243 0.37162757
0.76461345 0.10901399 1.4575675 -0.14312103 0.4215878 0.13327718 0.041837268 0.19147198
-0.18886851 0.42865822 0.68154943 0.15613768 0.5876925 -0.056949586 -0.2577722 0.51783186
0.016849991 0.04573205 -0.0061205258 -0.024067396 0.8431437 -0.05890605 0.16693644 -0.13835798
0.4092364 0.40589678 -0.010573792 -0.25326076 0.67391574 0.8556688 0.3551893 -0.27138877

rca.body.0.weight f4 [48, 48, 3, 3]
00000000: f119 1fbd 4d58 c0bb a0f6 20bd 901a c6bd
00000010: 000c 63bd a501 b3bc 609a 90be 0c57 b4bd
00000020: d629 74bc 1adb 0dbd b819 25bd d82f ebbb
00000030: 8efb 1ebe f8d0 dabc 6d40 6b3d 4e60 f8bc
00000040: 7cee 37be df8f 9cbd 02fa 06bd c1ff 633c
00000050: f48b 093c 36e0 543d 619f 233d 204b 773d
00000060: cc74 58bd 5fda 05bd c3d8 0a3d 53b1 23ba
00000070: 05a0 f23b 8793 963c 4182 ae3c 7950 80bd
00000080: dd2c 073c b82e 0b3d 86a3 c53b d345 633d
00000090: 48d7 273c 0830 01bd 3f9f f139 3ac8 03be
000000a0: 6ef5 8c3c ba3c b13c 8362 3b3c 9b16 5fbb
000000b0: b65c 8a3c 5ec9 ea3b b595 0c3d 557a 0cbd
000000c0: 37c2 02bd d810 f13d 3d45 66ba 0ea6 fc3d
000000d0: ef8a 6a3d 88f2 ab3b 69a7 8f3c a430 79bd
000000e0: cbc9 fc3c 384e 813d 63f4 f43b 6167 b73c
000000f0: d7fd 793b 16bd 56bd b43e 46bd 211a 2ebd
00000100: a415 f03c 893a 5ebc 6b3f 51bb decf 17bd
00000110: 7a99 31bc cc3f d43d e2a3 fb3c 845a 43ba
00000120: d117 afbd 257d c53b 4cf7 0039 2241 7abd
00000130: 9da0 58bd 5448 edbc cde7 2f3b c8b0 91bd
00000140: 500a d6bc a3cd b1bc a60c 473c 4746 fabc
00000150: 63f0 a9bc 502c 92bd 9538 d7bc d24e 89bd
00000160: bf1f 0e3e bcfb 98bb 30da f03c 05f9 1bbd
00000170: 566c 243c 2752 5c3c d0bd 29bc 3e43 ddbc
00000180: 119b 8fbd aac8 3c3c 4826 1abd cc51 f0bc
00000190: 2d61 b33c 5992 873c a377 0fbd d3b7 b63c
000001a0: 5888 d0bb d407 ffbb e760 d0bc 3a09 e23c
000001b0: 8ffd 623c 71a5 f83c 8d5f 18bc ea2e 09bd
000001c0: 43d0 e83c 2c0f 27bd 6d68 7fba 2827 a93d
000001d0: c710 1fbd f37b 893c a9f1 d2bc 7124 773c
000001e0: 6341 63bc 4952 19bd 6548 09bd 3a5b e33d
000001f0: 9ca4 bfbd 4521 47bd 9a97 e1bc 4e26 acbc
00000200: f5e4 71bc b4e8 c7bd 2430 203d a1ec c23b
00000210: 8aba 98bd 5616 76bc c56b 55bb 3643 65bc
00000220: 23cb cb3d 5d11 093d 9e78 0dbd 98fa b33d
00000230: 6fab c43b 9f05 23bd febc 263e 9a78 233d
00000240: d48a e03b ef90 36bd 251e edbc a281 06bd
00000250: efe5 1e3d 7f13 d7bc 593b 0bbe f88b 563d
00000260: d102 aebd 55c0 c5bb b90d 653c d47f 4abb
00000270: 974e f2bc cd14 733d 62b9 86bd fadd c1bc
00000280: a139 b93d c7d2 da3c 1c9f 02bd a02c 4cbb
00000290: 058e 5bbc 21b8 26bd 60b8 73bd 5df8 223c
000002a0: 59c8 ca3d d422 5e3d 657c d63b 0dd2 f0bb
000002b0: db8e 97bc 1a9b 9fbc 8e10 a0bd c1d6 0b3d
000002c0: fe1e 3c3d 2442 3bbe 2a9a b83c 27ac 19bd
000002d0: ea5a 443b ed0d f13a da3e 72bc ee20 0cbd
000002e0: 4d41 063d e68a e2bc 4498 793c b88e 03be
000002f0: 1b67 33bd 28ae 143d e24a b03c 3112 833c
00000300: bb67 24bd 41d9 3f3d 53cf 9b3d 6f77 d63d
00000310: c620 933d d036 053d 776c e6bc 96b9 37bd
00000320: 4ccc 12bb bb52 0bbe 851c 6bbd 85bd d6bc
00000330: 8407 6d3d b2f9 a5bc 7cf0 79bd ea6e 1bbd
00000340: a5d0 a2bc 510c 2bbc bd87 213d 42d1 74bd
00000350: 9907 c6bb 8c02 3b3d f0a6 e1bd bf4c 873b
00000360: 5aa3 cf3c aa8b 3dbc 512c 373c 0633 cebc
00000370: d18d 7d3c 0bf4 f5bb 1b11 07ba dac6 153d
00000380: a4b4 bd3a 70bf c3bc 0466 ed3b 55c9 203c
00000390: ae5a 50bd c6fc 993c d840 09bc b229 d8bd
000003a0: 8e86 e13b 7bc4 353d 438a c4bc fbd8 dcbc
000003b0: a7c4 2e3c ed5e 8a3c d875 54bc 462c f73b
000003c0: 6318 94bd ce61 57bd 25b1 eb3b 2c57 22bc
000003d0: 156a 36bc 3892 a83c 443f 8cbd cafa 87bd
000003e0: 5e24 a33b aa3b 1dbd 3070 efbc 61fc 153d
000003f0: 732a 12bd 5d6c eabc c00d 0ebd 7fc3 c7bd
-0.0388431 -0.0058699013 -0.0392977 -0.09673035 -0.055431366 -0.02185137 -0.2824278 -0.088056654
-0.014902553 -0.03463278 -0.04030773 -0.0071773343 -0.15525648 -0.026710972 0.057434488 -0.03031936
-0.17962068 -0.07644629 -0.03295327 0.013915957 0.008395184 0.051971637 0.039946917 0.06037438
-0.05284576 -0.032678958 0.033898126 -0.000624438 0.0074043297 0.018380893 0.021302344 -0.06265349
0.008250442 0.0339801 0.0060314564 0.05548651 0.010244198 -0.031539947 0.0004608575 -0.12869349
0.017206874 0.021635402 0.011437061 -0.0034040574 0.016889911 0.007165118 0.03432246 -0.034296352
-0.0319235 0.11770791 -0.0008784121 0.1233636 0.057261404 0.005247418 0.017535882 -0.060837403
0.030857941 0.06313747 0.007475422 0.022388162 0.0038145685 -0.05242642 -0.048399642 -0.042505387
0.029307194 -0.013563761 -0.003192867 -0.037063472 -0.010839814 0.10363731 0.030717794 -0.00074521475
-0.085494645 0.0060268813 0.00012299157 -0.06109727 -0.052887548 -0.028965153 0.0026841045 -0.071137965
-0.026127964 -0.0217045 0.012149012 -0.030551089 -0.020744508 -0.07137358 -0.026272098 -0.06704487
0.13879298 -0.004668681 0.029400915 -0.03807928 0.010035595 0.013447321 -0.010360196 -0.027009603
-0.070119984 0.011522451 -0.037634164 -0.029335879 0.021896923 0.016549276 -0.035026204 0.022304451
-0.0063639097 -0.0077829156 -0.025436832 0.02759229 0.013854398 0.030352326 -0.009300125 -0.033492006
0.02841962 -0.040785953 -0.00097430387 0.082594216 -0.03883436 0.016782736 -0.025749998 0.015084372
-0.01387057 -0.03743199 -0.033516306 0.111013845 -0.093575686 -0.048615713 -0.02753811 -0.021014359
-0.01476406 -0.097611815 0.03910841 0.0059486185 -0.074574545 -0.015019974 -0.0032565456 -0.013993075
0.09950855 0.033463825 -0.034538858 0.08788031 0.006001882 -0.039800283 0.16283032 0.039909936
0.006852487 -0.044571813 -0.028945038 -0.03283847 0.0387935 -0.026254414 -0.13596858 0.05237958
-0.08496631 -0.0060348907 0.0139803225 -0.0030898945 -0.02957849 0.05934601 -0.06578328 -0.023665417
0.09044195 0.026711835 -0.03189002 -0.0031154528 -0.013400559 -0.040702943 -0.059502006 0.00994691
0.099014945 0.054232433 0.0065455907 -0.0073492588 -0.018500736 -0.019483138 -0.078156576 0.034140352
0.045927994 -0.1828695 0.022534449 -0.037517693 0.0029961416 0.0018390991 -0.014785493 -0.03421109
0.03277712 -0.027654123 0.015234057 -0.12847412 -0.0437995 0.0362989 0.021520082 0.015999885
-0.040137988 0.04683805 0.07607903 0.10471999 0.071839854 0.032522976 -0.028127892 -0.044854723
-0.0022399602 -0.13605778 -0.057400245 -0.026213417 0.057868496 -0.020260666 -0.06102036 -0.037947573
-0.01987488 -0.010439948 0.03943609 -0.059769876 -0.006043386 0.045656726 -0.11018169 0.004129022
0.025346447 -0.011568943 0.011179999 -0.025170814 0.015475706 -0.007505899 -0.000515239 0.036566593
0.0014473391 -0.023894995 0.007244827 0.009813626 -0.05086773 0.01879729 -0.008377276 -0.10554828
0.0068824952 0.04437683 -0.02399171 -0.026958933 0.010667003 0.016890967 -0.012967549 0.0075431196
-0.07231214 -0.05258351 0.007192748 -0.009908479 -0.01113369 0.020577535 -0.068480045 -0.06639631
0.0049787005 -0.03838698 -0.0292283 0.03661764 -0.035685014 -0.028616125 -0.03468108 -0.09754085

rca.body.0.bias f4 [48]
00000000: c7c7 2a3e f6f9 bf3e 5cf7 e03e 36fb 9abe
00000010: 7da9 adbe 7bdd f7be 36ed 63bd f420 6bbd
00000020: c905 9bbe eb9a 4b3e ea7c 48bf 6ca5 07bc
00000030: fd0e 9ebe 73a4 763e 4351 5c3e a7ef 07be
00000040: a6f9 97be 4f95 693b 8ae8 d73e 0903 a1be
00000050: b42a a5be 7357 f6be 86e8 f13d 39d0 76bd
00000060: f722 443e 6c38 90be 5a36 01be e701 b739
00000070: 6de9 963c 09c2 93be 655d a4be f484 043f
00000080: 9899 053e 9235 8bbe 1870 c23d 74e6 81be
00000090: ee80 26be 5964 6abd e179 983f 0831 2f3e
000000a0: 03de b53d b5e7 493f 9014 b83c fb03 0a3d
000000b0: 4c2d cc3e 1cc6 023d a61b 8e3f 7b8e a4bd
0.16677772 0.37495393 0.4393872 -0.30269784 -0.33918372 -0.48411164 -0.055646144 -0.057404473
-0.3027785 0.19883315 -0.78315604 -0.008279186 -0.3087081 0.2408617 0.21515374 -0.13275014
-0.29682654 0.0035641973 0.421696 -0.31447628 -0.32259142 -0.48113593 0.118119285 -0.06025717
0.19153963 -0.28168046 -0.1261839 0.00034905897 0.018421853 -0.28858975 -0.32102504 0.5176537
0.13046873 -0.27189308 0.094940364 -0.25371134 -0.1626012 -0.057224605 1.1912194 0.17108548
0.08880236 0.7886918 0.022470742 0.033695202 0.3987831 0.031927213 1.1102188 -0.080349885

rca.body.2.weight f4 [48, 48, 3, 3]
00000000: 8d32 573d 81d1 cc3c 246a 3cbe b3bd f93c
00000010: 211f a5ba 53cb d83c ce8b 1d3d 05e5 ec3d
00000020: df2c 453d c045 51bd adc0 c8bc 5f21 8ab9
00000030: 3017 9dbd 6005 d7bd a897 ddbc aaae 6cbd
00000040: c778 1fbd e896 7fbd 8406 a6bc da49 8ebc
00000050: 1099 1abd e2a6 bebc 0fb7 c7bc faf3 b0bd
00000060: a820 59bd 82fe dabc 9068 833d 1aeb 2dbc
00000070: 6421 abbc 71c2 673d 25bc d43c 91c2 f33d
00000080: 1a57 393d 3c06 a63c 004e 95bd b023 05bd
00000090: 8f3f c03d 8bc1 103e d98d ae3b 3977 d8bc
000000a0: a4bd bdbd c1de 5ebd 2cb5 073b 64ce df3a
000000b0: df65 8b3d 12d5 963d bbe6 e63b 5b65 d33c
000000c0: dcad ac3d 9b61 ddbd bc5e cf3c c84b 2a3b
000000d0: cc25 a63d d6fa c33d 7da7 22bd d61c 80bc
000000e0: e539 81bc 084c 91bc bcf5 9bbd 8918 f6bc
000000f0: 0712 dfbc 78eb 3ebd 5ef8 4d3d a39c 2a3d
00000100: f8a4 033d 4e0d d13b 3756 5c3d 57e7 b93b
00000110: 74ef 97bc 91b1 33bd de9c 12bd 4e00 c5bb
00000120: ce95 91bc d102 a6bc 1c10 6cbd deb0 0339
00000130: e72a a13d d5c0 6cba 67c0 d8bd b78d 41bd
00000140: f509 963b 67ef a7bd a920 95bc c7d6 a43b
00000150: 5ee0 a3bd d2de 98bd 4cda b4bd d881 a5bd
00000160: c19a 05bd ab9a 75bd 45ce 743d 3740 283d
00000170: 3339 953c 8fd2 5d3c 7523 abbc c73e f43c
00000180: e9da 0e3d 258d 493d 64a1 903d 7ce0 11bd
00000190: 2cba daba 3ae2 aa3c 4292 22bd 42ad e63c
000001a0: ca2d 29bd 9528 4abd d36d c2bc 4e39 61bd
000001b0: 174e a93c fd94 923b 181e 3a3d 94cb 2bbc
000001c0: 1a84 053b b75e 4fbd 6b22 41bc ca8b c0bc
000001d0: 4a3b 9a3c bad5 f73c 4e6d 523d 8ef3 e03c
000001e0: 9037 af3c 8fb5 a73d 663b 173d f79b 92bb
000001f0: 3db3 ceba 4c70 253d bd9e 203d 0f79 f2bc
00000200: b49a 893d 5ff6 1f3d 09ec 61bc 5452 023e
00000210: ac61 c63c b9c7 a63d 4c7b 753c 567e 6dbc
00000220: 27b7 0ebc 6e17 b63c 8004 80bc b2cd 24bd
00000230: 946f bfbc 987c d2bc 3ebe fe3c cc02 bc3a
00000240: 25c6 b93d 5d87 c5bb c3f2 a53c a673 713d
00000250: 6477 7c3d 90aa f4b9 e3e7 893d 62dc 4e3d
00000260: 1b7a 6abc 948a 5dbd 666a dcbc 9120 02bd
00000270: c165 52bd 7fbd 9fbd 3d8d b2bc 5f6b a9bd
00000280: d016 82bd 0159 373d 97de 40bd 0aae 5c3c
00000290: 194e ee3c 1d95 c7bb b1c7 b4bc 5b9a 4bbc
000002a0: 9668 313d 2f18 c83b e628 373c f997 a73b
000002b0: 0245 38bc 3cee 973d add4 2c3d 1977 413c
000002c0: 813c cf3d d4e7 7d3c 0f5e d63d d128 503d
000002d0: 7ab3 803c c5e2 d73a a5f9 403c 54f8 76bd
000002e0: 48f0 20bd 5149 063d ac4a 663d a6fc 7d3c
000002f0: f6a7 ba3b 66eb bd3d abf7 a63d 4dd6 8e3c
00000300: de7a c73c cf1a d03d 2588 813d d544 71bc
00000310: c617 bb3d 3828 953d 34b3 9a3c 647b 64bb
00000320: 0876 bc3b 0b12 f43d 28ad 053d b7d8 f53c
00000330: f0c9 093d d944 b63c c4e6 5c3d 9650 1dbd
00000340: 7985 003d c5e8 86bc ab17 223c 4136 033b
00000350: bd07 55bd 7062 96ba 372f e3ba beb6 dfbc
00000360: 3509 74bc c975 4bbb 8153 48bd f84c 3b3d
00000370: c18c bb3c 23de b7bd dc4d 7a3b d103 353d
00000380: 9781 a0bb b9cf f4ba a061 83bd 8184 b5bb
00000390: 86fb 013c 0f09 4abd af77 283b 8a8b c53d
000003a0: 8b7f 5c3d 0233 e83c 0b94 0cbd a6e3 553b
000003b0: a22d 08bd 8c54 55bb 48d6 cebb d998 8c3c
000003c0: 6107 c9bc 7d83 723c 6a1d c03c b512 e4bc
000003d0: 8684 90bd a583 b6bc 94ea 21bd f486 11bd
000003e0: 4f13 dcbc 3e9e 73bc d0ef 61bd cf67 9fbd
000003f0: a7e3 32bc b3b8 79bc 2e5d 4b3c cc82 babc
0.052538443 0.025002243 -0.18399864 0.030485963 -0.0012597778 0.02646414 0.038463406 0.115671195
0.048138496 -0.05109191 -0.024505937 -0.00026346275 -0.07670438 -0.10499072 -0.027049854 -0.05778376
-0.03893354 -0.062399775 -0.020266779 -0.0173692 -0.037743628 -0.023272935 -0.024379281 -0.08640285
-0.05300966 -0.026732687 0.06416428 -0.010615135 -0.020889945 0.05658192 0.02596862 0.11902345
0.045249082 0.020266645 -0.07290268 -0.032504737 0.09387123 0.14136331 0.005326968 -0.026424037
-0.09264687 -0.054411653 0.0020707352 0.0017075059 0.0680654 0.07364859 0.007046548 0.025805166
0.084315985 -0.108096324 0.025313728 0.002598511 0.08112678 0.095693275 -0.03971051 -0.01563875
-0.015774677 -0.01773645 -0.076152295 -0.030040996 -0.027230276 -0.04661128 0.05028569 0.041653287
0.03213975 0.00637976 0.05379316 0.00567333 -0.018546797 -0.043870512 -0.03579413 -0.006011999
-0.017771628 -0.020265015 -0.05763255 0.00012559022 0.07869511 -0.000903142 -0.10583573 -0.04725429
0.0045788237 -0.08199959 -0.01820405 0.0050304863 -0.08001779 -0.074643746 -0.08830699 -0.08081406
-0.032618288 -0.059961956 0.059767026 0.041076865 0.018215751 0.013538971 -0.02089093 0.02981509
0.034876738 0.04920687 0.07062033 -0.035614476 -0.0016687564 0.020859826 -0.039690264 0.028158788
-0.041303433 -0.04935511 -0.023734009 -0.05498629 0.020667119 0.004473327 0.045438856 -0.0104855485
0.0020372928 -0.050627436 -0.011787991 -0.023504157 0.0188271 0.03025328 0.051373772 0.027459886
0.021388799 0.081889264 0.03692188 -0.004474159 -0.001576997 0.040390298 0.039213885 -0.02959874
0.067189604 0.039053317 -0.013789185 0.12726718 0.024216495 0.08143563 0.01498301 -0.014495453
-0.008710659 0.022227969 -0.015627146 -0.04023523 -0.023368634 -0.025694177 0.031096574 0.0014344095
0.09070996 -0.0060280995 0.02025736 0.05894818 0.061637297 -0.00046666386 0.06733682 0.050503142
-0.014311339 -0.054087237 -0.026906203 -0.03176934 -0.05136657 -0.077998154 -0.021795863 -0.082724325
-0.063520074 0.044762615 -0.04708728 0.0134692285 0.029089974 -0.0060907737 -0.022067877 -0.012426938
0.04331263 0.0061063985 0.011179185 0.005114552 -0.0112469215 0.074184865 0.04219501 0.01180818
0.10118962 0.015497167 0.10467159 0.050820176 0.015710581 0.0016470781 0.01177827 -0.060295418
-0.03929165 0.032784764 0.056223556 0.015502131 0.005696292 0.09273414 0.08152708 0.017436171
0.02435058 0.10161363 0.06324796 -0.0147258835 0.09135394 0.07283062 0.018884279 -0.0034863586
0.005751375 0.11917504 0.032635838 0.030010564 0.03363985 0.022249626 0.053931013 -0.03840693
0.03137729 -0.016468415 0.009893338 0.0020021352 -0.052009333 -0.0011473428 -0.0017332797 -0.027308818
-0.014894773 -0.0031045547 -0.04890776 0.0457277 0.022894265 -0.08977916 0.003819338 0.044193093
-0.004898261 -0.0018677629 -0.06415105 -0.0055394773 0.007933503 -0.049325045 0.0025706103 0.096457556
0.053832572 0.028344635 -0.034320872 0.003263691 -0.033246644 -0.0032551615 -0.0063121654 0.017162727
-0.024539651 0.014801857 0.023451526 -0.027840951 -0.07056527 -0.02227957 -0.03953035 -0.035529092
-0.026864676 -0.014869271 -0.055160344 -0.07783472 -0.010918534 -0.01524179 0.0124123525 -0.022767447

rca.body.2.bias f4 [48]
00000000: 9597 10be 7ae1 5dbe de59 803e eafb ba3d
00000010: 2bd3 fbbd bdc2 d53d 6686 183d e855 083e
00000020: a17a 203d 7ff5 a4be a3c2 7cbe 1d99 b3bd
00000030: 1906 ae3e 5730 aabe b9b1 c2bc 65d7 a8be
00000040: ba7d bfbd c91d 67be 0f08 9c3b c49b 3c3e
00000050: a22b 853d 154f 893d b9e1 2a3e 698e a7be
00000060: 112c bc3d 0a10 283e 4a19 22be ba3a 863d
00000070: c5e4 8a3e ac3f 993d 644e ff3d febf 12be
00000080: 77bb 0fbe 5da9 8f3e d627 ac3e a333 663e
00000090: 8447 76be 81ed cbbc 0462 9bbe 5daa 13bf
000000a0: 4a16 43bd 375d fa3e 69df e1bd 35fe 0a3d
000000b0: 9240 af3e e4cc 85be b4b7 e0be 9bf7 3cbe
-0.14120324 -0.21668044 0.25068563 0.0913008 -0.122961365 0.10437534 0.037237547 0.1331402
0.039179448 -0.3221855 -0.24683623 -0.087694384 0.33989027 -0.33240005 -0.023766385 -0.32976833
-0.09350152 -0.22569956 0.004761703 0.18418795 0.06502463 0.06704537 0.16687669 -0.32725838
0.091880925 0.16412368 -0.1582996 0.0655417 0.27127662 0.074828476 0.12466124 -0.14331052
-0.14036356 0.280589 0.33624142 0.22480635 -0.24050719 -0.024893524 -0.30348217 -0.5768183
-0.04762868 0.48899242 -0.1102894 0.033933837 0.3422895 -0.26132882 -0.43890154 -0.18453829

head.0.weight f4 [48, 3, 3, 3]
00000000: 8e83 3a3e a5d9 883c 8811 22be 5a15 32be
00000010: a56b 3b3e 61ed 20bc 9a27 993d e291 61bc
00000020: cab1 22bc f7af babd b70d 3b3c 66bd c0bd
00000030: 3b34 c63d 3487 a2bc 377e 4fbd 661e 2bbe
00000040: 3941 30be 391c 233e cec2 0fbe 709f 1cbe
00000050: 0f92 2ebd fb16 c13d a31e 293e 0466 fe3d
00000060: 2f30 3c3e 5a39 7e3d dfe1 db3d 6c46 a73c
00000070: 62f4 1a3e a52f f83d e17a 12be f06f 45be
00000080: a82f a63d 3f82 a0bd 1c8e 22bc 5cc3 27be
00000090: 70c5 febd 9704 3e3e 7522 00be 8de2 153d
000000a0: d1e2 86bd 6100 353e d3a3 183e 61e4 7f3d
000000b0: a336 4d3e c0e7 373e dafb 23be d21a 17be
000000c0: 3b4a 2abe 026a 153e 7f4d f1bc ede7 00be
000000d0: 992e ab3d 5588 8bbd f2b6 953d b2df da3c
000000e0: ff8f 6dbc d74a 05be c064 6abd d34c 9dbd
000000f0: 3111 4dbc c55c 3a3c be25 08bd dcde aebd
00000100: db9d 653d dbaf 9fbd f5d4 3f3e b7ba 203e
00000110: b694 413e f0c0 cf3d 33ea d4bd f163 d7bd
00000120: 86df 04bd 38ba 3ebd e366 023e 83a6 30be
00000130: 192d 8abd 52ff 9abd 2a98 3c3e c110 33be
00000140: a357 1e3e f3e2 2c3d 80a9 4abd c2ee b2bb
00000150: d9c4 29bd 57b8 373c 4cc3 78bd ec02 84bd
00000160: d5d0 a1bd 2c21 90bd 0a84 8fbd 9b5a 3d3e
00000170: c36f e3bd d314 0e3e dd12 1abe 7ef4 b93d
00000180: 4960 433e e363 d8bd 11b4 c2bd 6d0a 2b3e
00000190: 10e1 de3d 4ff7 e5bc ced5 063e 34c6 17be
000001a0: c897 ed3c 09fe cbbd c96e e2bd ab8b 3d3e
000001b0: 40ae 32bc ba22 543d 7615 21be 66ee afbc
000001c0: b9ae 173d 592a 32be 6dce 0a3e e585 563d
000001d0: 08d1 d4bd 04a0 25be 7f6c 42bd 84da 02be
000001e0: 133b 8ebd 3aad 95bd 7660 003d 8427 2e3d
000001f0: e689 08be 1544 493e 23db b0bd 7700 16be
00000200: 20fe 90bd 8ba2 20be fa2a 923d 7774 2c3e
00000210: 6d1d 2b3d 7fe9 d2bc 350e 83bc 6574 de3d
00000220: 5119 eebd 38f0 5f3c f06a 113e 974e e4bd
00000230: c58a 1bbe 056e bebd 18d0 40be 5205 ff3c
00000240: a54b 79bc 8676 253e a0c6 df3d c76e d0bb
00000250: c632 d53d b79b 8d3c 8194 12bd d027 a03d
00000260: 99b6 15be 2643 09be 0ecc 34be 39fa eabd
00000270: 4729 4b3d 8f10 49be b199 513d ad89 f3bb
00000280: e6ea 883d 728e 913d 3536 21be b641 1b3e
00000290: 8776 6ebc 54d8 cf3d 6763 1abe 0712 f4bd
000002a0: 3614 153e d8e3 b73d 7fc1 70bd 605d 99bd
000002b0: 956a 323e 5b3d d73d 5b63 31be 6169 2cbe
000002c0: f51b b63d bfb2 5f3c e48f c03b 63ce 4e3d
000002d0: c669 26be 699d 273e 656c cabd 5706 e0bd
000002e0: 56fe 633d 42c4 453e d18c 0a3e 6f4d 4bbe
000002f0: 02ea 343c eb67 e23c 3856 76bd f828 9abd
00000300: 4c73 213e 7692 ba3d e3b4 133d f6ff 193e
00000310: 4a1e 55bc 50a2 02bc c56f 3c3d b575 98bd
00000320: 302a f93d 3a22 fa3d 91ff ab3d a01a 83bd
00000330: 6a09 81bd 83b5 0fbe fac3 0b3c 5ef5 0a3e
00000340: fc2f f13d b81f 33be 23c0 2cbe 5c49 953d
00000350: bba5 18be e57e 41be ee4d a7bd 051d bb3d
00000360: 13a9 1abe 6a1c 303c d001 27be cb5a 39bd
00000370: 4013 2fbe 77a6 45be f143 34be 8a1f fe3c
00000380: 3c41 b53d 1ffe afbc 14d6 343e 9271 9d3d
00000390: ed8e d9bd 49d9 6d3d b5dc 583d bf7f e9bd
000003a0: 2670 193e a4f8 843d fa01 323e eadb f03d
000003b0: b969 153e bd63 05be 63ee 3f3d ad3d d7bd
000003c0: 1ef5 da3d 0766 023e 0288 483c 32ad 1f3e
000003d0: 6517 87bd 16e1 ff39 f959 113e e648 79bb
000003e0: f3d1 2c3d fea4 44be 2c4d 453d b16e 423d
000003f0: 7119 5cbd 9416 fa3c a4a7 063e 8bb3 7dbd
0.18214247 0.016705343 -0.15827 -0.17390957 0.18302782 -0.009822221 0.074782565 -0.013767691
-0.0099300835 -0.09115594 0.011416844 -0.09411125 0.09677931 -0.01983986 -0.050657477 -0.16710815
-0.1721238 0.15928735 -0.14039156 -0.15295196 -0.04261976 0.09428211 0.16515593 0.12421802
0.18377756 0.062066413 0.10736441 0.020419322 0.15132287 0.121184625 -0.14304687 -0.19280982
0.081145585 -0.078373425 -0.009921577 -0.16383117 -0.12440002 0.18556438 -0.12513144 0.03659301
-0.065862305 0.17675926 0.14906244 0.06247366 0.20040374 0.179595 -0.16014042 -0.14756325
-0.16629879 0.1459122 -0.029455898 -0.12588473 0.08358497 -0.06813113 0.07310285 0.026717994
-0.014499663 -0.1301683 -0.05722499 -0.07680669 -0.012516306 0.011374657 -0.03323912 -0.08538601
0.056058746 -0.07797214 0.1873358 0.15696226 0.18904385 0.10144222 -0.103962325 -0.10517109
-0.03243973 -0.04656431 0.1273456 -0.17251019 -0.06746883 -0.0756823 0.18417421 -0.1748686
0.15463118 0.042208623 -0.049478054 -0.005460591 -0.041447494 0.011213384 -0.060733125 -0.0644587
-0.0790116 -0.07037577 -0.07007606 0.18491594 -0.11105301 0.13875131 -0.15046258 0.09079836
0.19079699 -0.10565927 -0.09507001 0.16703196 0.10882771 -0.028072027 0.13167498 -0.14821702
0.029003039 -0.09960563 -0.11056287 0.1851031 -0.010905802 0.05179093 -0.15730843 -0.021475982
0.037031863 -0.17398967 0.13555308 0.052373786 -0.10391432 -0.16174322 -0.04746675 -0.1277867
-0.06944861 -0.07308431 0.031341992 0.042518154 -0.13333854 0.19654877 -0.08635547 -0.14648615
-0.070797205 -0.15687005 0.071371034 0.16841303 0.04177611 -0.025746105 -0.015997985 0.10862044
-0.116259225 0.013668112 0.1420095 -0.11147802 -0.15189655 -0.09298328 -0.18829381 0.031130467
-0.015215789 0.16158494 0.109265566 -0.006360862 0.10410075 0.017286165 -0.035786156 0.07820094
-0.14620437 -0.13404521 -0.17655966 -0.114735074 0.049599912 -0.19635223 0.051171962 -0.0074321837
0.06685428 0.071072474 -0.15743335 0.15161785 -0.014554626 0.10148683 -0.15076981 -0.11917501
0.14558491 0.089790046 -0.058778282 -0.07488513 0.1742347 0.105097495 -0.17323057 -0.16837074
0.08892051 0.013653456 0.005876528 0.050489794 -0.16251287 0.16368641 -0.09883956 -0.10938709
0.055662476 0.19313148 0.1353028 -0.19853757 0.01104212 0.027637443 -0.06014082 -0.075273454
0.15766639 0.091099665 0.03606118 0.15039048 -0.01300771 -0.007973269 0.04600503 -0.07444326
0.1216625 0.122135594 0.08398355 -0.06401563 -0.06300624 -0.14034085 0.008530611 0.13570163
0.117767304 -0.17492568 -0.1687017 0.07289383 -0.14906971 -0.18896063 -0.08169161 0.091363944
-0.15103559 0.010748962 -0.16309285 -0.045252603 -0.17097187 -0.19301783 -0.17604043 0.031020898
0.08850333 -0.021483479 0.1765979 0.076876774 -0.10622964 0.058068547 0.052944858 -0.11401319
0.14984187 0.06492737 0.17383566 0.11760695 0.14591111 -0.13026328 0.046858203 -0.105098106
0.10691284 0.12734233 0.012239458 0.15593413 -0.06596259 0.00048805092 0.14194478 -0.0038037836
0.04219241 -0.19203565 0.0481693 0.047468845 -0.0537352 0.030528344 0.13149887 -0.061938804

head.0.bias f4 [48]
00000000: 6656 67bd 0619 3b3d 416b 1dbe 0110 233f
00000010: df2d 373e 5cd9 a8bd ce1a 0e3e 14fa 643d
00000020: d010 8dbe 76a7 953d c854 203d 242c e43d
00000030: bff8 00be d243 8f3d 8b5d 05bf cf40 cebd
00000040: 4f0b 403c a735 e6be 05e8 243d 3752 99bd
00000050: f015 18be db2d b43d 2ab1 e9be 673a a7be
00000060: 28d0 aabd 42b5 233e 1c43 443e f8e8 803d
00000070: c720 06bd d36c 64be 50a2 a0be 106d 803d
00000080: 50ac adbe 942d c1bd 81b0 503e 3998 403d
00000090: acf5 76bd 5a4b 8cbe 9f3e 7abd 0987 713e
000000a0: 0c90 5dbe 4931 45bd b78e 6e3e acd7 32be
000000b0: 539d 403e 410f 063d 114f c43d 1f64 d03d
-0.05647888 0.04567816 -0.15372945 0.63696295 0.17888592 -0.08244583 0.13877413 0.055902556
-0.2755189 0.07307331 0.039143354 0.11141232 -0.12594889 0.069953576 -0.5209586 -0.10070955
0.011721446 -0.44962808 0.040260334 -0.07486384 -0.14852118 0.08797809 -0.45642978 -0.32661745
-0.08340484 0.15987113 0.19166225 0.06294435 -0.032746103 -0.22307138 -0.31373835 0.06270802
-0.33920527 -0.094325215 0.20379831 0.04702017 -0.060292885 -0.2740124 -0.061094876 0.23586668
-0.21636981 -0.048142705 0.23296629 -0.17465085 0.18810014 0.03272939 0.09585393 0.101753466

head.1.weight f4 [48, 48, 3, 3]
00000000: 5f99 253d b9e2 283d b9db 033d 8a47 0c3d
00000010: c76d 19bc e0e8 d43b 029d 333c aab6 00bd
00000020: 0900 1f3d 0f3d a93c 7ccb aebb ab26 73bc
00000030: 66ce b6bc 141d c93c 1d96 2bbd 378f b83c
00000040: 5bc0 243d 35d3 91bc e365 d03a 774d 3fbc
00000050: 7e6c b6bc 1808 f03c 4721 86bb f30a bdbb
00000060: 5d7e bc3c 0ff8 a33b d966 d3bc 43de 16bd
00000070: ad56 54bc fbfd 3c3d 0e91 17bd ed7c 703c
00000080: d3b3 bfbc 2d29 e4bb 0cb1 883c 2a74 b73c
00000090: 625e cabc b9d6 0dbd 5141 023d 1058 51bd
000000a0: 3741 dcbc 98fe 4cbb 2207 d1ba a2e3 f5bc
000000b0: f23b 1a3d 278a c3ba cb20 0cbd f978 5d3c
000000c0: 4f3d 06bc 5a34 46bd 3e9e 21bd 0a31 3bbd
000000d0: 8aea 21bd 85fc 153b ba22 9cbc f904 533b
000000e0: bfff 5a3c fbb5 2c3d 7878 4fbd 921b b8bc
000000f0: d126 a23c 9dac 1a3d 51e4 4bbd fc65 12bd
00000100: 653e 183c b264 adbc 99fd 2f3a 3c4e ba3b
00000110: cf3d e43c 70f4 153d 36dc 9ebc fd3f 19bc
00000120: e561 eb3c 2839 e73c b2bd d0bc aa46 10bc
00000130: c71a faba 1beb cd3c 51cf 0abd 2451 06bc
00000140: 5efc 8f3c ea4c cf3c 4034 083c 5336 9abc
00000150: cb87 043d 3fbb 3d3d babd 3e3d 6e01 b3bc
00000160: 5a76 9b3c 0afb 4b3c 4557 773b a0a5 3b3c
00000170: f2f6 093d e52f 4bbc b6f8 463d 7be0 043d
00000180: 25cc 11bd eaf7 54bb 9918 01bd deee 473d
00000190: 1cab 123d 5d8b 9f3c 1d04 f03c 44ae 363d
000001a0: dd97 ac3b c145 bbbc d720 08bd 467a bb3c
000001b0: c45b d739 9aa9 70bb 5f06 f13c d1b0 623c
000001c0: 98a4 b33c 3570 443d 20e7 c43c 6cad f7bc
000001d0: 4e51 bb3b 51cf b3bc 97aa 853c a29e 0b3b
000001e0: 6b5b 163c 1c5d 81bc 2ed8 0bbd 3c73 4e3c
000001f0: 65cd 13bd ae71 2a3d b68b 913c 276c d6bb
00000200: 2f0a 74bc 51b1 9b3b 0d8b 76bc fd90 c33a
00000210: f0fa bc3c 4663 82bc 0965 10bc 2cc9 4abc
00000220: 6186 f83b 3bc0 1abd 091d 603c b8cf 85bc
00000230: dd95 cdbc 8814 27bd be38 c7bc f2bf d4bc
00000240: 8d9b 2e3d 9c9c 57bc 7197 68bc b1ba 923b
00000250: 2e15 71bb a488 0bbd 7c95 123d 1a99 cdbc
00000260: 36e9 353b 31f7 f53c bb1b c93c 8a7d febc
00000270: 92bc 003d 87d2 9ebc 6837 5b3c 30f7 26bc
00000280: f94b 673b 48af 37bd 22d7 763c 18e3 413c
00000290: 4e82 bebb 4988 f13b a471 733d 5efc 62bb
000002a0: 8fa3 fc3c 74bd 993c 72ea afbc 2526 9c3b
000002b0: ee31 053c 5933 89bc 75d9 21bc 9cfc b13c
000002c0: db37 063d 3268 dabc 4d17 073d 2da8 f9bc
000002d0: f040 f1bc a1ab c13b a5b6 20bb 43fa 2c3d
000002e0: 5b20 04bc a36e 683c ecdf 22bd 1405 0cbc
000002f0: dfa5 783c 802e efbc 6e13 00bd 42c2 88bc
00000300: e9d2 923c 02ad f33c c963 d6bc 712b 123d
00000310: b5b0 10bc 7bc6 323c b7fa 0bbc b5c7 f6bc
00000320: 483e 61bc 7c30 8fbb 6ce7 ef3c d28b 1c3d
00000330: ddf5 e93b 5499 07bd a03c 523c 341e 98bc
00000340: 2b52 9e3c e028 693d 0d4c 55bd af7c 77bd
00000350: 5b0e b43c 9333 c9bc 31bd d93a 1307 3f3c
00000360: 35ce efbc 2008 f6bc 0492 f5bb c2d9 19bd
00000370: 2e64 cc3c 74fa 50bd 19ff 153d 628f 183d
00000380: 88a4 17bd 8d3f 643c 42ea debc edd2 953c
00000390: 3713 673d 1580 8c3c 7115 243c cb73 de3c
000003a0: 0afe 453d 0e1a 0d3d 58b8 ec3c c3fd 16bd
000003b0: 6a2c 90ba 5e1e a7bc 0eb2 24bd 930b 83bc
000003c0: a50a 06bd 90fc ddbc a9f8 1b3d 14a2 753c
000003d0: 09c7 da3c 32b3 b83c 025b 57bc ebf4 96bd
000003e0: cfc4 963c 1cf6 30bc f6eb cf3c a6a9 a6bc
000003f0: 3d0e 0abd cf0a 85bb 5914 12bd 289a 653d
0.04042947 0.041231845 0.032191966 0.034247912 -0.009364552 0.0064974874 0.010962727 -0.031424202
0.038818393 0.020658998 -0.005334316 -0.014840762 -0.022315215 0.024549998 -0.041891206 0.022529228
0.040222507 -0.017800907 0.0015899505 -0.011676184 -0.02226853 0.029300734 -0.0040933224 -0.0057691275
0.023009473 0.005003936 -0.025805878 -0.03683306 -0.012960118 0.046140652 -0.03700357 0.014678222
-0.023401177 -0.0069629163 0.016685985 0.022394259 -0.024703208 -0.034628604 0.03180057 -0.051109374
-0.026886566 -0.003127968 -0.001594756 -0.03001577 0.037654825 -0.0014918492 -0.03421096 0.013517612
-0.008193328 -0.04838977 -0.039457552 -0.045701064 -0.039530315 0.002288611 -0.019059528 0.003219901
0.013366639 0.042165738 -0.050651997 -0.022474084 0.0197939 0.037762273 -0.049778286 -0.03574179
0.00929222 -0.02116618 0.0006713509 0.005685596 0.027861504 0.036610067 -0.019392114 -0.009353635
0.028733203 0.028225496 -0.025481079 -0.00880591 -0.0019081467 0.025136521 -0.03388912 -0.008198056
0.017576393 0.02530523 0.008313239 -0.018824732 0.032356065 0.04632115 0.046567656 -0.021851268
0.018977333 0.012449989 0.0037741226 0.011453062 0.03368277 -0.012401556 0.048577033 0.032440644
-0.035595078 -0.00324964 -0.0315176 0.048811786 0.035807714 0.019475633 0.029298836 0.044599786
0.005267127 -0.02286041 -0.033234444 0.022885453 0.00041076366 -0.0036722184 0.029421983 0.013836102
0.02192907 0.04795857 0.02403599 -0.030234061 0.0057164794 -0.021949442 0.016316695 0.002130427
0.009177069 -0.015791468 -0.034141712 0.012600716 -0.03608455 0.04161232 0.017766815 -0.0065436545
-0.014895006 0.0047513624 -0.015047801 0.0014920529 0.023068875 -0.015916478 -0.008813151 -0.012377065
0.0075843786 -0.03778098 0.0136787975 -0.0163344 -0.025095874 -0.040791065 -0.024319049 -0.025970433
0.042628814 -0.013159897 -0.014196263 0.0044778218 -0.0036786306 -0.034065858 0.03578709 -0.025097419
0.0027757413 0.030025097 0.024549356 -0.031065721 0.031429835 -0.019387497 0.013379909 -0.01019077
0.0035293086 -0.044844896 0.01506594 0.0118339285 -0.0058138734 0.007370983 0.059434548 -0.0034635286
0.03083971 0.018767096 -0.021474097 0.0047652894 0.00812958 -0.016748117 -0.009878506 0.021726899
0.03276811 -0.026661012 0.032981206 -0.0304757 -0.02944991 0.0059103523 -0.0024522927 0.042230856
-0.008064355 0.014186534 -0.03976433 -0.008546133 0.0151762655 -0.029196978 -0.03126853 -0.016694192
0.017922835 0.029745582 -0.026170628 0.03568596 -0.008831193 0.010911579 -0.008543662 -0.030124525
-0.013747759 -0.0043697935 0.029285155 0.03821928 0.007139905 -0.03310521 0.012831837 -0.01856909
0.01932629 0.056923747 -0.05207448 -0.060421642 0.021979501 -0.024560725 0.001661217 0.0116594015
-0.029273132 -0.030033171 -0.007494213 -0.037561186 0.024950113 -0.0510201 0.036620233 0.037246116
-0.037022144 0.013931167 -0.027211312 0.018289054 0.05641481 0.017150918 0.010014878 0.027154824
0.048337974 0.034448676 0.028896496 -0.0368631 -0.0010999565 -0.020400222 -0.04020887 -0.01599673
-0.032724995 -0.02709797 0.038078938 0.014992256 0.026706235 0.022546384 -0.013144257 -0.07370933
0.018404393 -0.010800865 0.02538107 -0.020344567 -0.033704985 -0.0040601264 -0.035663936 0.056055218

head.1.bias f4 [48]
00000000: 508b 5d3a fd56 b0bf 0610 cf3c 33c6 73bd
00000010: 84ff 5abd 331d 4fbf df05 a1be 9bc8 b4be
00000020: 3338 613c 2b9a 0fbf c86f efbe 7f95 e83d
00000030: 1b93 e23e ebdf 94be 84e6 8ebd 8506 043e
00000040: 167e 66bf 7e52 f4bd 349b 0c3f abe5 44be
00000050: a24b f13d 2499 993e 2ccc 9cbd 31e4 b9be
00000060: e9c4 d73e 545b 69bd 6f70 acbe f9df 833d
00000070: 0ead 22be 981b 58be d94a a43d b9d6 3bbe
00000080: f1ab dcbe a2b0 0c3f 4d89 493f 9b5e 123e
00000090: 2d1e 8cbe e42b 883e 175d 09bf 86b0 9a3d
000000a0: 67d6 b43e 28a5 8b3d 16e9 8cbe 91d9 433d
000000b0: 9191 e53e a5c8 413e 36c0 f5be 99da ca3e
0.000845124 -1.3776547 0.025276195 -0.05951519 -0.053466335 -0.8090393 -0.31449792 -0.353093
0.013746309 -0.56094617 -0.4676497 0.11356639 0.44252858 -0.29077086 -0.06977561 0.12893112
-0.9003614 -0.11929797 0.5492432 -0.19228236 0.11782004 0.2999965 -0.0765613 -0.3630691
0.42142418 -0.056971863 -0.3367953 0.06439204 -0.15886328 -0.21104276 0.080220886 -0.18343629
-0.4309993 0.5495702 0.7872513 0.14293902 -0.27366772 0.26595986 -0.5365767 0.075532004
0.35319826 0.068186104 -0.2752158 0.04781491 0.4483762 0.18924196 -0.47998208 0.39619902

body.0.ca.conv_du.0.weight f4 [3, 48, 1, 1]
00000000: 6b35 29bd ef31 ae3d 5fb0 a9bd 6c58 7bbb
00000010: 13e5 06bd 28e4 473d fbc1 e3bd 18b3 4bbc
00000020: 2361 013e 889b 6a3d 3f2e 01be b73f 053e
00000030: 657e 53bd 5879 7fbc 8eaa 0cbd 95df 9fbd
00000040: 5365 e83d bfeb d0bd 77a6 313e b855 e8bc
00000050: 9831 e53d f84d 43bd 427d 7d3d 56f9 8d3d
00000060: 7ddf c63d 008f 24be 9277 583c 90fb 8a3d
00000070: 8959 6e3b 0b55 06be 8819 cbbd 98d1 06be
00000080: 5c0b da3d 0383 08be 3128 213e 608f 203d
00000090: e0d8 93bd 29f3 be3d 4e06 3abd 3948 193e
000000a0: 0da4 23be 448b 023e b781 f63c 1e33 1fbe
000000b0: fede 60ba 4009 c9bd d9a3 d33d 932b 66bc
000000c0: 93c9 64bd e4ac 3abd 6113 113e 46ba 703d
000000d0: b83a 9e3d e0ed 193e 8ecb 073e 6565 e63d
000000e0: 91d4 bbbd 2f82 1cbe 3bbe 8dbd 930c 1abd
000000f0: 92ef 94bd d16c 03be 3c30 b83d 1f9b f3bd
00000100: cabb 9e3d 4c7c 8f3c 6ac9 083d c6c2 6a3b
00000110: 99e4 2f3e 3dc1 0abd 1834 bebd 1f57 5b3c
00000120: 2e75 b93c 2c57 883d 261e 20bc b8ec e73c
00000130: 9d74 c93d 7a85 113d f6e1 f33d ca32 7abd
00000140: 2a32 edbd 7930 4c3e 9d39 d43d 6bbe 0a3e
00000150: 1ba8 383d a8b9 0cbe 49b9 5dbd 7d8c 2cbd
00000160: 8e90 eebc aea7 713d 2084 13be 419b aa3d
00000170: 75b2 4ebd 4a25 33bc 1f20 38be 558d 20be
00000180: 7e70 823c 1808 bc3d deb0 143d 3d78 82bd
00000190: e600 cfbc 159d 1dbd 6831 233c bbbb dfbd
000001a0: d6e2 7ebd 33f1 c13d 4f86 87bd ba73 44bd
000001b0: daa9 e13d 2c10 4c3d bff7 0f3d 1521 59bc
000001c0: 4a34 b83d aad9 163e c191 e9bc 0d2b 973d
000001d0: b138 e0bd f090 d9bd 9756 c9bd fdde bebd
000001e0: eecf 303e 8233 1f3d 52bb 8bbd 9121 b93d
000001f0: 571a c03d 737e 473d dce3 983d 6f0e afbd
00000200: d947 263e 5c7a 8cbd 9bd0 98bc 6198 1fbe
00000210: 87a3 b53d 0407 aa3d 04a3 fa3c 8af1 f23b
00000220: 2def 0fbe ab67 8dbd 3db2 c4bd 3e1f 90bd
00000230: 45eb 20bd a90c 6a3d d9b5 22be b543 b8bd
-0.04131071 0.08505618 -0.08285593 -0.0038352264 -0.032933306 0.04880157 -0.11120983 -0.012432836
0.12634711 0.057277232 -0.12615298 0.13012587 -0.05163421 -0.015592895 -0.03434234 -0.07806317
0.11347451 -0.10201215 0.17348658 -0.028361186 0.111911 -0.04768178 0.061887033 0.06932323
0.09710596 -0.16070175 0.0132121015 0.06786263 0.0036369285 -0.13118379 -0.09916979 -0.13165891
0.10646698 -0.13331227 0.15737988 0.039199233 -0.072191 0.09323723 -0.04541617 0.14968957
-0.15980549 0.12748438 0.03009115 -0.15546843 -0.00085781503 -0.098162174 0.10333986 -0.014048475
-0.0558563 -0.045575038 0.14167549 0.058771394 0.077260435 0.15032148 0.13261244 0.11249808
-0.09171403 -0.15284036 -0.06921049 -0.037609648 -0.07272257 -0.12834479 0.08993575 -0.118948214
0.07750662 0.017515324 0.03339521 0.003582166 0.17177047 -0.033875693 -0.0928728 0.0133874705
0.022638883 0.06657252 -0.009772813 0.028311118 0.09836695 0.035527684 0.11908333 -0.061083592
-0.11581834 0.19940366 0.10362551 0.13549201 0.045082193 -0.13742697 -0.05413178 -0.042126168
-0.029121663 0.058997802 -0.1440587 0.083303936 -0.05046316 -0.010934183 -0.17981003 -0.15678914
0.015922781 0.09181231 0.036301486 -0.0637059 -0.025268983 -0.038479883 0.00996051 -0.109244786
-0.062228046 0.09469833 -0.06617414 -0.047961928 0.11018725 0.04982011 0.03514838 -0.013252516
0.08994348 0.1473147 -0.028511884 0.07381258 -0.10948313 -0.10623348 -0.09830969 -0.093198754
0.17266819 0.03886748 -0.06822838 0.090396054 0.09380024 0.048704576 0.07465336 -0.08547675
0.16238345 -0.06859276 -0.018654158 -0.15585472 0.08869081 0.083021194 0.03059531 0.0074140476
-0.14056082 -0.06904539 -0.09604309 -0.07037209 -0.03928687 0.05714098 -0.15889682 -0.08997289

body.0.ca.conv_du.0.bias f4 [3]
00000000: 43f7 90bd e50a e13e 6bde 09bd
-0.070784114 0.43953624 -0.03365938
