e_model_files/e_model/eSR-TR_s2_K3_C4.pth (torch, 604088 bytes, 80 tensors)

layer.filter.weight f4 [144, 48, 3, 3]
00000000: d9e5 453d 0edf e23b 87f3 003d cf57 cc3b
00000010: e124 813f ddac 28bc e0ae bbbd b817 f33c
00000020: 7840 52bd 471d 1fbb 4811 cb3b 2ad9 19bd
00000030: eefb 083d 0606 2c3d 08b8 0ebd b507 1d3d
00000040: 986c b6bc 52ea 313c 3a4d 49bc 0743 023d
00000050: 68ec 443b 3e3b 65bc 7b52 493d afd2 7d3c
00000060: 9cfa 72bc ff90 68bc a327 92bc f1fb 3f3b
00000070: 44ee 223d 910b 683c 8b00 2cbc 1ecc 093d
00000080: d9bd 88bd 5998 e33c ddd9 133d bb2f 1fbc
00000090: 302c d73c 888d e0bc fa44 4d3c ac76 eb3c
000000a0: dafa a9bc bf91 02bc 483d c63c 3ffb 8abc
000000b0: bc3c 7dbc 728c a2bc 5823 20bd 4eb8 3e3d
000000c0: 5d8d f7bc 5f82 7ebd 9b47 7fbc 2653 af3c
000000d0: bdd9 353d 4934 e03b 6afd f5bc 41bb 5abd
000000e0: 9104 1e3c b203 72bd 5c44 91bd 66d6 2dbd
000000f0: a90e a6bc 09ce 42bd 63be 043c 9416 d83c
00000100: 6f1b ee3c 06a9 bdbb cec7 273c 3880 b23d
00000110: 498f c33c d89c 083c 5340 ae3c 1bc1 55bc
00000120: 2345 0f3c edac 2b3c 38ec 17bc 9719 a2bb
00000130: a934 23bd 2c8d bd3a a269 133d 11e0 23bd
00000140: 7f98 fa3b b9f3 14bc 4619 e13c b2e0 003c
00000150: 6b86 bc3c 2c89 4b3d ab8b 2e3d d2dd 563d
00000160: 3ffc 21bc 1be1 323b f9d5 bd3b 0f3a 503c
00000170: 56c6 a13c 2d5e 30bc 04eb 6b3d bdc8 bebc
00000180: dc16 39bd f12d a0bc 7740 6dbc eed8 5a3c
00000190: fa89 acbc a65f c1bb da3e d03c f659 75bd
000001a0: 53a7 313d 2de2 263b e29c d7bc 3b67 11bc
000001b0: 3124 9abc 2415 793d 41cd a9bc 5bf1 533a
000001c0: c2b9 3cbd 2605 8e3c 8de5 aabb 0a03 6b3b
000001d0: 983d 60bc 8dc3 03bd a219 923c 3529 c6bc
000001e0: a0aa 30bc 4d9e 623c a059 9239 d31e 7c3c
000001f0: 890f f83c 620c 34bc f0df 4f3d a249 a63b
00000200: 12b6 133d 152c 023c cecb 273d 5da9 debc
00000210: 4e95 8abc e2e6 00bd 758a 843c 5d7d 493d
00000220: b904 4bbc 7a8a afbc 9007 1d3d 828b 6bbd
00000230: 4492 9a3c 4859 20bc 6e9a a63b a407 a6bc
00000240: 5abd fdbc 0d2d cdbc 2d15 b0bb 5938 603c
00000250: 1f3d cf3d 7a67 893c 406c 2a3a 0296 0cbd
00000260: 9092 ecbc 8e6d 89bc 141e b6bb d206 1abc
00000270: 4619 e33a 508d 8fbb 79a7 e23b 6d2f 793b
00000280: b8d2 4a3d aae0 ccbc 8745 733c 9694 9abd
00000290: 1cea b53b f8e4 9e3c d5f7 003d 16d9 0bbc
000002a0: 5326 87bd 0fc4 82bd c06c c23a 71db 10bd
000002b0: 4aa8 923c bb41 c03c 3bcc 433d 7f17 d23c
000002c0: 6462 2dbb 9a4e 10bd 8e31 9abc cff9 00b9
000002d0: e2db b7bb b7b6 a4bc a6a6 013c ab1a d33c
000002e0: ebc9 82bc 5c8a 363d 71e9 963c ffb2 913c
000002f0: 9087 b23c ffd2 dabc 7933 313d 7e5c 853b
00000300: 0833 3d3c 249b a1bc fe87 b33c a0ec f7bb
00000310: 141f a0bc 4a3d be3b db86 4e3c fc35 84bc
00000320: 3aae a6bb 9abe 83bd cac9 923c 0aa3 503c
00000330: 2f08 c13c 5169 563b 7430 fb3c 843d 6abc
00000340: 569a 703d e7ca 46bc 2842 203d 64f6 14bd
00000350: 9db1 bdbc f3e6 0b3c ef2d ecbb 7b1e 9a3c
00000360: f5e2 63bd 9ffc 173d 2424 bbbc fe89 073c
00000370: e2a4 663d 57e4 4b3d e778 0cbd a64b aabc
00000380: 65a3 d0bc 0038 ccbc 6b7d e33b b0d5 063d
00000390: 090c 2c3c e178 b3bd 5063 1d3d 4d67 ac3c
000003a0: 9f66 a9bc 1c18 6e3b e6b8 3dbd d821 a6bb
000003b0: 46c5 36bc 0171 4abd 9ecf d7bc 277e 0c3d
000003c0: 69bd 2fbb 7b15 3a3d 6af7 893c 6516 933c
000003d0: 7dca 1f3d a0ee af3c 794f 4abd 0a37 aebc
000003e0: b045 5a3b 0dce 093a abbd cfbb 9b0f 0f3c
000003f0: 3f0a 6fbd e5a8 783c e691 f33b c547 abbd
0.048314903 0.006923563 0.031482246 0.0062360535 1.008938 -0.01029512 -0.09164214 0.029674396
-0.051331013 -0.0024278925 0.0061971284 -0.03756062 0.033443384 0.041997932 -0.034843475 0.038337428
-0.022268578 0.010859089 -0.012286479 0.031802204 0.0030048136 -0.013991175 0.049150925 0.015492125
-0.014830258 -0.014194726 -0.017841166 0.0029294456 0.03977801 0.014162914 -0.010498176 0.033641927
-0.066768356 0.027782606 0.036096442 -0.00971597 0.026266187 -0.027411237 0.012528652 0.02874311
-0.020749498 -0.007969319 0.024199143 -0.016965507 -0.015456375 -0.01984236 -0.039096206 0.046562485
-0.030218774 -0.06213605 -0.015581037 0.021401953 0.044397105 0.0068421704 -0.030028064 -0.053401235
0.009644643 -0.059085555 -0.07093117 -0.042440794 -0.020270662 -0.04755977 0.008102032 0.026377954
0.029065816 -0.0057879714 0.010240508 0.08715862 0.023872035 0.008338176 0.021270907 -0.013046528
0.008744511 0.01047824 -0.0092726275 -0.004946898 -0.039845143 0.0014461628 0.03598941 -0.04000861
0.0076475735 -0.009091311 0.027477872 0.007866072 0.023013314 0.049691364 0.042613667 0.052457638
-0.0098868 0.0027294818 0.00579333 0.012709155 0.019747894 -0.010764641 0.057597175 -0.023289079
-0.045187816 -0.019553157 -0.014480702 0.013357384 -0.021061886 -0.0059012948 0.025420595 -0.059900247
0.043372463 0.00254644 -0.026319925 -0.00887471 -0.018816086 0.060811177 -0.020727756 0.0008084976
-0.04607559 0.01733644 -0.005215353 0.0035859966 -0.01368656 -0.032168914 0.017834488 -0.02418957
-0.010782868 0.013831687 0.00027914066 0.015388208 0.030280845 -0.01098928 0.050750673 0.0050746957
0.036062308 0.00794508 0.040965848 -0.027180368 -0.016916897 -0.031470187 0.016179303 0.04919182
-0.012391263 -0.021428335 0.03833729 -0.057506092 0.018868573 -0.009786911 0.0050843274 -0.020267315
-0.030974079 -0.025045896 -0.005373618 0.013685309 0.1011908 0.016772974 0.0006501116 -0.034322746
-0.02887848 -0.016775873 -0.005557785 -0.00940104 0.0017326258 -0.0043808594 0.006916937 0.0038022653
0.049517363 -0.025009472 0.01484812 -0.07547872 0.0055515897 0.01939629 0.03148635 -0.008535644
-0.06599107 -0.063850515 0.0014833435 -0.035365526 0.017902512 0.023468843 0.04780219 0.02564597
-0.002645635 -0.03523121 -0.018822458 -0.00012300092 -0.005610929 -0.020106656 0.007913267 0.025769552
-0.015965423 0.044565544 0.01842186 0.017785547 0.021793157 -0.026711939 0.04326198 0.004069864
0.011547811 -0.019727297 0.021915432 -0.0075660497 -0.01954607 0.005805646 0.012605394 -0.016139023
-0.0050866874 -0.06432839 0.017918486 0.012734184 0.023563473 0.0032716582 0.030662753 -0.014296893
0.058740936 -0.012133337 0.03912559 -0.03636779 -0.023155982 0.008538949 -0.007207624 0.018813362
-0.055636365 0.037106153 -0.022844382 0.008272646 0.05630959 0.04977831 -0.03429499 -0.020788025
-0.025468538 -0.024929047 0.006942441 0.032918632 0.010500916 -0.0876329 0.03842479 0.021045351
-0.020678816 0.0036330288 -0.04631891 -0.0050699525 -0.011155432 -0.049424175 -0.026344117 0.034299996
-0.0026815778 0.04543064 0.016841609 0.017955014 0.039011467 0.02147609 -0.049392197 -0.021266479
0.0033305697 0.0005256839 -0.006339749 0.008731748 -0.05835938 0.015176986 0.007433164 -0.08363298

rca.ca.conv_du.0.weight f4 [3, 48, 1, 1]
00000000: 962b 5fbc ac55 8dbd 0776 0d3e e4f0 d4bd
00000010: 8fdd 26bc c69e 1cbe f8ba 7b3d 2df6 8e3d
00000020: a68f e5bd 31c0 51bc 13fb 963d 8835 913d
00000030: 92bb 0f3a a6e9 203d 7277 44bd 89a4 17bd
00000040: 83a2 403d 7e13 a2b9 a466 31bd de86 7f3d
00000050: 9841 d0bd 0dd0 0cbe 99b1 ebbc 6115 91bd
00000060: 725e 0d3e efb2 593d 1f63 32bd 92f0 e73d
00000070: 4928 833c dcae 013e 313a e1bd b1f3 cfbd
00000080: 5067 693e 18d1 00bd 0f8a 773d 1b52 563d
00000090: e92a 623e 3dab c43d 38fd fd3b 1d13 a13c
000000a0: 8527 4cbd c004 21bb 7cc9 83bc 5f86 1c3d
000000b0: 041c 04be 437a 193d 43b0 1ebd 5bef a43a
000000c0: c03b 163e 2497 08be 6dba 2bbd 3af1 2fbd
000000d0: ecc2 00be b8ad 40bc 3b5b d03d 6ea7 eb3d
000000e0: 3f6f 1e3e 9091 81bc 05ae 353d 50d7 913d
000000f0: 9528 a1bd 59e3 b3bd 1a98 323d 4ad5 463d
00000100: de9b 1c3e 3f29 c5bd dd28 b3bd aa04 da3c
00000110: 580a d4bc cdc7 26be 2319 c6bb f2d6 f6ba
00000120: ed72 7c3d 1081 ca3d 4520 58bd 35da 453a
00000130: 720a c2bc 5478 8c3c 5fad a23d 9d08 81bb
00000140: 47f7 c6bd 6037 c63c c1e0 24be 44e8 283d
00000150: eb30 23bd eed6 d13d e1b5 18bd d10a 18be
00000160: 2b9d f93d 5a4b 82bd 2b19 163d 0d55 123e
00000170: 6aef 93bd 8cd3 aebd 21c5 633d ad7d 11bd
00000180: cfd0 cdbc 1454 efbd 19f5 e53d 7a67 1bbe
00000190: fe56 ca3d e37e 483d 8dda 3bbe 6596 97bb
000001a0: 1490 e1bc 48f5 f4bc 6151 143d 4ba3 2c3e
000001b0: 7cc1 c4bd 65a4 c03c 8fa0 2e3e 35f0 d13c
000001c0: b81d 593e 7aaf 90bc f4aa 2d3d e41c a53d
000001d0: c19c 12be d173 f0bd 28ba cdbc de46 853e
000001e0: 1b4c 2e3b 3407 11bb 4205 873d 7d8d 0fbe
000001f0: f8db f7bd 8b05 323e 4771 4ebe 57de a03d
00000200: 8fad 76bd 3274 f73d 2166 3fbe bbc2 7b3c
00000210: 649c 41bc 72cf f23d ba8f 20be 93c8 b83d
00000220: 9631 4fbe 5ae5 82be 8f5a 203c 501e f638
00000230: 804b 423e 9e11 383c 0d55 f7bc d453 a73d
-0.013621232 -0.06901106 0.13814555 -0.10397509 -0.01018466 -0.15294942 0.061457604 0.06980548
-0.112090394 -0.01280217 0.07372107 0.070902884 0.0005482967 0.039285325 -0.047965474 -0.037022147
0.047029983 -0.0003091357 -0.043310776 0.06238448 -0.10168761 -0.1375124 -0.028771209 -0.07084156
0.1380556 0.05314916 -0.04355156 0.11325182 0.01601042 0.1266436 -0.10997427 -0.10153902
0.22793317 -0.031449407 0.060434397 0.052324396 0.22086681 0.096029736 0.0077511333 0.019662434
-0.049842376 -0.0024569482 -0.016087286 0.038214084 -0.12901312 0.037470113 -0.038742315 0.001258354
0.1467123 -0.13338906 -0.041925836 -0.04295466 -0.12574357 -0.011760168 0.10173651 0.11506544
0.15472125 -0.01581648 0.04435541 0.07121146 -0.078690685 -0.087835975 0.043602087 0.048543252
0.15293834 -0.09627008 -0.087480284 0.026613552 -0.025883839 -0.16287155 -0.006045477 -0.0018832369
0.06163304 0.09887898 -0.05276515 0.0007547469 -0.023686621 0.01714722 0.07943224 -0.0039377944
-0.09715133 0.024196327 -0.16101362 0.04123713 -0.039841574 0.10246073 -0.03728283 -0.14847876
0.121881805 -0.063620284 0.036645096 0.14290257 -0.07223399 -0.08536443 0.05560792 -0.035520244
-0.025123982 -0.116859585 0.11228389 -0.15176192 0.09879874 0.048949134 -0.1834509 -0.0046260827
-0.027534522 -0.029902115 0.03621042 0.16859166 -0.09607217 0.02351589 0.17053436 0.025627235
0.21202743 -0.017661799 0.04239936 0.08062151 -0.1431761 -0.1174084 -0.02511318 0.2603063
0.0026595655 -0.0022129538 0.065928 -0.14018817 -0.121025026 0.17384927 -0.201604 0.07854908
-0.060224112 0.12082709 -0.18691303 0.015366252 -0.011817072 0.11855973 -0.15679827 0.090226315
-0.2023376 -0.25565606 0.009787216 0.0001173584 0.18974113 0.011234669 -0.030191923 0.08170286

rca.ca.conv_du.0.bias f4 [3]
00000000: 868e 933e b5bd d13c f4d1 513e
0.28819674 0.025603155 0.20490247

rca.ca.conv_du.2.weight f4 [48, 3, 1, 1]
00000000: 0219 15be 0069 d2be 33b6 ce3e 7eb8 a3be
00000010: aafd 073d 30c8 9f3e 4189 ee3e 7089 0b3e
00000020: f359 d93e 5a68 52be d95f 043f a401 233d
00000030: b11a 7dbe fd6c e53d 8795 073f 624b bdbd
00000040: 3312 5cbd 29f6 b0be 3d88 97bd 4152 1fbe
00000050: 22a4 c43d 2253 1b3e 0b35 bebe 0591 ed3d
00000060: eae1 7e3e 9122 823e 123c 983e 79a1 27bf
00000070: a17a ff3d dd0d db3e d197 75be 1281 d2be
00000080: 7b5d 233e 8739 2e3d 78e7 9b3e faf8 903d
00000090: faa9 64be 4d34 123e 138a 3f3e 5d66 0d3d
000000a0: 6e13 13be d3d5 693e b461 3fbd 0c9c b73d
000000b0: de6f 2f3f b2f8 85be 7892 5fbe 9897 0b3e
000000c0: f8f7 2b3e 1779 283f 6d69 963e cd76 ca3c
000000d0: 247d f1bd 056d 873d 7135 833e f17b 5abe
000000e0: 287b 8ebe 5519 9bbe 02fb 37be a94b be3d
000000f0: d14f dfbd 8581 123f 2e61 de3d 086e 523c
00000100: c8e5 ee3e 7ce3 363d 5e3b 5abe c8b3 e4be
00000110: 783d 173f 01f0 35be 46d7 e53e f6d2 753e
00000120: 6183 943d 574e 16be 63e2 f33c 9c03 1cbe
00000130: 884e 27be 6520 ca3e 54d5 46be 01dc d639
00000140: fe49 3e3f 2116 df3e 0ac4 00bf f266 a73e
00000150: ec2c bbbd 7f64 c4bd bdb3 47bc 4b33 283c
00000160: cabd 91be 2b7d 0d3e 0934 603e 3f11 8f3d
00000170: 2e8c a8be dd07 a5bd 20f4 093f 0a54 8a3e
00000180: da9c b0bd ab90 7e3e 9f0e 0c3e 06fc 1a3f
00000190: fb7c 06bf e5e8 083f 5aba dcbe 955d 513d
000001a0: 81be 1f3f ca36 d2be 1673 b3bd 3d58 253f
000001b0: 13f4 cdbe ebb0 d83e 187b 9e3e fe5d 803e
000001c0: ef62 0b3f 2845 9c3c 428b a2be 2ef7 0fbf
000001d0: 55fa 453f 150b 8a3c 99f6 533e dd75 ee3d
000001e0: 775a 673d 0689 b3be a2e1 1a3f 732a ab3d
000001f0: ce9c 03bf 0f9e f9bd b443 173e 9ae5 89be
00000200: 34f4 113f 1d58 aa3d 425b 7ebe 2787 2b3d
00000210: 1dcc d33d 12fb 27be aa95 e73e 1f58 11be
00000220: b5bc adbd 9478 0dbf 207a 823f 8253 b33e
00000230: c151 a73e b8ad 223d 063d 2bbe 74cf 8a3f
-0.14560321 -0.41095734 0.40373382 -0.31976694 0.033200897 0.31207418 0.4658909 0.13626647
0.42451438 -0.2054762 0.5170875 0.039796486 -0.24717213 0.112024285 0.52962536 -0.09242894
-0.053728294 -0.34562805 -0.07399032 -0.15558721 0.09601618 0.15168431 -0.37149844 0.11599926
0.24890867 0.25416997 0.2973333 -0.6548076 0.124745615 0.42784014 -0.23983695 -0.41114098
0.15953629 0.04253533 0.30450034 0.070787385 -0.22330466 0.14277764 0.18705015 0.03452145
-0.1436288 0.22835474 -0.046724036 0.089653105 0.6853007 -0.26166302 -0.21833217 0.13632047
0.16793811 0.6580977 0.29377308 0.024714852 -0.11791447 0.06612591 0.2562671 -0.21336342
-0.27828336 -0.30292764 -0.17966846 0.09291775 -0.10903896 0.5722888 0.10858379 0.012843616
0.46659684 0.04465054 -0.2131171 -0.44668412 0.5907817 -0.17767335 0.44890803 0.24006256
0.07251621 -0.14678322 0.029771036 -0.15235752 -0.16338551 0.3947784 -0.19417316 0.00040981176
0.74331653 0.4357157 -0.5029913 0.3269573 -0.091394275 -0.095894806 -0.012188849 0.010266135
-0.2846511 0.13817279 0.2189485 0.06985711 -0.3291945 -0.080581404 0.5388813 0.27017242
-0.08623667 0.24859874 0.13677453 0.6054081 -0.52534455 0.5348037 -0.43110925 0.051114637
0.6240006 -0.41057426 -0.08762185 0.64587766 -0.40225276 0.42322478 0.30953288 0.2507171
0.54447836 0.019075945 -0.3174687 -0.5623654 0.773351 0.016850987 0.20699538 0.116435744
0.05648276 -0.35065478 0.6050054 0.08357706 -0.5141114 -0.121883504 0.1477192 -0.26932985
0.5701325 0.083175875 -0.248395 0.04187694 0.10341666 -0.1640437 0.45231372 -0.14193772
-0.08483259 -0.5526211 1.019352 0.3502465 0.3267956 0.039716452 -0.16722497 1.084456

rca.ca.conv_du.2.bias f4 [48]
00000000: 5af5 2cbe 2b9f e53c 31e2 d03e 408c 063f
00000010: d030 94bd 032c 153e 3400 ab3d 29c7 173e
00000020: 8159 6d3f 7d08 b5bd 86e0 5fbe 8b44 043f
00000030: 79c6 233e e898 b1be 85bf 923e f375 18be
00000040: dd85 9a3d 96aa bcbe 25b6 7b3d 4786 293f
00000050: c127 44bd dd65 f93d 11c2 623d f4af 3abe
00000060: 2921 933d df3a 023f 8b1f b93c 900e 533f
00000070: 5ad9 a13e 1a76 ccbe 6e67 ba3e 8eb8 803e
00000080: 17d6 e63e d407 cd3e 609c da3e c25a c2bd
00000090: 1ddb 90be 03d2 003f 403a b13e 0692 31be
000000a0: e2e7 f0bc cd6f 8abe 4f6f 083f 0aac 603d
000000b0: 4952 0c3f 50de 17be 0d16 233e 9234 95bd
-0.16890469 0.028029999 0.4079757 0.52557755 -0.07235873 0.1456757 0.08349648 0.14822067
0.927147 -0.0883951 -0.21862993 0.5166709 0.1599368 -0.3468697 0.28661743 -0.14888744
0.07545064 -0.36848897 0.061453003 0.66220516 -0.047889475 0.12177632 0.055360857 -0.18231183
0.07184059 0.5087108 0.022598049 0.82444096 0.3161114 -0.39933854 0.36407036 0.25140804
0.45085213 0.40045035 0.4269743 -0.09489967 -0.2829217 0.5032045 0.34614754 -0.1734086
-0.029407445 -0.27038422 0.53294843 0.05485157 0.5481306 -0.14830899 0.1592638 -0.072854176

rca.body.0.weight f4 [48, 48, 3, 3]
00000000: b586 f63a 7626 a13c c357 d53b 1cc1 4ebc
00000010: daad 263d 829a 07bd 8589 e43b 33bb 253c
00000020: c0e6 f2bc f9a0 89bc 14a3 12bd 9e42 db3b
00000030: 428b e8bb 6d8a 483c 2c9e c53d 77c3 de3b
00000040: 0da7 fe3d 30f4 85bd fffe 4d3d 84b5 a6bc
00000050: 20e8 0c3c 92bf 6c3d bc41 773d 0309 a13d
00000060: bad6 793d dd2d dc3d 562c 2bbc 2fd5 8cbc
00000070: 6b54 6ebd 313d 38bd efb2 88bc 3d75 04bd
00000080: 1590 6b3d 02b9 67bd 0c93 163d 5911 e5bc
00000090: 52bb 023d b0d7 653c 1767 103d e9c1 4c3d
000000a0: 2368 10bc a201 923c 8c2a b9bc 020e 0b3d
000000b0: 311e fbbb 1d4f 993b e44b 3c3d 9e10 31bb
000000c0: 189f 833d 316d ab3c 574f 223c b79f 07bd
000000d0: cd65 bbbd 7abc 163d 33ab df3c a560 a6bb
000000e0: 433a 4d3d d356 183d 28cc 1cbd 60cc 223d
000000f0: 9ce5 373d 853e 773d c5fc 263b 2ec6 cb3b
00000100: 5001 023c bab0 ebbc 5efd e93d 47e7 e0bc
00000110: 420c 623d 33a4 68bd 4caf 7ebc b54d 90bb
00000120: b7e8 b8bc 4871 84bd 48f4 af3c 7c66 6e3d
00000130: b963 bebc 547d a9bb 9ec6 8d3d 11db 42bd
00000140: 65c3 dd3c 5611 54bd e845 f63c d298 aa3c
00000150: b1d6 bb3d f58f a8bd 070b b83c efb0 ac3c
00000160: 98c7 2fbc 2767 48bd 8549 543c e1c8 7fba
00000170: f88a 59bd 90f4 21bd aada 9cbd 43a9 f3bd
00000180: a1b5 9b3d 4751 993d 0caa fabc bb4f b23c
00000190: 0723 21bd c453 753d d189 ae3d 5bbb e83d
000001a0: 5de8 74bb 114b fa3c b73a b0ba 7acd 643d
000001b0: 93b2 33bd 6d8c de3b fad1 58bd f72d 693d
000001c0: ea42 733d c177 7fbd 42e7 c9bd 40c0 13bc
000001d0: 455c 643d 9fc2 18bd 1a44 dc3c dbf5 683c
000001e0: 8556 933c 9118 cfbb a1ca 27bd 12c8 a73d
000001f0: ffbd 85bd e455 db3c 5887 85bd e916 ea3c
00000200: e3d0 11bd 2859 6e3b d236 a93d 3c3a 9abc
00000210: 3a2e ccbc d62e 7abd 74ad 35bd 7d4a 9e3c
00000220: 4868 3b3c eb16 90bd 6fc4 683c 3952 c0bc
00000230: 5455 4ebd bf50 76bd 1d30 84bc cd92 d2bc
00000240: 793d 783c 8259 debc bc34 2f3c 9f52 843c
00000250: f211 25be 976d a23d 18a7 ac3a 9e48 723d
00000260: 9d15 20bd 4637 a0bb f46e 7a3d d0e9 583c
00000270: b0b6 993d 6aa2 8a3d 39ba 9bbd 9ade 473d
00000280: 88e4 533d 3062 793d 270d 6bbc 651f abbc
00000290: d846 2abd fce1 26bd 1841 343d d272 88bc
000002a0: 1ecf 8c3b b23e c1bc 1791 07bd 37e0 613d
000002b0: e7b6 e3b9 b35b 1c3d 4205 babc ef29 9b3c
000002c0: b37a 7c3d fe32 a63d 2286 073e dc26 9cbd
000002d0: 60b0 ea3c 3f17 7d3d 39cd 083c 8a55 bb3c
000002e0: 9754 3f3a 8eb9 6a3c 0ce7 003d 4717 933d
000002f0: cb19 703d b4cd 813c f920 ea3c 14fd 83bd
00000300: 88c6 d4bc 3f41 b43b 4f93 5dbd 4eca c9bd
00000310: 6da6 b9bd df16 c6bd a376 703d da80 c0bd
00000320: bcc0 27bc aea9 923d c717 bd3d 19f1 133d
00000330: 24a0 ef3c 8fbb 70bd 1f13 333d 154d 9fbd
00000340: c34a 9dbd fb4f 82bc 560f 12be 67f1 c2bd
00000350: 68e6 633d f03c dd3c f317 463a 619d 163b
00000360: da1c 18bd d644 05bd 385b 4d3d 772f 033b
00000370: 657f 42bd 15b2 6c3d ceb4 4fbd d73e cfbd
00000380: d44b 3ebc f231 2c3d 4c5f 42bd bd1d 00be
00000390: 2d4b 82bd 2069 0bbd b951 fcbd a23f f1bc
000003a0: 0557 b8bd 0795 12bc 4f7c cebd 7b78 59bd
000003b0: 6670 903b 82c3 56bc 61a4 833c 1b4d f63d
000003c0: 5ad9 f9bb 1b5d 5fbc d43d 6b3d 9607 0ebd
000003d0: 2fd3 58bd f4e4 c4bc 2092 fd3b 2a2c 003d
000003e0: 558b e03c 96ec d5bb 1fcc 4dbd 4aa4 9fbd
000003f0: bc1b 9c3b 5ec9 7dbc 0cb3 0a3d 43ca 91bd
0.0018808456 0.01967166 0.006510706 -0.012619283 0.04069314 -0.033106335 0.0069744014 0.010115433
-0.029651046 -0.01680039 -0.035800055 0.006691291 -0.007096679 0.0122400345 0.096493095 0.0067982036
0.12434206 -0.06540716 0.05029201 -0.020350225 0.008600265 0.057799883 0.060365424 0.07863047
0.060995795 0.10750935 -0.010447582 -0.017191498 -0.058185976 -0.04498023 -0.016686885 -0.03233837
0.057510454 -0.05657292 0.03676133 -0.027962374 0.031916924 0.014028475 0.035254564 0.049989615
-0.008813891 0.017823044 -0.022603296 0.033948906 -0.007663511 0.0046786205 0.045970812 -0.0027017961
0.06426829 0.02092609 0.009906611 -0.0331113 -0.09150276 0.03680084 0.027303314 -0.005077439
0.05010439 0.037192177 -0.038280636 0.03974569 0.044896707 0.060362358 0.0025480252 0.006218693
0.007934883 -0.028770793 0.11425279 -0.027454032 0.05518747 -0.056797218 -0.015544724 -0.0044037946
-0.022571905 -0.06466919 0.021478787 0.058203205 -0.02324091 -0.005172411 0.06922649 -0.0475722
0.02707071 -0.051774345 0.03006263 0.020824824 0.091718085 -0.082305826 0.022466196 0.021080462
-0.010728739 -0.0489265 0.012956982 -0.00097574113 -0.053111047 -0.039539874 -0.07658894 -0.118975185
0.07603002 0.074862055 -0.030598663 0.021766534 -0.039340045 0.05989434 0.0852238 0.1136386
-0.0037369945 0.030553373 -0.0013445233 0.05586002 -0.043871474 0.0067916424 -0.052934624 0.0569286
0.059389986 -0.062370066 -0.09858562 -0.009018004 0.055752058 -0.03729498 0.026887942 0.014218773
0.017985592 -0.006320067 -0.040964726 0.08192457 -0.065303795 0.026774354 -0.065199554 0.028575378
-0.0355996 0.003636906 0.08262409 -0.018826596 -0.024924386 -0.061079822 -0.04435487 0.019322628
0.011438437 -0.07035621 0.01420699 -0.023476707 -0.050374344 -0.0601356 -0.016136223 -0.025704766
0.015151375 -0.02714229 0.010693725 0.016152678 -0.16120127 0.07931059 0.0013172356 0.059151284
-0.039083112 -0.0048894016 0.06114097 0.013239339 0.07505548 0.06769259 -0.076038785 0.048796274
0.051731616 0.060884655 -0.0143463975 -0.020888994 -0.041571468 -0.04074286 0.04400739 -0.016656313
0.004297151 -0.023589466 -0.033097353 0.05514547 -0.00043433087 0.03817339 -0.022707585 0.018940894
0.061640453 0.08115195 0.13234761 -0.07624599 0.028648555 0.061789747 0.00834971 0.022867937
0.00072986766 0.014326466 0.031470343 0.07182174 0.058618348 0.015845157 0.028580176 -0.06444755
-0.025973573 0.005500942 -0.054095563 -0.0985304 -0.09064946 -0.09672331 0.05870689 -0.093995765
-0.010238823 0.0716127 0.09233051 0.0361186 0.029251166 -0.05877262 0.043719407 -0.07778374
-0.07680275 -0.015907278 -0.14263663 -0.095187 0.055639654 0.027006596 0.00075566693 0.0022981989
-0.03713689 -0.03253635 0.05013582 0.0020017305 -0.047484774 0.05778702 -0.05070954 -0.101194076
-0.0116147585 0.04203982 -0.047454163 -0.12511344 -0.06361995 -0.034035802 -0.12320275 -0.029449288
-0.09000973 -0.008946664 -0.10082304 -0.053093415 0.00440793 -0.013108136 0.016069593 0.120264255
-0.0076247873 -0.013633038 0.05743201 -0.034675203 -0.052935775 -0.024034955 0.0077383667 0.031292118
0.027410189 -0.0065284474 -0.050243493 -0.077950075 0.0047640484 -0.015489904 0.03386216 -0.071186565

rca.body.0.bias f4 [48]
00000000: 9cd3 88bf e61b 2f3e f8cf 19be 3b71 07bf
00000010: 2e68 2fbc 5b58 053f 4976 88be a799 223f
00000020: 3e12 953c 7acb 33be 3c50 a43f b3ce 00be
00000030: 4fff 053e 839e 173f f3ca f0bd 2537 33bd
00000040: f026 6d3e f928 9abd 047c 073f 0b69 553f
00000050: 910b 1abe 4d0c 133e 62e4 f5bd f6b0 0cbe
00000060: 839c fbbe 127e 6e3e efde 2d3e afbb e53e
00000070: 7644 233e a503 31be 8ab2 8f3e 0bb4 64bc
00000080: 0974 e73e 1f09 97be c278 34bf dc8d 30be
00000090: cbe3 78be ab2b babd 3538 33bd edbd e33e
000000a0: 592e d83e 0af2 073e 4126 193d dbe5 353f
000000b0: 4651 9a3e b271 c9bb b142 59bd 9b2b 16bf
-1.0689578 0.17100486 -0.1502074 -0.5290715 -0.010705991 0.52087945 -0.26652744 0.63515705
0.018197175 -0.17558089 1.2836986 -0.1257885 0.13085674 0.59226245 -0.117574595 -0.04375376
0.23159385 -0.07527346 0.5292361 0.8336341 -0.15043475 0.14360161 -0.12006451 -0.1373938
-0.49142846 0.2329028 0.16979574 0.44869754 0.15944085 -0.17286547 0.28065902 -0.013958941
0.45205715 -0.29499146 -0.7049676 -0.17241615 -0.24305646 -0.0909036 -0.043754775 0.4448084
0.4222286 0.13275924 0.037389997 0.71053857 0.30140132 -0.0061475867 -0.053042118 -0.58660287

rca.body.2.weight f4 [48, 48, 3, 3]
00000000: 9c0c 933d 5660 86bd ec54 9cbc 2f99 7e3d
00000010: 6029 6b3d 3622 ecbb 93ef 703d 393f 863d
00000020: e2c3 fe3c a0d7 7b3c f191 dfbb 4028 bfbb
00000030: 08c3 6e3d 2020 95bc 0cfa f23c d4c3 723c
00000040: cee9 103d e2f7 ff3c e3d8 cbbc 74f2 913c
00000050: b3fe 013c fbb2 923c 4b2a e03c e61f b93c
00000060: a15d 2f3c 13b8 873c 23e9 2a3c 6868 60ba
00000070: 4e4e 743d c73f ae3a dd43 f63b 07be 5cbd
00000080: 936c 2c3d 8944 4d3c 1764 633b e5f5 2d3d
00000090: 93c2 8e3a c2f7 66bd 884b 213d 8176 073d
000000a0: 6c5a 493c eb05 84bd 1f64 30bd 0efb b5ba
000000b0: c2cc 5fbd 94cf c83c 3dac d03c 7d68 ce3c
000000c0: 235a c93c 0ff3 9a3c c3aa cdbc cb19 b33c
000000d0: d7cd 103d ce97 b03c b949 213c 6602 6abc
000000e0: 0e90 1e3d 8142 8e3c 285a 273d c2a9 58bc
000000f0: b897 c03c 3825 0ebd 232c a73c d3b0 833c
00000100: cfce 2fbd e4df 16bc 2fb8 f73c e9f5 07bd
00000110: a9c9 ec3c e294 84bc dc98 323d 6001 93bb
00000120: 4353 22bd f124 bcbc 3fce 56bd 7e92 dfbd
00000130: 4895 e7bd 99d9 33bc ddd5 66bd b4b1 bfbd
00000140: cf01 b1bc 3d2d 2fbc 2446 6abc aed2 403c
00000150: ed0d 023d 77f1 b03c 6db7 7cba 08f3 4dbd
00000160: cda8 8d3d ef4e 4ebd 4136 233e 964d 4a3d
00000170: 88ab 0c3d cf8f bfbd 12fd 0f3d 8c0a 76ba
00000180: 0503 2abd 4ebb a93c 6ef5 2a3c e004 bf3b
00000190: e9b7 ae3c d787 063b 2128 0ebd 1c76 f03c
000001a0: 0d1f ccbb a392 97ba 5eec e73c 2a75 63bb
000001b0: 75f1 753c f7b3 843c 9f14 18bc 051c 75bc
000001c0: 0b60 3bbd b0d9 943c 890e 3e3c 0e16 94bb
000001d0: 4542 7abc f8ff f23c be2b ccbc 902d 0cbd
000001e0: 8304 ca3c dd48 8bbc 4b9f b3bc 5923 34bc
000001f0: b50e 08bd 88c1 af3c ed25 833c fb3e a3b9
00000200: 279a 43bd ed10 573c fa73 84bc 5e49 cdbd
00000210: ed48 64bd baad 41bd b32e 2e3b 57a4 8ebd
00000220: 5ac6 563d c1f3 873c c71c 8f3c d2a5 00bd
00000230: 3f95 083d 1b67 0d3c 96a7 bfba b982 4b3d
00000240: b0b8 023c 832a 213d 3b18 02bd 572c 183d
00000250: e0a8 833d c7dd dbbd 0172 a83b 9d11 66bb
00000260: 1169 34bd 49dc 4bbc 3c89 c9bb 6f11 e6bc
00000270: 323d eabc 7d11 5f3c f568 b43b 705e 04bd
00000280: 5f69 83bc 7b63 bc3a 11e4 29bd 7fef cb3c
00000290: 7e81 31bc 014a 9ebc 4df7 1b3d d62e b5bc
000002a0: 8c3a 86bc 42af 46bc 7638 ffbc 57eb fdbc
000002b0: 8299 aebd 389a b1bc 894d 503c 3462 82bd
000002c0: 55db 183a 66fe 77bc 89f2 b9bc e911 dcbc
000002d0: f8b9 753c 0e55 06bd c174 ebbc 9e30 03bd
000002e0: bda6 1dbd d498 41bd 8336 42bc ea06 88bd
000002f0: 59c3 42bd 7828 5dbc 10d6 08bd f499 84bc
00000300: 9426 f6bc dd8d bdbd 3417 bdbc 807d 76bc
00000310: 78a6 713b 81c9 7c3d 9653 f4bc 24a2 693c
00000320: 9317 f13b 42c4 00bd e2d8 223d d534 003e
00000330: 8932 84bc 91a4 303d e3a4 9fbc bf2a 15bd
00000340: b590 7e3c 75b6 37bd 0ece 04bd 10ce 92bd
00000350: 2823 90bd 8b5f 7abc bead c93c 8a36 793d
00000360: 88a4 5b3b b981 c33c 3445 be3c 8add 0e3c
00000370: 3e6c b43d e48b 213d 955a 8a3d 433a 833d
00000380: 6cc9 293d 027b 723c d88a 023c c2ba f93c
00000390: 788b 1f3d b7ce 93bc aad4 f73c b114 9ebc
000003a0: 0a60 32bb 7d1e 143d 8633 623b 62b9 31bd
000003b0: 3f41 793c 4643 42bd d30f aebc 9324 8e3b
000003c0: 26cf 24bd b9a6 fdbc 7d02 debb 78dc 823d
000003d0: 856d 563d c272 20bd 4cb8 d63d b2ae 4a3d
000003e0: 74a0 643c 65f5 113d 6e31 003d 891d 1b3a
000003f0: 9368 c13c 700c 573d 4c9c 093d bba8 4c3d
0.071801394 -0.06561343 -0.019083463 0.062157806 0.057412505 -0.0072062267 0.058822226 0.065550275
0.031099264 0.015371233 -0.0068228175 -0.0058336556 0.058291465 -0.018203795 0.029660247 0.014817197
0.035379224 0.03124613 -0.024883693 0.017815806 0.00793426 0.01790761 0.027363917 0.022598218
0.010703475 0.016567266 0.010431561 -0.00085604796 0.05964499 0.0013294154 0.007515414 -0.05389216
0.042095732 0.012528547 0.003469711 0.04247083 0.0010891728 -0.056388624 0.039378673 0.033072
0.012289625 -0.06446441 -0.043064233 -0.0013884024 -0.05463863 0.024513043 0.025472755 0.025196308
0.024579113 0.018914727 -0.02510584 0.021862885 0.035352554 0.021556761 0.009844237 -0.014282798
0.0387116 0.017365696 0.040857464 -0.013224067 0.023509845 -0.034703463 0.020406788 0.016075527
-0.042921837 -0.009208653 0.030239193 -0.033193503 0.028904753 -0.016184274 0.04360281 -0.004486248
-0.039630186 -0.022966834 -0.052442785 -0.10916613 -0.1130777 -0.010977172 -0.0563563 -0.09360066
-0.021607308 -0.010691938 -0.014298949 0.01176898 0.031751562 0.021599514 -0.00096403697 -0.0502806
0.06916962 -0.050368246 0.15938665 0.049390398 0.034343272 -0.09353601 0.035153456 -0.0009385727
-0.041506786 0.020719197 0.010434492 0.0058294386 0.02132793 0.0020527744 -0.03470624 0.029353194
-0.0062292875 -0.0011564087 0.02831095 -0.0034707286 0.015011181 0.016199095 -0.00928226 -0.014960294
-0.04574589 0.018170208 0.011600145 -0.0045192307 -0.015274589 0.029663071 -0.024923202 -0.03422314
0.024660354 -0.017002517 -0.021926543 -0.010994756 -0.03321715 0.021454588 0.016009295 -0.00031136707
-0.047754433 0.013126594 -0.016168583 -0.10023759 -0.05573361 -0.04728482 0.0026578128 -0.06964939
0.052435257 0.016595723 0.017469777 -0.03140814 0.033345457 0.008630539 -0.0014622088 0.049685214
0.007978603 0.039347183 -0.03176139 0.03715166 0.06428695 -0.1073566 0.0051405434 -0.0035105713
-0.04404551 -0.012442657 -0.006150393 -0.028084485 -0.028593633 0.013615009 0.005505676 -0.032316625
-0.016041456 0.0014372909 -0.041477267 0.024894474 -0.010834096 -0.019322397 0.03807764 -0.02211706
-0.01638534 -0.012126746 -0.031154852 -0.030996008 -0.08525373 -0.021679983 0.012713798 -0.06366387
0.0005831023 -0.015136337 -0.022698658 -0.026864009 0.014997952 -0.03279596 -0.028742196 -0.032028787
-0.038489092 -0.04726489 -0.011853817 -0.06641944 -0.04754958 -0.013498418 -0.03340727 -0.016186692
-0.030047692 -0.09255574 -0.023082353 -0.01504457 0.0036872905 0.061715607 -0.029825013 0.014259849
0.0073575466 -0.031437166 0.039757617 0.12520154 -0.016137378 0.043125693 -0.019487804 -0.03641772
0.0155374305 -0.04485174 -0.03242307 -0.071682096 -0.070379555 -0.015281568 0.02461898 0.060843028
0.0033514816 0.023865568 0.023226358 0.008719811 0.08809708 0.03944005 0.067555584 0.06407597
0.041451856 0.014799835 0.007967673 0.03048456 0.038951367 -0.018042905 0.030252773 -0.019296976
-0.0027217888 0.03616189 0.0034515574 -0.043389685 0.01521331 -0.04742744 -0.02124778 0.004337856
-0.040236615 -0.030963289 -0.006775199 0.06389707 0.05235054 -0.03917194 0.104843706 0.04948301
0.013954271 0.035634417 0.03129714 0.0005917182 0.023609435 0.052502096 0.033596322 0.0499656

rca.body.2.bias f4 [48]
00000000: a53c a23d 24cf 9ebd 7358 0d3e e4ab 393d
00000010: 12e1 f3be 91f5 883d 3ce8 fc3c c271 49bd
00000020: 8d73 0c3e 3590 a73b db13 f5bd 5793 9d3d
00000030: 7159 ec3b 6bd4 613e 8cf6 873e 721e 17bc
00000040: 2190 6e3d 11dc 4ebe d3d0 1ebd 86ca 03bd
00000050: 49fb 60bd f75c 50bd 1b4f 0cbe 4cae 8e3d
00000060: 401b b9bd 1f0e d3bd 466f 7abe d1ef 0a3f
00000070: c0a3 c43e a252 113e 77c3 ef3b 8698 273e
00000080: d564 8c3e 1abe ab3e 8261 07be efcc 3d3e
00000090: b66b b33d b4b8 293e 003f 19be 7b15 123e
000000a0: 5d58 e9be d5b6 b9bd 2d92 b9be ca8f 503e
000000b0: 2e0d 9abe 19c8 e8bc a998 843c a454 33be
0.07921723 -0.07754353 0.13803272 0.045329943 -0.47632653 0.06687463 0.030872457 -0.049180754
0.13715954 0.0051136264 -0.11966678 0.076941185 0.0072128107 0.22053687 0.26555288 -0.009223567
0.05824292 -0.20201136 -0.03877337 -0.032175563 -0.054927144 -0.05086991 -0.13702051 0.06966838
-0.09038401 -0.10305428 -0.2445651 0.5427218 0.3840618 0.14191678 0.0073170024 0.16366777
0.2742068 0.33543473 -0.1322079 0.18535207 0.087607786 0.16574365 -0.14965439 0.14266007
-0.45575228 -0.090680756 -0.36244336 0.20367351 -0.3008818 -0.028415726 0.016186075 -0.17512757

head.0.weight f4 [48, 3, 3, 3]
00000000: d97e 27be 6ff1 e5bd 9588 d8bd a7c3 483e
00000010: 6d5e 1fbd 5a1f 153e 7142 f63d 6e5c 3fbe
00000020: 55da 533d 8790 c7bd eab4 103e ccc1 393e
00000030: 1d3c 23be 212d 053e d59f 4abd 553d 13bb
00000040: 6a15 c03d 6253 c1bd 513f a6bc a5be e43c
00000050: 9ad5 1bbe 3f4d 0b3e 36fb 253e 17bc 0abe
00000060: 4e85 bebd f738 03bd d4d5 533d 6a7b 06be
00000070: a831 3cbc 5e95 263e 5478 1c3d 62e2 043e
00000080: f233 f8bd 7627 043e a40b 173e b436 42be
00000090: 501b b6bd 2bc8 0f3e 5580 7c3d 9f06 213d
000000a0: ad74 c6bd 378b aa3d b993 e4bd 64db e0bc
000000b0: 2645 5c3c 374a 02be c90d ad3d 90b2 ec3d
000000c0: 55e2 a53d 72b7 27bd f1b9 e5bd fefc 5bbd
000000d0: c620 02be cea6 063d 7031 6dbd 7c7c 423d
000000e0: 15e1 963d 3704 243e 1db1 2bbe bc51 f63d
000000f0: a083 263e 3001 e33d 995d 8dbc d28b fe3d
00000100: 4dd2 e8bd bbd3 aebd 5f5a c1bd a9eb e53d
00000110: 6c64 16be a39d 4b3e acf7 493e 15f7 3e3e
00000120: 3203 833d 9b0d 0cbe 048a 34be 0407 24be
00000130: e0be 7fbd 6f71 96bd 7409 3abe cec4 503d
00000140: 5ace 0ebe fd6d 173e c59e f73d 6ab2 12bb
00000150: 357c b3bc 0f17 48be 7cb2 82bc 8b65 683d
00000160: 30d1 6a3d e638 c7bd 48f7 f33d 2d2f c13b
00000170: 70b0 de3d 878c 31be 4fca 6a3c 11d5 ecbd
00000180: d707 23be 6494 bc3d d1a6 8dbd 1ff1 a9bd
00000190: 61b0 a8bd e18c 14be a5ed 983d d803 3a3e
000001a0: b7af 33bd b663 353e 34d7 06be 3040 57bc
000001b0: 5d5f 27be f124 a33d 6a5e 803d 4e9e 113e
000001c0: d581 403e 42b8 983b 64da debd b34c b6bd
000001d0: 17c8 213e 4f6c a93d 2aa6 15be 61aa 07be
000001e0: 4e57 57bc b418 1bbd 052f 9ebc 1d3f 41bd
000001f0: 9684 ccbd 1983 113e 767f c8bd 6542 36bd
00000200: d497 f7bc 997f b7bd 7967 afbc 92dc 073c
00000210: 5429 263e fe94 283e 2297 76bc 1dd1 21be
00000220: 12fc b2bd d34d d2bd 2235 03be 10c7 4c3e
00000230: 82ca 0a3e 9552 d53c 5e7e 10be 0819 f4bd
00000240: 58ce a7bc 1e42 403e 2a9f b4bc e7c3 1fbd
00000250: f423 f93d b34d aebd ebac 48bc 6b6b 573c
00000260: f466 ebbd 19e3 f8bc c946 a9bc e605 52bd
00000270: 8bab 30be 757d 23be b5cc 16be f150 78bd
00000280: d582 043e a257 35be 00b7 9e3d d67d f93c
00000290: d4e1 0a3e 4d8b 433b 6cd5 f6bd 5126 36be
000002a0: 73c9 143e 4a0b 36be ddf7 a2bd 6ce7 2e3d
000002b0: 5a97 853d 3961 b6bd 8e81 793d d3e1 963d
000002c0: a2d4 56bc b201 19bd 5f0e fa3d c9a7 7ebd
000002d0: 0f62 773b 581e bcbd fbb2 17bd fbd4 8039
000002e0: 5091 aabd 2088 a33d bbf0 cbbd 974c d33c
000002f0: 6db6 343e 7f79 983c d542 423d 583c 2d3e
00000300: e5e1 763d cc5e b3bd 5586 6d3d 777d 09be
00000310: 1a46 0dbe 6492 353e b38d 35be 575a cd3d
00000320: ebae 173e c3ca 0c3e a96e e5bd 5494 333d
00000330: c736 263d b8f1 903d 60bc 9f3c 8a37 003e
00000340: 53a3 0cbe bb1e f73c 2585 bcbd ae79 4bbe
00000350: 470e 9fbd 5105 aebc 20a0 f73c 4a63 3ebe
00000360: f3fd 09be 3a1a dbbd 3a0b 143e a629 7b3c
00000370: 40ae b2bd adec a73d e93a 0bbe 6284 0f3e
00000380: 0c80 e63d 16c7 713d 92f3 82bd 14a7 fbbd
00000390: ea37 dc3c 35f5 22be 0f8c 6fbc 4a2f ba3d
000003a0: 1434 a2bd 82ac 133e 72b1 acbc 4d58 e73c
000003b0: 3c90 c03d 8e3d 9dbd 65d3 803d e38d c53c
000003c0: 4204 dcbd b8dc 763d 734a d13c 2461 64bc
000003d0: aa46 133e c2e6 44bd bd0a 263e 2d08 f83b
000003e0: d867 463d 926f 08be 86e0 143e d6bd 3bbd
000003f0: 16da 043e f357 2a3e 1c1a ecbd 2190 283e
-0.16356982 -0.112276904 -0.10572926 0.19605885 -0.03890841 0.14562741 0.120243914 -0.18687603
0.05172189 -0.09744363 0.14131513 0.18140334 -0.159409 0.13005497 -0.049468834 -0.0022466977
0.093790844 -0.09439732 -0.020293863 0.027922938 -0.15218201 0.13603686 0.1620911 -0.13548313
-0.093027696 -0.032036748 0.051717594 -0.13133016 -0.011486448 0.16267917 0.03820069 0.12976983
-0.12119283 0.12905678 0.14750534 -0.1896618 -0.08891928 0.14041202 0.061645824 0.039312955
-0.09690223 0.083273344 -0.11160988 -0.027448364 0.013444221 -0.12723623 0.08449895 0.115574956
0.0809981 -0.04094643 -0.11217106 -0.05370807 -0.12707815 0.03287392 -0.057908475 0.047482
0.0736715 0.16017233 -0.16766782 0.12027308 0.16261148 0.11084211 -0.017256545 0.12429012
-0.11368237 -0.08536478 -0.09441065 0.11226589 -0.14686745 0.19884352 0.19723386 0.18648942
0.06397094 -0.13677065 -0.17630774 -0.16018301 -0.062437892 -0.073458545 -0.18167669 0.050968938
-0.13945904 0.14788051 0.1209083 -0.0022384175 -0.021909812 -0.19540046 -0.015954249 0.056737464
0.057328403 -0.097276494 0.119123995 0.0058955164 0.108734965 -0.17338763 0.014330461 -0.11564077
-0.1592096 0.09207991 -0.06916583 -0.08297943 -0.082367666 -0.14506866 0.07467202 0.18165529
-0.043868747 0.17713818 -0.13168031 -0.013137862 -0.16344972 0.079660304 0.06268008 0.14220545
0.18799527 0.004660637 -0.108814985 -0.08901348 0.15798984 0.08272611 -0.14614168 -0.13248588
-0.013143374 -0.037865356 -0.01930953 -0.04717933 -0.09986226 0.14210166 -0.09789936 -0.044496913
-0.030223764 -0.08959884 -0.021411644 0.008292334 0.16226703 0.16463086 -0.015050681 -0.15802427
-0.08739485 -0.1026875 -0.12813237 0.19997811 0.13553813 0.026040355 -0.14110705 -0.11918837
-0.020484135 0.18775222 -0.022048552 -0.039005186 0.12165061 -0.08510914 -0.012248258 0.013148169
-0.11494246 -0.030381726 -0.020663636 -0.051275156 -0.17252938 -0.15965827 -0.14726527 -0.060624067
0.12940533 -0.1770921 0.07749748 0.030455511 0.13562709 0.0029837668 -0.12052426 -0.17788054
0.14529972 -0.17777744 -0.079574324 0.04270117 0.06523009 -0.089052625 0.06091457 0.07367291
-0.013112219 -0.037355132 0.12209772 -0.06217173 0.0037747656 -0.09185475 -0.037035923 0.00024572745
-0.083284974 0.07984948 -0.09958025 0.025793357 0.17647715 0.018612621 0.047427017 0.1691755
0.060274024 -0.087583154 0.057989437 -0.13426767 -0.13796273 0.17731625 -0.17729835 0.100269966
0.1481282 0.13749222 -0.112027474 0.04384263 0.040579583 0.07077354 0.019499004 0.12521186
-0.13734178 0.03016602 -0.09205083 -0.19870636 -0.07766395 -0.02124277 0.03022772 -0.18592563
-0.1347578 -0.10698362 0.14457408 0.015329754 -0.08724642 0.08199439 -0.13596691 0.14015344
0.11254892 0.059027754 -0.063941136 -0.12287727 0.02688213 -0.15913852 -0.014620795 0.09091051
-0.07920089 0.14421275 -0.021080706 0.028240347 0.094025105 -0.07677756 0.0629032 0.024115508
-0.107429996 0.060269088 0.025548195 -0.013939176 0.14382425 -0.04807163 0.16215034 0.007569334
0.048438877 -0.1332381 0.14538774 -0.04583534 0.12973818 0.16635112 -0.115284175 0.16461231

head.0.bias f4 [48]
00000000: 1308 f13d 65f6 40be e19d 5d3e 44ab 9a3a
00000010: 7cb0 243e 6be2 73be a17a b23d 6dc5 303e
00000020: 3bf4 00bd 1f16 393d 64c6 c83d 7e67 d1bd
00000030: d915 193e 5481 c53e a65c 323d b4f4 24be
00000040: 86d9 7a3d f6f9 f1be 1289 43bd 2ba1 bd3d
00000050: 13af e3bd c93c 01be 09b6 53be 6b12 58be
00000060: b14f 7fbe 876e 0a3e 7390 b8bd 5274 49be
00000070: 1937 243d 956b b43d 75d2 e0bd 7d13 5a3d
00000080: 8f4d b3bd ffe3 ffbc 5699 193e 9848 933e
00000090: bae8 d7bd 9362 d53e 899d 963d 2702 4b3f
000000a0: 0ead cc3e e909 33be 7121 0dbe 4ced 843e
000000b0: 3229 3dbe 2f4f 84be 7de8 913e 2b71 41be
0.11769118 -0.18843992 0.21642257 0.0011800309 0.16082948 -0.2381684 0.08714796 0.17262812
-0.031482916 0.045187112 0.09803465 -0.10224818 0.1494974 0.38575232 0.043545388 -0.16108972
0.061242603 -0.47261018 -0.047738142 0.09259256 -0.11117377 -0.12620844 -0.2067491 -0.21100776
-0.24932744 0.13518725 -0.090119265 -0.19673279 0.040091608 0.08809582 -0.109776415 0.05324124
-0.087550275 -0.031236647 0.149999 0.28766322 -0.10542436 0.4167677 0.07354266 0.7930016
0.3997578 -0.17484249 -0.13782288 0.25962293 -0.18472746 -0.25841662 0.28497687 -0.18890826

head.1.weight f4 [48, 48, 3, 3]
00000000: 8451 3abd 9a8f 753c d86a 033d ce7e 173d
00000010: 936d a03c 01ad a9bc 3b4e 19bc dc21 c93c
00000020: 6414 ecbc 76ba 863b 1f08 be3c 2140 a63c
00000030: 7396 7cbc 5b95 64bc 8445 063a e5cb 48bc
00000040: 9d6a 873c 98e3 833c e8c9 8cbc 7284 1d3d
00000050: e539 c4bb e5f8 61bc d4cc 003c bb69 e33c
00000060: 8dcc 6b3c dd13 1dba 83e1 00bd 40b3 01bd
00000070: 6697 edbc 016d 2abd d7e7 f63c b7b4 0dbc
00000080: f77f 573a 9af3 faba dd6b d7bc 95c7 2bbd
00000090: 884a d0bc ae4c 1b3d a571 98bc ba00 873c
000000a0: 4be3 723d e936 fd3b 53fd 203d 9cc0 b23b
000000b0: 491b 1e3b 834e c5ba a532 15bd f7b5 07bc
000000c0: d550 25bd b549 353c 6f46 0a3d 2a87 27bd
000000d0: 2e0b dbba fd5a d0bc 94d6 afbc 0a41 b6bc
000000e0: 6690 cfbc 7151 b6bc 12a6 2fbd b78c b5bc
000000f0: 6b6d febc 4a2f 74ba ef19 233d a3e6 22bd
00000100: bfa6 81bc b3f9 d6bc 4418 073d c49c 5fbc
00000110: a303 59bc 7a87 d3bc d346 3bbd bbb8 f7bc
00000120: b248 063d 20ca 473d 1238 17bd 581a 013c
00000130: 3cfe adbc 3c90 07bd 4a32 843c 86a5 b63c
00000140: bc74 2dbd 2c16 32bc 0581 d13c b94f 7b3c
00000150: d7a3 27bc c92e 9d3c cc16 4a3b 25b8 80bc
00000160: 15a0 773b 4dca a83c e2f8 bdbc d34b c4bc
00000170: 127b 023d 4a34 fa3c 223c 50bb e31a a9ba
00000180: 7cfd 973c 58ea 4dbd 54e7 0dbd 7280 923c
00000190: 54dc 6fbc 971f eb3c 1dc2 21bd f850 353d
000001a0: 636f afbc fb73 2bbc f659 073b ad72 4039
000001b0: 1038 8abc 62fb ff3c 75db 4ebc 09e6 c5b8
000001c0: 7d1d 1c3d 1388 56bc c082 83bc ab6e 4b3d
000001d0: 1175 92bc 899a 59bc c10e bdbc 212a 873b
000001e0: 222e b43c d9c8 3fbd 71f4 113c 5274 1cbc
000001f0: eb45 383d b90b a23c 70f2 11bd 6233 8f3c
00000200: 8ed8 123d f1b2 a03c f93b 43bd ec72 d63c
00000210: 4f6c e53c 5412 7cbc f34d 983c 99e3 0b3d
00000220: 5c44 4dbc 9dfc 89ba 4787 603d d60d b83a
00000230: b5c0 453c e849 7a3c d86b 273d 72ae 993c
00000240: e42b ecbc 1116 0a3c ab71 c339 5091 8fbc
00000250: 9472 19bd 4a12 31bd 0f1e aa3c 6220 9fbc
00000260: ae29 5ebd 022d 22bd c831 cabc f4ac 14bc
00000270: 1909 663c 92de 933c c98a e03c 3f08 1ebc
00000280: 249c 183c 0806 5d3c a9e2 bcbc c27a c3bc
00000290: d84e cd3c efd0 003d 534e 653c f577 f23c
000002a0: a42c 013d bf13 3d3d c1df e6bc 6fa3 df3c
000002b0: e589 7f3c 52c4 853a 3143 8c3c 3d27 043c
000002c0: 633f 713c f001 a6bb 7487 0cbd 8615 59bd
000002d0: bc32 c9bc f236 e9bb 910e bb3c 4fb9 e33c
000002e0: 1e3a 8a3d 2719 cdbc 56b2 3a3c aef7 463d
000002f0: 8390 f13c 7cbf 4d3c 0333 853c 404b 463d
00000300: 7b73 17bc 7020 103d 5530 5dbb c8de 5b3d
00000310: c941 05bd 2de8 503d 903e 10bc a7b8 3bbd
00000320: aaa0 d23b e0ff 17bc 29dc cfba 0c5a eb3b
00000330: fbf2 01bd c6e7 4a3a cc7a 4dbd 309d 653c
00000340: 2a57 66bb f93a 68bc 63dc 16bd 5370 50bc
00000350: 4712 3dbd 9d6f 29bd 3353 503c 8fef c73c
00000360: 1572 283d 252c ddbb 73c2 af3c 17c1 02bd
00000370: f54b 7a3c 93ea 403d 5dea 1abd 3cbe 453d
00000380: c0a5 b13c 986d 37bc 3f29 30bc c800 313b
00000390: 1492 e43c 66da 9f3c 6d24 9cbc 9e7b acbc
000003a0: 411a 08bd 433f 55bc 6dcb 983c 41c7 643d
000003b0: ef78 a03c d30b d13b 45b6 31bc ffdd 1dbd
000003c0: be02 803b 1718 403b 656c 16bd 5189 86bc
000003d0: 3cb2 cab9 8e38 1ebd d37a 583b b499 b2bc
000003e0: b4db 063d b3ab 26bd 4eb9 793c 73cb 5c3d
000003f0: cd18 f6bc 283b 27bd cfab debc 222b a9bc
-0.045487896 0.014987851 0.032084316 0.036986165 0.019583499 -0.020712378 -0.0093570305 0.024552278
-0.028818317 0.0041115833 0.023197232 0.02029425 -0.015416729 -0.013951625 0.0005122053 -0.0122556435
0.01653033 0.016099736 -0.01718612 0.038456388 -0.005988347 -0.013792251 0.007861335 0.027760377
0.01439203 -0.00059920346 -0.031465065 -0.031665087 -0.029002856 -0.04160786 0.030139847 -0.008649043
0.00082206674 -0.0019146085 -0.02629655 -0.041938383 -0.025426164 0.037914924 -0.018608877 0.016479839
0.059298795 0.007727493 0.03930409 0.0054550897 0.002412515 -0.0015053306 -0.03642525 -0.00828313
-0.04036029 0.011064936 0.033758577 -0.040900387 -0.0016711706 -0.025434012 -0.021464624 -0.02224781
-0.02533741 -0.022255631 -0.042882986 -0.022161825 -0.031058034 -0.0009314908 0.039819654 -0.039770734
-0.015826581 -0.026242113 0.032982126 -0.013648216 -0.013245496 -0.025821436 -0.04572184 -0.030239454
0.03278417 0.048776746 -0.036918707 0.007879816 -0.021239392 -0.033096537 0.016137261 0.022295725
-0.042347655 -0.010869544 0.025574217 0.015338832 -0.010231934 0.019187348 0.0030836342 -0.015712807
0.0037784625 0.020604277 -0.023189966 -0.023961937 0.03185565 0.030542511 -0.0031774123 -0.001290169
0.018553488 -0.050272316 -0.03464444 0.017883513 -0.014639933 0.028701587 -0.03949176 0.04426667
-0.021415418 -0.010464664 0.0020652986 0.00018353267 -0.016872436 0.031247798 -0.012625565 -9.4365394e-05
0.03811406 -0.013093966 -0.016053557 0.049666088 -0.017878087 -0.013281473 -0.023078324 0.004124895
0.021994654 -0.046822403 0.008908377 -0.009549217 0.044988554 0.01978098 -0.035631597 0.017480556
0.035851054 0.019616576 -0.047664616 0.026177846 0.028005747 -0.015385229 0.018591857 0.0341526
-0.012528505 -0.0010527555 0.05481651 0.0014042209 0.012069871 0.01527641 0.040874332 0.01875994
-0.028829522 0.008428113 0.00037277988 -0.017525345 -0.037462786 -0.043230332 0.020766286 -0.019424621
-0.054238968 -0.039593704 -0.02468194 -0.009074438 0.014040255 0.018050466 0.027409928 -0.009645521
0.009314571 0.0134902075 -0.023057299 -0.023862246 0.02506201 0.031449255 0.013995725 0.029598216
0.031536713 0.04616141 -0.028182866 0.02729961 0.015596841 0.0010205603 0.017121883 0.008065996
0.014724585 -0.005066149 -0.034308866 -0.052999042 -0.024560325 -0.0071171457 0.022834094 0.027798323
0.06749366 -0.025036408 0.011395058 0.04857605 0.029487854 0.01255786 0.016259676 0.048411608
-0.009243841 0.035187185 -0.0033750732 0.053679258 -0.03253344 0.05100267 -0.008803979 -0.045830395
0.006427844 -0.009277314 -0.001585846 0.0071823653 -0.031725865 0.00077402254 -0.050165936 0.014014527
-0.0035147169 -0.014174216 -0.03683127 -0.012722093 -0.04616001 -0.04136621 0.012715149 0.024406223
0.041124422 -0.006749647 0.021455025 -0.031922426 0.015276899 0.047098707 -0.037821162 0.048277125
0.021685481 -0.011195563 -0.010752021 0.0027008522 0.027901687 0.01951332 -0.019060338 -0.021055039
-0.033228163 -0.013015571 0.018651688 0.055854086 0.019588916 0.0063795834 -0.010846679 -0.03854179
0.003906577 0.0029311234 -0.036724467 -0.0164229 -0.00038661237 -0.038628154 0.0033032193 -0.021801807
0.03292437 -0.04069109 0.015241934 0.05390496 -0.030041123 -0.0408279 -0.027181534 -0.02065045

head.1.bias f4 [48]
00000000: a4e0 f13c 61ff d9bd 8bb7 88bd 4c59 853e
00000010: 272c 93bf 1b21 85be 41a9 023c c27f a63d
00000020: 2965 283f b1ac 0abe f65d d7bc 910a c73e
00000030: 8d11 9a3e 45cb 2abe 41f8 b03e fbaf 353e
00000040: 4931 7a3e 85c5 a5be 115e c53c 9614 70be
00000050: 0b4f 9a3c 42c6 173f 49e3 28be 5390 c63e
00000060: 193a 44bc dbd5 ed3c da3e f7bd b259 2c3e
00000070: 7e04 103f 80e2 33bf c9b9 adbe 16f7 b23e
00000080: f73d e03e b060 0fbe 2bca ebbd cb84 1d3c
00000090: c115 dc3e 366a 823e 08ce af3c d662 6b3e
000000a0: 0fb2 6cbf b907 9dbc 5723 b4be 8fa6 953e
000000b0: 7c5d 99bd 0608 b2ba ab02 01bf cd71 e0be
0.029526062 -0.10644413 -0.06675633 0.2604469 -1.1497849 -0.2600182 0.007974924 0.081298366
0.6577936 -0.13542439 -0.026289921 0.3887525 0.30091515 -0.16679104 0.34564403 0.17742912
0.24432863 -0.32377258 0.024092706 -0.23445353 0.018836519 0.5928689 -0.16492952 0.38781986
-0.011976742 0.029032638 -0.12072535 0.16831091 0.56256855 -0.70267487 -0.33930805 0.34954137
0.43797275 -0.14001727 -0.1151317 0.00961418 0.42985347 0.25471658 0.021460548 0.22986922
-0.92459196 -0.019168722 -0.35183212 0.29228637 -0.07488534 -0.0013582713 -0.50394696 -0.43836823

body.0.ca.conv_du.0.weight f4 [3, 48, 1, 1]
00000000: 962b 5fbc ac55 8dbd 0776 0d3e e4f0 d4bd
00000010: 8fdd 26bc c69e 1cbe f8ba 7b3d 2df6 8e3d
00000020: a68f e5bd 31c0 51bc 13fb 963d 8835 913d
00000030: 92bb 0f3a a6e9 203d 7277 44bd 89a4 17bd
00000040: 83a2 403d 7e13 a2b9 a466 31bd de86 7f3d
00000050: 9841 d0bd 0dd0 0cbe 99b1 ebbc 6115 91bd
00000060: 725e 0d3e efb2 593d 1f63 32bd 92f0 e73d
00000070: 4928 833c dcae 013e 313a e1bd b1f3 cfbd
00000080: 5067 693e 18d1 00bd 0f8a 773d 1b52 563d
00000090: e92a 623e 3dab c43d 38fd fd3b 1d13 a13c
000000a0: 8527 4cbd c004 21bb 7cc9 83bc 5f86 1c3d
000000b0: 041c 04be 437a 193d 43b0 1ebd 5bef a43a
000000c0: c03b 163e 2497 08be 6dba 2bbd 3af1 2fbd
000000d0: ecc2 00be b8ad 40bc 3b5b d03d 6ea7 eb3d
000000e0: 3f6f 1e3e 9091 81bc 05ae 353d 50d7 913d
000000f0: 9528 a1bd 59e3 b3bd 1a98 323d 4ad5 463d
00000100: de9b 1c3e 3f29 c5bd dd28 b3bd aa04 da3c
00000110: 580a d4bc cdc7 26be 2319 c6bb f2d6 f6ba
00000120: ed72 7c3d 1081 ca3d 4520 58bd 35da 453a
00000130: 720a c2bc 5478 8c3c 5fad a23d 9d08 81bb
00000140: 47f7 c6bd 6037 c63c c1e0 24be 44e8 283d
00000150: eb30 23bd eed6 d13d e1b5 18bd d10a 18be
00000160: 2b9d f93d 5a4b 82bd 2b19 163d 0d55 123e
00000170: 6aef 93bd 8cd3 aebd 21c5 633d ad7d 11bd
00000180: cfd0 cdbc 1454 efbd 19f5 e53d 7a67 1bbe
00000190: fe56 ca3d e37e 483d 8dda 3bbe 6596 97bb
000001a0: 1490 e1bc 48f5 f4bc 6151 143d 4ba3 2c3e
000001b0: 7cc1 c4bd 65a4 c03c 8fa0 2e3e 35f0 d13c
000001c0: b81d 593e 7aaf 90bc f4aa 2d3d e41c a53d
000001d0: c19c 12be d173 f0bd 28ba cdbc de46 853e
000001e0: 1b4c 2e3b 3407 11bb 4205 873d 7d8d 0fbe
000001f0: f8db f7bd 8b05 323e 4771 4ebe 57de a03d
00000200: 8fad 76bd 3274 f73d 2166 3fbe bbc2 7b3c
00000210: 649c 41bc 72cf f23d ba8f 20be 93c8 b83d
00000220: 9631 4fbe 5ae5 82be 8f5a 203c 501e f638
00000230: 804b 423e 9e11 383c 0d55 f7bc d453 a73d
-0.013621232 -0.06901106 0.13814555 -0.10397509 -0.01018466 -0.15294942 0.061457604 0.06980548
-0.112090394 -0.01280217 0.07372107 0.070902884 0.0005482967 0.039285325 -0.047965474 -0.037022147
0.047029983 -0.0003091357 -0.043310776 0.06238448 -0.10168761 -0.1375124 -0.028771209 -0.07084156
0.1380556 0.05314916 -0.04355156 0.11325182 0.01601042 0.1266436 -0.10997427 -0.10153902
0.22793317 -0.031449407 0.060434397 0.052324396 0.22086681 0.096029736 0.0077511333 0.019662434
-0.049842376 -0.0024569482 -0.016087286 0.038214084 -0.12901312 0.037470113 -0.038742315 0.001258354
0.1467123 -0.13338906 -0.041925836 -0.04295466 -0.12574357 -0.011760168 0.10173651 0.11506544
0.15472125 -0.01581648 0.04435541 0.07121146 -0.078690685 -0.087835975 0.043602087 0.048543252
0.15293834 -0.09627008 -0.087480284 0.026613552 -0.025883839 -0.16287155 -0.006045477 -0.0018832369
0.06163304 0.09887898 -0.05276515 0.0007547469 -0.023686621 0.01714722 0.07943224 -0.0039377944
-0.09715133 0.024196327 -0.16101362 0.04123713 -0.039841574 0.10246073 -0.03728283 -0.14847876
0.121881805 -0.063620284 0.036645096 0.14290257 -0.07223399 -0.08536443 0.05560792 -0.035520244
-0.025123982 -0.116859585 0.11228389 -0.15176192 0.09879874 0.048949134 -0.1834509 -0.0046260827
-0.027534522 -0.029902115 0.03621042 0.16859166 -0.09607217 0.02351589 0.17053436 0.025627235
0.21202743 -0.017661799 0.04239936 0.08062151 -0.1431761 -0.1174084 -0.02511318 0.2603063
0.0026595655 -0.0022129538 0.065928 -0.14018817 -0.121025026 0.17384927 -0.201604 0.07854908
-0.060224112 0.12082709 -0.18691303 0.015366252 -0.011817072 0.11855973 -0.15679827 0.090226315
-0.2023376 -0.25565606 0.009787216 0.0001173584 0.18974113 0.011234669 -0.030191923 0.08170286

body.0.ca.conv_du.0.bias f4 [3]
00000000: 868e 933e b5bd d13c f4d1 513e
0.28819674 0.025603155 0.20490247
