e_model_files/e_model/eSR-TR_s2_K3_C2.pth (torch, 479672 bytes, 80 tensors)

layer.filter.weight f4 [72, 48, 3, 3]
00000000: caa0 2bbc 2ff6 773c eb77 403d f932 d1bc
00000010: 98be 7b3f b1f8 1eba 4da7 c5bc 7d57 b13b
00000020: 3347 6cbc c755 11bd 0793 923c 4ce4 1cbd
00000030: 023f 003d cb9d 2b3d 7433 74bc b06d 093c
00000040: 6ca2 a0bc 1db8 de3b 86d6 15bc 42a4 d83c
00000050: 9b50 0abd 718b 18bc 91fe c63c 65c6 13bd
00000060: c19f 553d 148d 8ebc b2ba 0b3c 7229 8f3d
00000070: c7a9 12bd 683c 8f3b a565 7ab9 b972 1b3d
00000080: 2ebc 4c3b 8e3a 1ebd af78 1cbd d121 93bc
00000090: 4429 133d 1211 9a3d 7d57 7bbc 8a82 393c
000000a0: 5437 593b 59b5 0bbd f73c 3a3d 60e9 ce3b
000000b0: 6de1 613c f5af a23d 24f3 2fbd 976e 5a3c
000000c0: e2db 26bd 3631 42bd da7d 31bb 6f01 6a3d
000000d0: 7639 343c 1daa cdbc cd62 3f3d f012 a63b
000000e0: 5dd9 693d 59b6 45bd 92c8 ccbd e6a0 e83c
000000f0: 10b7 eebc 5031 09bc 2add 6e3c 94df bdbb
00000100: d713 d33c b407 cdbb 1f24 07bd 1bd5 6dbc
00000110: 63d4 403d aec8 893c da51 4ebd dfc5 ab3c
00000120: d712 97bd 787a 983c c603 f73c e0c6 413d
00000130: 7649 0d3d bd8e 953c 88a8 63bc 5f4f 25bd
00000140: f83f 94bc 2d3c a9bd f79c 67bd 2a0f c43b
00000150: d3cf df3a 71b0 bb3d e26f 853c abd2 45ba
00000160: 0446 603c e52f d23b 6cde 53bc c36f 35bd
00000170: 492b 9e3c 1eeb 1abd ea20 183b ac3f 6e3d
00000180: 035d 10bc dfa8 ec3c caea 05bb 55f0 b2bc
00000190: 9ecf ab3c 75bc 1abd 59a5 d1bc 2170 083d
000001a0: 01d9 44bd 3f4a 573b 196e 563b ff2e 9a3a
000001b0: 9c9f 3abc 3f33 463d 5c54 fcbb 1d3b a83d
000001c0: 9d59 1ebd 8e86 67bc 263d 4bbd 9d34 0cbd
000001d0: c696 143c c0fd 99bc 50f0 5a3d a2f1 a3bb
000001e0: 9ce9 f7bb 0217 bcbd 3805 c5bc 1395 0d3d
000001f0: 58e1 a83c 6e76 ffbb d7bc 863d c31b b0bd
00000200: 86a3 9cbb ca2a a0bc d118 c2bc dcbb 193c
00000210: 51d9 69bb 9ad3 663a ae0c 84ba 62d5 49bc
00000220: a31f c0bd 48cb 803c ba43 1a3d 67ed 95bd
00000230: e28c 2d3d 15ca 3b3d 4d2c 4a3c f7e1 21bd
00000240: 51b3 2abd 6c10 573c 3427 edb9 9ee4 b9bc
00000250: 443f 54bd 9ec5 9a3c 4cce 103d 8a63 a63c
00000260: 7d54 21bc 68cf 2b3c 4a96 c43c f72b ac3b
00000270: cdb5 5f3b 23fb 92bd f7fe e3bc a93d 81bb
00000280: a9f8 863d 73e7 c1bc fee6 05bc 5e3f 133c
00000290: 04f4 f8bc cea8 e33c dc68 083d bba4 f7bc
000002a0: 1efa 4ebd f6a2 413d bcd5 c83b 035e 483d
000002b0: 9dfd ae3c 3e74 bd3c e663 86bd 446a 62bd
000002c0: 06ee 82bd 9e71 0a3d 1037 f13c df2d d33c
000002d0: adeb 6a3c 2a7e 93bc 3ce2 2ebd 835f 263d
000002e0: a412 20bd 5286 50bd 74c3 a33c f106 3c3d
000002f0: 2877 8d3c 472f 52bb b3e9 0fbd e48e cc3c
00000300: d3e0 7cba 42eb 56bb ca4d 0d3d 76de 3abb
00000310: ecd5 c9bc 1e25 433c 2531 4dbd cf12 353c
00000320: e5eb e73d 3dd9 c93c 103c 8fbb 0f8c f1bc
00000330: 03b0 bebc 91e2 b13b 7e39 a6bc ba01 9a3c
00000340: 7f68 e03b 52e4 dabc 3be3 28bd 5ed8 dbbc
00000350: a4fd c9bc 4b87 83bb ad97 a93d 92c1 d63c
00000360: 133c 97bd 0cc4 f53c deba 0b3c 5f0c 16bb
00000370: a810 a93c 825d 80bc ac41 e1bc b9d5 823d
00000380: 9d29 af3c 3cba 6b3d f660 b53c 5236 373d
00000390: bde6 2f3d 752a ca3d 4a9b 513c f977 25bd
000003a0: 7452 ad3d 2b1c 153d 81e2 4c3d 4f78 5d3d
000003b0: b3b9 313d e3bd 743d f159 b83c 3bd1 5fbd
000003c0: 488a e1bb e1d1 3fba ae2f eb3c 85da 683c
000003d0: ee70 f73c 9382 8a3c e8c3 0f3c 588a 13bd
000003e0: dc7f 9ebc 7f40 d53c 7f74 26bd 092b 443c
000003f0: 9637 e0bb 5440 b739 434b adbb 9e2d b53c
-0.010475347 0.015134378 0.046989363 -0.025537001 0.983377 -0.00060642796 -0.024127627 0.0054120407
-0.014421272 -0.035482194 0.017892374 -0.03830366 0.03131009 0.04189853 -0.0149048455 0.008387968
-0.019608699 0.0067968504 -0.009145385 0.026445512 -0.033768278 -0.009310589 0.024291309 -0.036077876
0.052154306 -0.017401256 0.008528398 0.06990327 -0.035806444 0.0043712147 -0.00023879723 0.037951205
0.0031240094 -0.03863006 -0.03820103 -0.01796046 0.035928026 0.07522787 -0.015340683 0.011322627
0.003314455 -0.034108493 0.045468297 0.0063144416 0.013786656 0.079437174 -0.042956486 0.013332031
-0.04073704 -0.047410212 -0.002708307 0.057130273 0.011000028 -0.02510553 0.046725083 0.0050681755
0.05709206 -0.048269603 -0.09999193 0.028397035 -0.029140025 -0.008373573 0.014579097 -0.005794475
0.025766296 -0.006257022 -0.032993432 -0.01451614 0.047077548 0.016819324 -0.05037103 0.020968376
-0.0737664 0.018613085 0.030153167 0.047308803 0.034493886 0.01825654 -0.013895161 -0.040358897
-0.018096909 -0.08263431 -0.056546178 0.005983253 0.0017075486 0.09164513 0.016288701 -0.00075463456
0.013688568 0.006414401 -0.0129314475 -0.044296037 0.01930775 -0.03782188 0.0023212978 0.05816619
-0.008811238 0.028889118 -0.0020434135 -0.021843115 0.020973023 -0.037777383 -0.02559154 0.03331006
-0.048058514 0.003285065 0.0032719432 0.0011763274 -0.011390593 0.048388716 -0.007700486 0.082144
-0.03865968 -0.014131201 -0.049618863 -0.034229863 0.00906915 -0.018797755 0.053451836 -0.00500317
-0.00756569 -0.09184076 -0.02405034 0.034565996 0.020615265 -0.0077961003 0.06578987 -0.08599045
-0.0047802357 -0.019551653 -0.023693474 0.009383168 -0.003568251 0.0008805335 -0.001007458 -0.012318941
-0.09381034 0.015721932 0.037662245 -0.073206715 0.042370684 0.045847017 0.012339664 -0.039522137
-0.041674916 0.013126474 -0.0004523337 -0.022692021 -0.051818147 0.01889306 0.03535299 0.020311136
-0.009846804 0.010486461 0.023997445 0.0052542645 0.0034135461 -0.07176807 -0.027831538 -0.003944118
0.06590397 -0.023669934 -0.008172749 0.008987276 -0.030389793 0.027790453 0.033303127 -0.030229917
-0.0505315 0.047274552 0.0061289947 0.04891778 0.021361167 0.023126718 -0.06562023 -0.055277124
-0.063930556 0.03379976 0.029445201 0.025778709 0.014338416 -0.018004496 -0.042696223 0.04061843
-0.039080277 -0.050909348 0.01999066 0.045905057 0.017268732 -0.0032071637 -0.035134982 0.02497048
-0.00096465385 -0.0032794033 0.034498014 -0.0028513945 -0.024638139 0.011910705 -0.050095696 0.011051848
0.1132429 0.02463972 -0.0043711737 -0.02948573 -0.023277288 0.00542862 -0.020291086 0.018799651
0.0068483944 -0.0267202 -0.04123233 -0.02683657 -0.024657078 -0.004013931 0.08280883 0.026215348
-0.07384505 0.030000709 0.008528439 -0.0022895557 0.020637825 -0.015669588 -0.027497135 0.063884206
0.021382147 0.057550654 0.022140961 0.04472954 0.04294466 0.09871379 0.012793371 -0.040397618
0.08462992 0.036403816 0.0500207 0.054069813 0.043389987 0.059751403 0.022503825 -0.054642897
-0.0068829395 -0.0007317346 0.028709259 0.014212255 0.030205216 0.016907966 0.008774735 -0.036020607
-0.019348077 0.02603173 -0.040638443 0.011973151 -0.006842564 0.00034952408 -0.005288513 0.022116479

rca.ca.conv_du.0.weight f4 [3, 48, 1, 1]
00000000: 00cd 2e3d b77d 49bd 3cec ff3d adb4 a03d
00000010: 09be 803d 603a e6bd e036 a3bd e834 07bd
00000020: b8be fa3d a07d 85bd e8a6 3fbe 4f20 48be
00000030: ffba d9bd 2a2d cfbd d842 18bd bed9 19be
00000040: 5f59 993d 6b0d 163d dc6e c83d 6cdd f3bc
00000050: 9f0b 25bd 6b1a bebd bc08 d13d 537a 89bd
00000060: fe68 413d e367 e4bd 94f7 223e 331f 203d
00000070: 36b1 f43d eb84 28bd 10e7 61bd f5df 813d
00000080: b5a5 b63d c583 043e f99c 313e 8cd0 e43d
00000090: 4b71 543d dfc8 1cbe 6a8c 4f3d 96b9 11be
000000a0: 02c1 00bd b7a5 cfbd d9da 1cbe b554 b43d
000000b0: 0d3e c8bd a1e9 3ebd 3660 f0bd a505 96bd
000000c0: 3b4e 673d 5335 803b f76b 52bd 42c7 323e
000000d0: c96f cc3c 5024 273e 5a58 04bd a36f 0bbe
000000e0: 397a 8bbd 5109 923d 764e 44bd 121c 53be
000000f0: 2958 b3bc 9092 70bd 89dd 06bd bf5b cbbd
00000100: bdea cd3d 350d d0bd fc26 4d3e 5cd3 8f3d
00000110: 1dfc 9dbd 6f12 d9bb 510e dd3d f147 0ebd
00000120: b693 3cbd 620f 473d 5749 4abd 62d8 bfbb
00000130: ccb8 bb3d b192 a23d 91b8 853d e2e5 88bc
00000140: 82a8 ffbb d8cc 18be 41a6 d1bc 3747 e43d
00000150: 9b22 77bb 2f29 45be 7228 15be 3015 1f3e
00000160: 1967 933d 5d21 1dbe cd91 3ebe ff6e 7a3d
00000170: 0ec4 3abd 769a c3bd 63ce 303c 4037 5bbd
00000180: ee41 50b9 b4c3 523d 4d88 123d 9386 ec3c
00000190: e9cd 57bd 6261 78bd 2c72 a3bc bf5d c9bd
000001a0: 7681 ffbd a8e8 e5bc 6dee a63d cbd8 483d
000001b0: 8eab 30bd 0337 85ba 4eae 08bb 2d65 65bd
000001c0: 21f5 14bd 3b22 043e 53a8 873c ebf2 23bd
000001d0: e5c3 f03d a0c9 463d 8b92 3e3e f882 52bd
000001e0: 4f96 573e 0b96 98bd b17c 933c 1b91 083e
000001f0: 2258 17be 5c95 34be 18ab 303d 6392 7bbc
00000200: 204f 0dbe b6dd 9e3d 2fce 3bbd d65d 8d3b
00000210: 2e16 d9bd 754f 0d3d ccd5 553d 1046 d63d
00000220: c922 c5bd 7ff1 10be 54e6 333e f391 ba3d
00000230: 8553 e73d 5daf 8fbc b14f 16be 9caf 843b
0.042675972 -0.049192157 0.1249623 0.07846961 0.06286246 -0.11241603 -0.07969451 -0.03300944
0.12243408 -0.06518102 -0.18716013 -0.19543575 -0.1063137 -0.10116036 -0.037173122 -0.15024468
0.07487749 0.03663389 0.0978677 -0.029768668 -0.040294286 -0.092823826 0.10206744 -0.067127846
0.04721927 -0.11152627 0.15914756 0.039092254 0.11947863 -0.041142385 -0.055152 0.063415445
0.08918325 0.12940891 0.17345037 0.1117259 0.051865857 -0.15311001 0.05067102 -0.14230952
-0.031434067 -0.101390295 -0.15317859 0.08805219 -0.0977746 -0.046609525 -0.11737101 -0.07325295
0.05647109 0.0039126067 -0.051372495 0.17458823 0.024955647 0.16322446 -0.03231082 -0.13616805
-0.068104215 0.07130683 -0.04792639 -0.20616177 -0.021892624 -0.058733523 -0.032926116 -0.099296086
0.100545384 -0.10158769 0.20034403 0.070227355 -0.077141024 -0.006624512 0.10793746 -0.034736577
-0.046039306 0.048598655 -0.04938635 -0.0058546523 0.091661066 0.079381354 0.06529344 -0.01671118
-0.00780207 -0.14921892 -0.025591971 0.11146396 -0.0037709835 -0.19253992 -0.1456621 0.15535426
0.07197399 -0.15344758 -0.18610306 0.06114101 -0.04559713 -0.095509455 0.010791394 -0.053519487
-0.00019860987 0.05145617 0.035774518 0.028872764 -0.052686606 -0.060639746 -0.019951902 -0.09832334
-0.124758646 -0.02806504 0.08150945 0.049034875 -0.043132357 -0.001016349 -0.0020855847 -0.056004692
-0.036366586 0.12903683 0.016559755 -0.040026587 0.11756114 0.04853213 0.18610589 -0.051394433
0.21053432 -0.074504934 0.018003793 0.13336603 -0.14779714 -0.17635101 0.043131918 -0.0153547255
-0.13799715 0.07757132 -0.04585093 0.0043141646 -0.105999336 0.034499604 0.052205846 0.10462582
-0.09625775 -0.14154623 0.17568332 0.09109869 0.11295227 -0.017539674 -0.14678837 0.0040492546

rca.ca.conv_du.0.bias f4 [3]
00000000: 096f 43bd 4f76 80bd 9aa0 5a3e
-0.047713313 -0.062725656 0.21350327

rca.ca.conv_du.2.weight f4 [48, 3, 1, 1]
00000000: ff43 d2bd ab75 f9bd 8145 63bd 817e 1d3e
00000010: d768 e4be c2f8 9f3e c9df ccbe 62f7 523e
00000020: 7b7f f53e b4c1 973e 039f 4a3e c02e 9bbd
00000030: 139a efbe a546 12bf f117 b13e 24e7 1d3e
00000040: fb32 393e cf46 9b3e 9434 b9be 7ff1 27bf
00000050: d698 243f faa5 ec3e 56bb 883e a63b 81bf
00000060: 2215 313e 1ae6 cdbe 1ac6 6d3e 43b7 81be
00000070: 4fd9 e13e 5ff7 cdbc 8fbe e1be 6be6 0bbf
00000080: fcd0 53bd 3a84 90be 1a64 1fbe d0fa 76be
00000090: c599 4abe 9b6d e8be 81e3 4ebd a64f b13e
000000a0: 8fe1 edbe a3a4 e2bd f6c4 7cbe f41b eabe
000000b0: 73c8 b9bb fc70 d0bd 5c23 bbbc 41a4 bd3d
000000c0: 5ef8 b23e 8681 8d3e 1ba9 233e 4fc4 843c
000000d0: 6533 fa3e fc77 6e3e 92a3 cb3d 6028 a73e
000000e0: 12b0 6bbe 443e 2fbe 4322 0b3f 397d a83b
000000f0: 960a 28be 1610 b3bd 6d86 5bbd 55c8 a8be
00000100: 2368 debe b021 863d eda1 b0bd a830 f7bd
00000110: 4c2f e93b 1f70 8e3e 3330 493d 7dc0 ab3e
00000120: 5476 54bd 33e8 a3be 9e2e ce3d 630e 573e
00000130: aacb 193d 4960 a43d daac 0a3f 4535 d9be
00000140: 763d 46be 326d 923d 9bdf c83e 6ff1 f0bd
00000150: 7718 af3e d212 d8bd 9f30 cbbe 68a1 023d
00000160: 0196 173e e420 3d3e b5c8 f53e e66e f03e
00000170: 407e 59bd c43e ed3e 1311 b7be fe17 063c
00000180: 7393 8dbd 4d0d 023e 7032 fb3d 5068 a6be
00000190: 6962 a6bd 98be 1f3e 2346 d4be 567e 80be
000001a0: fa09 8c3e 97b0 373e 6dff 533e d4cf 95bd
000001b0: c2b5 073f a5c4 b23e 942a 1b3c 489e b5be
000001c0: 8cb2 ff3e ecf3 cb3e ddca 8b3e 3c2c ef3e
000001d0: d1b2 b3bb 279f 1c3f 4c0a babe e0bb 633e
000001e0: 3ca3 243e beeb 4f3e 90b9 4d3f 5979 e7bc
000001f0: d2e4 4e3d 27b8 1b3e 54db b63e 5fee 9f3e
00000200: d810 063d bfff 67be f18a 53be 4660 243e
00000210: 0fe1 d33e f9e7 123f 3fc9 803e eafe 79be
00000220: b4b1 cd3e aacd 383f f6c3 873e d0ab 0a3f
00000230: 2cb5 b03d a8eb 51be edd1 7a3e df62 06be
-0.102668755 -0.121806465 -0.055486206 0.15380289 -0.44611236 0.31244475 -0.40014485 0.20602182
0.47948822 0.2963997 0.1978722 -0.07577276 -0.46797237 -0.57139045 0.34588578 0.15420204
0.18085854 0.3032746 -0.36172926 -0.6560287 0.6429571 0.4622038 0.26705426 -1.0096328
0.17293218 -0.40214616 0.23220101 -0.2533513 0.44111106 -0.02514237 -0.44090697 -0.54648465
-0.051712975 -0.2822588 -0.1556553 -0.24119115 -0.19785221 -0.45396122 -0.050509933 0.3463108
-0.4646115 -0.11066558 -0.2468451 -0.45724452 -0.0056696474 -0.101778 -0.02284401 0.092598446
0.34955114 0.2763788 0.15982477 0.016206888 0.48867336 0.23287958 0.09943308 0.3264799
-0.23016384 -0.17113596 0.54349154 0.005141881 -0.16410288 -0.087433025 -0.053594995 -0.3296534
-0.43438825 0.06549394 -0.08624635 -0.12069827 0.007116234 0.27819917 0.049118232 0.33545294
-0.05187066 -0.3201309 0.10067485 0.21001582 0.037547745 0.080261774 0.5417 -0.42423454
-0.19359383 0.071497336 0.39233097 -0.117648 0.34198353 -0.10550465 -0.39685532 0.03189221
0.14803316 0.18469578 0.4800469 0.4695961 -0.053098917 0.4633695 -0.35755214 0.008184431
-0.06912889 0.12700386 0.122654796 -0.3250146 -0.08124239 0.1560005 -0.4145976 -0.25096387
0.27351362 0.17938457 0.20702906 -0.07315031 0.53011715 0.34915653 0.009470601 -0.35472322
0.49940908 0.39834535 0.2730321 0.46713436 -0.005483963 0.6118035 -0.3633598 0.22239637
0.16077894 0.20304772 0.8036127 -0.028256105 0.05051119 0.15206967 0.3571421 0.3123655
0.032730907 -0.22656153 -0.2065847 0.1605235 0.41382644 0.5738521 0.2515354 -0.24413648
0.4017464 0.7218882 0.26516694 0.54168415 0.08628306 -0.20500052 0.24494143 -0.13123654

rca.ca.conv_du.2.bias f4 [48]
00000000: 25a1 10bf 6cc0 273f 122d ca3e 7f51 e43e
00000010: e50a 8d3e 6937 0abd 6584 babe 013d 183f
00000020: 9b89 113f a4e1 173f 5d83 843f 8488 e83e
00000030: eda6 d3bd 06de 263c 0bf8 0e3e 76df 0b3f
00000040: 67ba 8dbd dcf4 403f fde9 533d 6e64 c63d
00000050: e63c f8be bf95 22be c9a6 da3e 4a44 843f
00000060: 96b4 fe3e 82e6 be3e d36e fabc a1de 04bf
00000070: 93e7 1a3e ef74 b0be a958 efbc ea6c 843e
00000080: 5e4f f03d c5bd f33d b452 403f 6db7 913e
00000090: ca41 42be f171 c8be b80c 923e 2c80 253f
000000a0: 827e 083e 4233 3c3f a7cd 3f3f c4fd 40bd
000000b0: d6be 213f dc6a 48be 2913 c33e 36a5 7a3f
-0.5649589 0.6552799 0.3948751 0.44593427 0.27547374 -0.03374425 -0.36429134 0.59468085
0.56850594 0.59328675 1.0352589 0.45416653 -0.10334573 0.01018477 0.13961808 0.5463785
-0.06920319 0.75373626 0.05173682 0.09687124 -0.48483962 -0.15877436 0.42705372 1.033334
0.4974715 0.37285239 -0.030570423 -0.51902205 0.15127401 -0.34464213 -0.029217081 0.25864345
0.11733888 0.1190143 0.75126195 0.28460255 -0.18970409 -0.3914943 0.2852533 0.646487
0.13329509 0.73515713 0.74923176 -0.04711701 0.6318182 -0.19572014 0.38100556 0.9790834

rca.body.0.weight f4 [48, 48, 3, 3]
00000000: 5c70 95ba 6050 d23a d1dc f0bc 4f8c 1dbd
00000010: cc8d 7ebc 4090 20bb a775 f6bc cfbb 7f3c
00000020: b6ab 8f3c b702 d4bb b854 5aba 52f1 733d
00000030: 2065 20bd 2be2 a2bd eab1 393d 7054 8f3c
00000040: 5bd1 493d c82b 353d 5dbf ec3d 12bd a23d
00000050: b077 b3bd d58d cd3d a2fa 44bc 1fb4 bfbb
00000060: 1157 a4bc 7554 35bd c1b9 e23b 6c7d 77bc
00000070: ed31 de3c bc35 b53c cc02 3fbd 0a90 f73c
00000080: effe 8e3c 8864 be38 de58 c03b 34f9 b63c
00000090: b415 68bc 8302 09bd 0a22 843c b639 c43c
000000a0: d0dd fd3c 5c64 f5bb 7cab 5fbc 6d2d aa3b
000000b0: 8d12 053b 3403 a73d 67fb 933d 0b36 e0ba
000000c0: 068e 73bd bb4d ae3d b205 b1bc 2ad2 23ba
000000d0: 7008 b53d be8a 9dbd 0a9f 323d e193 783b
000000e0: f4f3 003d f580 873d 72e2 893c a492 c13a
000000f0: 17ed 4c3d 8210 21bc 7d5e bdbc 8220 ca3d
00000100: fe00 bf3d 5285 0ebc 4260 5bbd f011 49bd
00000110: 4a4c b7bc 41f7 9fbc c5f2 d73c dc13 c536
00000120: c1c1 80bd 8f0c 253d 7376 4d3d 8de7 f23c
00000130: b5e5 99bd 13e4 95bd 4566 8ebd edad 003c
00000140: 5d41 64bd 6a09 b4bd 4fe7 d93a f010 863b
00000150: 417c 06bd 0c77 61bd 0f1a 72bc c8ba a5bc
00000160: 9984 cfbb fb02 973c 47ae 883d efc4 143e
00000170: e67b 68bc 5e46 f5bc 0241 dcbd 7ddd 21bd
00000180: 9125 f83b b11a 3e3d 0eba 8cbc dad2 2bbc
00000190: 9b67 7ebc d3a7 adbd 3d77 3b3a 1480 56bc
000001a0: 14d6 2dbd d2c8 babd 5f26 afbc 5804 9dbd
000001b0: fa9a e83c b6a4 d2bc 4c91 5c3a cfb3 eebb
000001c0: a8da de3c 0e68 d8bc 6190 ef3d e831 1abc
000001d0: 07b1 2d3d e769 ae3d a9be fe3d 18c6 553c
000001e0: a2a2 dabc 0bc6 92bd 1463 e7bb 387d 043c
000001f0: 3eec 243d d550 bd3b 13de 6fbb a8c9 1d3d
00000200: 7fc2 8bbb 2624 af3d 1d1f 0a3d 6925 34bd
00000210: 63c6 66bc b6b8 6ebd 15bf acbb 5b44 a43c
00000220: 8454 59bb ed21 fa3d 8657 b93c c435 7c3d
00000230: 2d64 7a3c 1b83 03bd 79e4 d13c 190d 91bc
00000240: 7967 d53b 3ceb 20bc a89f 49bc f38f b03d
00000250: ffac 95bc a76d d13c ad89 3fbd 6362 01bc
00000260: d6cf 213d ff4d 813d d4db d43c 1dc9 043d
00000270: 83f2 6f3d 4b0e 4d3d ab7f e8bb a625 503c
00000280: 5da3 0a3e 1964 3d3c 496f 753d 5fc7 faba
00000290: e399 6ebb b931 35bd 1e61 e8bc d4ed 31bd
000002a0: 76cd 913d 56de 283c 5859 483d f8ca 083c
000002b0: 61fc a23c 5687 8c3d 0ae7 0c3d 688a a7bd
000002c0: 2b61 d8bc 511b 82ba 4e73 b53b 3aa7 bd3a
000002d0: dc23 78bb 36d2 6dbd 225d fcbc 7b20 323d
000002e0: ab5b 7a3c c157 08bd 033c 18bd 3cd2 483b
000002f0: 09f7 6538 9073 ad3c a80f d03d 6ff6 2d3d
00000300: 8174 d4bd 8050 4f3d 89a9 84bc e741 52bd
00000310: d7bf 5cba 505b e23c 8eee 6ebd e05a c1bc
00000320: cc83 5fbd 4cd1 893b 19d1 9ebd 1bbf dcbc
00000330: 538d debc 9652 81bd 134e 1a3d ee1b 893d
00000340: 30d6 a8bc f38c cbbd 7009 733d 62c2 0f3d
00000350: a633 0fbc 49b9 37bd dec6 e73c 0b44 59bc
00000360: 53fc 7bbc d460 a8bd 4688 7fbc baf1 c43d
00000370: 1d4e 5fbd 7eb9 92bc b2ee 3dbc 9498 683d
00000380: 5434 50bd afc7 47bc df9e 03bd 137e 0ebd
00000390: ff02 09bd 3eef fa3c 9d9b 0fbd fe55 a3bc
000003a0: 7a0e 633c 3c0b 68bc 856c d5bb 23af 6b3d
000003b0: 1425 e3bb 7c7d 343d bb83 ae3c e00e 443b
000003c0: 0ae1 093d 3738 45bd b681 b03c 3aff e63c
000003d0: 0a7d b73c 39a1 80bc 4769 3abc d5c7 ad3c
000003e0: 73e2 773d be24 9e3d 84de 913d d64b 0cbc
000003f0: 5cc6 b33c 1ed7 863d 1019 9a3d 587d 6e3b
-0.0011401284 0.0016045682 -0.029402168 -0.038463887 -0.015536737 -0.0024500042 -0.030085398 0.015608742
0.017537933 -0.00647005 -0.0008328664 0.059556313 -0.03915894 -0.07953294 0.045335688 0.017496318
0.049271923 0.044231206 0.11559937 0.079462186 -0.08763063 0.10036818 -0.012022646 -0.0058503295
-0.020061048 -0.044269998 0.0069191162 -0.0151055865 0.027123416 0.02212035 -0.046633527 0.03022005
0.017455546 9.0786314e-05 0.005869969 0.022335626 -0.014165331 -0.03344966 0.016129512 0.0239533
0.030989558 -0.0074887704 -0.013651725 0.0051934035 0.0020305247 0.08154908 0.072256856 -0.001710595
-0.059461616 0.0851092 -0.021609161 -0.00062492734 0.088395 -0.076924786 0.043608703 0.003792994
0.03148265 0.066163935 0.01683161 0.0014768434 0.050030794 -0.009830596 -0.023116345 0.098694816
0.09326361 -0.008698778 -0.053558595 -0.049089372 -0.022375245 -0.01952708 0.026360879 5.8733694e-06
-0.062869556 0.04029518 0.05016179 0.029651428 -0.07514516 -0.07318892 -0.069531 0.007853967
-0.055726398 -0.08790858 0.0016624721 0.0040913746 -0.03283334 -0.055045173 -0.014776721 -0.020230666
-0.0063329455 0.018434038 0.06673866 0.14528249 -0.014189696 -0.02994078 -0.10754587 -0.03951787
0.0075728376 0.046412174 -0.017178562 -0.010487283 -0.015527631 -0.084792756 0.0007151252 -0.01309206
-0.04244049 -0.09120335 -0.021380601 -0.07666844 0.028394211 -0.025713306 0.0008413985 -0.0072846184
0.027203873 -0.026416805 0.1169746 -0.009411313 0.042405155 0.08516293 0.12438709 0.0130477175
-0.026688877 -0.0716668 -0.0070613716 0.008086495 0.04026436 0.005777458 -0.0036600872 0.038522393
-0.004265129 0.08551817 0.03372108 -0.04398099 -0.014085385 -0.058281623 -0.005271802 0.020052126
-0.0033161948 0.12213502 0.022624742 0.061574712 0.015282673 -0.032107454 0.02562164 -0.01770644
0.006512579 -0.009821709 -0.012306131 0.08621206 -0.018270968 0.025564982 -0.046762157 -0.007896992
0.03950485 0.06313705 0.025983728 0.03241836 0.058580887 0.05006246 -0.0070952973 0.012704289
0.1353888 0.01155951 0.059920583 -0.0019132904 -0.0036407642 -0.044236872 -0.028366622 -0.0434397
0.07119267 0.010306915 0.04891333 0.008349173 0.019895734 0.06861751 0.034400024 -0.08180696
-0.02641352 -0.0009926354 0.005537427 0.0014469393 -0.003786317 -0.0580618 -0.030806128 0.043488007
0.015280644 -0.033286814 -0.037166607 0.0030642888 5.4827924e-05 0.021173269 0.10159236 0.042471346
-0.10373784 0.05061388 -0.016194122 -0.05133238 -0.00084209203 0.027631432 -0.058332972 -0.023602903
-0.05456905 0.0042058583 -0.07754726 -0.026946595 -0.027166998 -0.0631458 0.037672114 0.0669478
-0.020609945 -0.09938993 0.059335172 0.035097487 -0.008740341 -0.044854436 0.02829307 -0.013260852
-0.015379983 -0.082215935 -0.015596455 0.09616418 -0.054517854 -0.017910715 -0.011592554 0.056786135
-0.050831154 -0.012193604 -0.032133933 -0.034788202 -0.033450123 0.030631658 -0.035060514 -0.019938465
0.013858432 -0.014162835 -0.0065131807 0.05754007 -0.0069319103 0.044064984 0.021303048 0.0029916093
0.03366188 -0.048149314 0.021546226 0.028197873 0.02239849 -0.015701877 -0.011377639 0.021213451
0.060518693 0.07721852 0.071225196 -0.008563003 0.021945171 0.06583999 0.075243115 0.0036390629

rca.body.0.bias f4 [48]
00000000: f90a 0b3f f5f9 c4be c8de 993f 927d 9b39
00000010: 4249 043e f2f3 a7be da94 2b3f 04b2 b33e
00000020: a79e e23d ad3d 32be a679 61be 9987 1c3d
00000030: 33d1 cebd ce89 6a3e d097 223e 2b3f f33d
00000040: 2d94 87bf fedb 183f fb52 1e3f 067f 62bd
00000050: 46ad 84be 1aa5 8bbd 70db 8b3e 986d ecbd
00000060: 2854 0d3f 2b38 993d e2bd 673c f620 28bf
00000070: ffd9 0c3e 7ddf af3d 1dab e83d 47c1 173e
00000080: f6d5 1d3e 53a0 3c3e 9d6b 0cbf 9581 193e
00000090: 7301 b6bd 498c 49be 2092 063f 2e0a db3d
000000a0: b534 ab3e 1346 f13d 47c4 233f 71cd 583e
000000b0: 3f21 ac3e 53a3 993e 6bcb 673d 2b76 abbe
0.5431362 -0.38471952 1.2021112 0.0002965746 0.1291857 -0.32803303 0.67024004 0.35096753
0.11065417 -0.1740634 -0.22019061 0.038215254 -0.10098495 0.22904131 0.15878224 0.11877283
-1.0592095 0.5971068 0.6184537 -0.05529692 -0.25913447 -0.068186 0.27315855 -0.11544341
0.5520654 0.07481416 0.014144393 -0.65675294 0.13755034 0.08587549 0.11360762 0.14819823
0.15413651 0.18420534 -0.54851705 0.14990838 -0.08886995 -0.19682421 0.5256672 0.10695301
0.3343865 0.11780944 0.6397137 0.2117212 0.33619115 0.3000742 0.05659048 -0.33488593

rca.body.2.weight f4 [48, 48, 3, 3]
00000000: fc29 5a3c 982b 74bd 47cd a63c 384b 78bd
00000010: d00d c5bd d454 49bd 22ac 0ebd 8b25 203c
00000020: ca9a 02bb 7d78 b53c b9a4 863d d1b4 dabb
00000030: 6e17 d03c 51b6 863d f461 943d 3040 e03b
00000040: 3c97 463d 41f7 943c 0455 e23c b46a 0a3c
00000050: 83d3 2cbd 975a abbc 91e6 bdbc 5c3f 7dbd
00000060: e282 47be 0423 e03b 7ad4 cabc cce1 9bbc
00000070: fc42 9cbc e5bc 85bb 80de 30bd 8efc 06bc
00000080: 9bba 92bd d0e6 1ebd 88aa c4bd b220 64bc
00000090: 6f3d 92ba f232 8fba af02 8bbb 08f6 bebc
000000a0: ebbe 833d e4a1 ce3c de3d e4bc 03d5 c8bc
000000b0: 1d8f 2abd 9d09 e4bc fff5 82bd 1d7d 853d
000000c0: ce0b f63b a6d9 b63b b021 a9bc 3ec6 ccb9
000000d0: 1842 e33c d1b2 b5bc 2765 06bd d631 1cbd
000000e0: 973c d8bc 3834 77bd 773e 1dbd d18f cc3c
000000f0: ae2c 0fbc 2c88 07bd fbaf bf3b 2096 a53c
00000100: bd27 36bd 09be 99bb 369b 343c fa7e a13c
00000110: 769b 25bd aa28 c5bb f009 4cbd 2010 b2bc
00000120: e880 7ebd e90b 97bd 0298 9bbd 37b5 9ebd
00000130: 64b9 83bc d676 a7bd f3a3 bebc bc20 f9bc
00000140: 5567 2abd 4be9 1bbc e18b 013d f384 adbd
00000150: 617e f1bc ebd1 913d 8c0a b83c 4ad0 f8bc
00000160: 47e4 973c db8e 82bc ca07 6a3b 99b4 ab3d
00000170: 8131 d3bc c3b5 143d 3e7c b0bd d1ea 823d
00000180: 0120 f43c e518 09bc 6681 f5bc 5ba4 a1bc
00000190: b9c2 3dbc a492 afbc c5d4 94bc 6445 31bd
000001a0: 31fd 193d 8d69 393d dc56 a2bb 426d 503c
000001b0: dd62 e6bc 326d 2bbd 1a2e b5bc 69a8 41bd
000001c0: c730 afbc 25fb 29bd 2613 00bd 226a 73bc
000001d0: 62d3 9bbc a094 a73c f4c4 2d3d a54c 85bc
000001e0: 1e34 03bd 90f1 c33c 5089 cd3c dc05 6b3d
000001f0: 7fd3 9cbc a6ce 7abb 6560 1abd 661c 15bd
00000200: fa81 bc3c b96a 38bd 30ef e6ba 2edd 68bd
00000210: 075e 22bd 5c52 2bbd 01b8 8dbd 97c2 cbbc
00000220: 698a e2bc c56e 42bd eea8 2bbd f5ef a9bd
00000230: 3927 17bd ec61 e3bc 53e1 83bc 4f64 1cbc
00000240: 520b 4f3d 78ad a13c 9e40 453d 4d8a 103c
00000250: 021f 19bd 826a 1a3d c296 a8bc 2017 9bbc
00000260: 9954 b1bb 384d 15bd 4ba9 e2bc 7434 d63d
00000270: 9f7b 19bc 5116 073d ae62 923d bbe3 93bc
00000280: 7c00 22bc 3ea9 e13c 5564 42bd 0ed9 c6bc
00000290: 3e8c 21bd ea4a 53bd 46d8 c4ba be66 12bd
000002a0: 24fb 05bc 48e5 16bd e00c 74bb e201 803c
000002b0: c9cd 91bd da4d 533d 390b 8f3d 4c65 f5bc
000002c0: 85d0 cdb7 655f df3c 8111 eb3c 8aa3 babc
000002d0: 2671 113d 8b57 09bd 99e5 713c e8bc 453d
000002e0: 23ba f9bc b977 123c 4ca2 e23c 2218 49bc
000002f0: a862 053d 7f45 9a3c 91ab 89bd 5e62 503e
00000300: 4439 053d d726 febc f56c c43d edbd 573c
00000310: 1db5 023d 01b8 e53b 1ff0 c4bd b490 c6bc
00000320: c451 b5bb 85f6 22bd 1af3 3a3d 9f76 febb
00000330: 4f08 663d a520 52bd 123d f3bb cfb7 813b
00000340: a6d7 22bd 7ccd 11bc 0f6e 79bc 0181 96bd
00000350: 120b 28bc 8423 3fbd 643f c0bd 892f 31bc
00000360: c540 213d 7b1f cf3c e36d 623c 8d8f bcbc
00000370: 2028 9b3c f175 f0bc 8522 e9bb 8519 2f3d
00000380: d995 76bd 3946 6f3d 3b6e 7f3d a729 323d
00000390: d683 473d 3627 703c 376b 1b3c 6a77 b43c
000003a0: 9b97 89bb f2fc 3fbb ff83 193d cb83 7b3d
000003b0: 6e86 8abd 5283 2ebc dd63 cfbb b52c b13b
000003c0: 4360 7ebc f5ee 4fbb c4bf 0cbd d087 98bc
000003d0: 3db5 1f3c 7ae7 73bd 1a97 3dbc 101b 58bd
000003e0: 7e8f 88bd c119 e13c f556 e8bc c43b 9bbd
000003f0: 784f 1cbd ef79 adbd 77fb 413c 61a2 b9bb
0.013315674 -0.059611887 0.020361556 -0.06061861 -0.09621775 -0.049153164 -0.034832127 0.009774576
-0.0019928687 0.02215218 0.06574387 -0.006674387 0.025401797 0.06577743 0.072452456 0.0068435892
0.048484072 0.018184306 0.02762843 0.008448292 -0.0421939 -0.02091722 -0.023181232 -0.061828002
-0.19483522 0.0068401117 -0.02475952 -0.019028567 -0.01907491 -0.004081356 -0.043180943 -0.008238925
-0.071644984 -0.03879434 -0.09602839 -0.013923811 -0.0011157225 -0.0010925217 -0.0042422633 -0.023310676
0.06432899 0.02522368 -0.027861532 -0.024515634 -0.04164039 -0.027836615 -0.06394576 0.06518004
0.0075087314 0.005580145 -0.020645946 -0.00039057614 0.027741477 -0.022179993 -0.03281131 -0.038133465
-0.026396079 -0.060352534 -0.03838965 0.02497092 -0.00873868 -0.033088848 0.005849836 0.020213187
-0.04447149 -0.0046918434 0.011023333 0.019713867 -0.040431462 -0.0060168104 -0.049814165 -0.021736205
-0.062134653 -0.073753186 -0.075973526 -0.07749408 -0.016079612 -0.08176963 -0.023271536 -0.030411117
-0.04160245 -0.009516071 0.03162754 -0.08472624 -0.029479207 0.07120117 0.022465967 -0.030372757
0.018541468 -0.01593726 0.003571021 0.08384056 -0.025780441 0.036306154 -0.08617447 0.06392444
0.029800417 -0.008367752 -0.029968929 -0.019731691 -0.01158207 -0.021432228 -0.018167863 -0.043279067
0.037594978 0.045266677 -0.004954202 0.012721362 -0.028123314 -0.041852184 -0.02211671 -0.04727975
-0.021385564 -0.041499276 -0.03126826 -0.014856847 -0.019021694 0.020456612 0.042424157 -0.016271899
-0.032032125 0.023918897 0.02508989 0.057378635 -0.019143818 -0.0038270145 -0.037689585 -0.036404036
0.023011196 -0.045023654 -0.0017618891 -0.05685156 -0.039640453 -0.04182659 -0.069198616 -0.024873061
-0.02765389 -0.04746892 -0.04190915 -0.08297721 -0.03690264 -0.027756654 -0.016098654 -0.0095454
0.050547905 0.019736037 0.048157327 0.008822036 -0.037383087 0.03769923 -0.0205797 -0.018931925
-0.005411696 -0.036450595 -0.027668616 0.104592234 -0.0093678525 0.032980267 0.07147728 -0.018052926
-0.009887811 0.027546521 -0.047458965 -0.024273422 -0.039440386 -0.051585115 -0.0015018068 -0.035742514
-0.008177552 -0.036839753 -0.003723912 0.015625898 -0.071193285 0.051587917 0.069845624 -0.029955529
-2.4535004e-05 0.027267167 0.02869487 -0.02278306 0.035508297 -0.033530753 0.014764213 0.04827586
-0.030484265 0.008939677 0.02766528 -0.01227382 0.03256479 0.018831966 -0.06722177 0.20350024
0.032525316 -0.03102438 0.095910944 0.01316784 0.031911004 0.0070104604 -0.09616112 -0.024238922
-0.005533429 -0.03978588 0.045641996 -0.0077656056 0.056160267 -0.051300664 -0.0074230516 0.0039586793
-0.03975644 -0.008899089 -0.015223994 -0.07348824 -0.010256546 -0.04666473 -0.09387091 -0.010814556
0.03936841 0.025283566 0.013820144 -0.02301767 0.018940032 -0.029353114 -0.0071147108 0.042748947
-0.0602015 0.05841658 0.062360983 0.043496754 0.048709713 0.014657786 0.009486011 0.022029597
-0.004198981 -0.0029295054 0.037479397 0.061404984 -0.06763922 -0.010651426 -0.0063290433 0.005406941
-0.01552588 -0.0031728123 -0.03436257 -0.018619448 0.0097478 -0.059546925 -0.01157167 -0.052760184
-0.06667994 0.0274781 -0.028361777 -0.07579759 -0.038161725 -0.084705226 0.011839739 -0.005665109

rca.body.2.bias f4 [48]
00000000: d2af 3fbc 7b7d 0fbb 393d abbd a835 753c
00000010: fa9b 1abc 1a36 9bbc bd97 84bc 1a1b 143e
00000020: bc56 fc3d 0381 f93d e457 41be d93b 183e
00000030: ff8f efbd d87c bcbc b511 54bd b4e9 45bd
00000040: f55a b0be b512 9fbd 60d8 2fbe 677c cabd
00000050: 75cd 133d d9dc ac3c cf49 3f3d 7953 ce3d
00000060: b6c9 a837 90c5 9fbd 753e 65bb 3e76 11bd
00000070: c980 73be e986 67be 7a10 1b3d 6579 bebc
00000080: d8d8 d53d a3b9 4a3e 92de cc3d ad38 8cbe
00000090: a950 8dbc 2768 05bd 4d04 4c3e 4aa4 413d
000000a0: 6ceb 14be 58fb 9fbe 5ff8 88bd 7dc6 733d
000000b0: 5fe9 543e 2e01 1abe 1985 a7be 66fa 7cbd
-0.011699634 -0.002189486 -0.08361287 0.014966406 -0.009436602 -0.018946696 -0.016185636 0.14463463
0.12321231 0.1218281 -0.18881184 0.1486658 -0.11697387 -0.023008749 -0.0517747 -0.04831858
-0.34444395 -0.0776724 -0.17172384 -0.09887009 0.03608461 0.021101402 0.04670125 0.10074515
2.012109e-05 -0.07801354 -0.0034979854 -0.035513155 -0.23779596 -0.22610058 0.03785751 -0.023251245
0.1044175 0.19797377 0.100033894 -0.2738699 -0.017250376 -0.03257003 0.19923516 0.04727582
-0.14542931 -0.31246448 -0.06687998 0.059515465 0.20792149 -0.15039513 -0.32718733 -0.061762236

head.0.weight f4 [48, 3, 3, 3]
00000000: dd3b e3bc b756 79bd 2a52 4cbc 4012 fa3d
00000010: 390e b53c 3956 273e 93f8 553d e3d3 ce3d
00000020: 1349 2ebe c16a 363e cce0 37bd 214f 283e
00000030: 96ee 6cbd d2fc a7bc 0942 4a3c 54cc a73c
00000040: 2bb6 d1bd d757 953d faf8 f33d 0fc0 cdbd
00000050: 8f84 3cbe 349b 8c3d 23b1 07be 426d 1b3e
00000060: 5cff 463d a0e7 26be 5b0f c7bd 69ab 79bd
00000070: 3d71 94bb c57b 33be 33cb 4c3e 817e 473e
00000080: c3f8 d7bd 3e56 f43d c5c2 72bc 8c1b 413e
00000090: 52af 72bc 1c6b 113e 2a4d 373c 8711 88bd
000000a0: 68c3 3abd cfa8 0f3e 8ae1 113d 99c6 163d
000000b0: 1b03 bc3d 1c40 eabd 4a49 1dbe a613 9abd
000000c0: ea5d fdbd 1b61 48be 2893 febb c6e1 cbbd
000000d0: aa79 54bc d27c 8fbd 257a ae3d 2e81 1cbe
000000e0: 695e c63d 1c68 06be 4176 243e 5901 de3c
000000f0: 2b1e 763d 2a09 173e 1a54 8cbc 92a2 303e
00000100: 96c6 84bd f998 353e 9703 e2bd 27df d7bc
00000110: 58c3 0dbe 3018 3b3e ce7e 0fbe 44dc d83d
00000120: 93c2 bdbd 098c bf3c de94 043e d535 c13d
00000130: cd57 ab3d 7c0e d43d 38bb 103e 4afa 023e
00000140: e544 b9bd 207d 253e 69b8 203d ee1c b53d
00000150: b11b 093e 3f1d a7bd 30c5 b0bc 1589 ee3d
00000160: 26af 15be 1853 c03d 54c1 08be d93d c4bd
00000170: 8573 8d3d 3591 dd3d adf3 3d3e ba0a 333e
00000180: e5cf 2abe 53c8 cb3c b66f 90bd 3331 e63d
00000190: 68c3 d7bd 3dc6 17be 90b0 25be 0cfb 24be
000001a0: e214 3cbd 8a79 babd 5836 85bd 4fc4 f9bd
000001b0: daf9 83bd cd3d cfbd 34b7 afbd 3f5e 13be
000001c0: 4598 ad3d bdd6 2b3e 290d 713d ed4b c93d
000001d0: 74e1 bcbd 954e 9bbd 6100 bc3d ae21 303c
000001e0: 10fe 1cbe ea7c 7bbd ae1c ca3d 0da0 653d
000001f0: 5333 233e a48b 873d c8d3 7c3c 0b9a ca3d
00000200: 6c30 a3bd 5018 08be 12eb ec3d 85f4 2cbe
00000210: 0e9f 3a3e e92b 0d3d f1a7 3cbe cbca ce3d
00000220: 5661 e8bd d357 6c3d d8d9 a13b e514 7e3d
00000230: e052 7f3d 0d17 a53d 91f4 6ebc 09cc 46be
00000240: eb55 903b c1fe d7bd 32de ae3d f720 0dbe
00000250: af0e a93d fc20 a63d 0922 f6bd d070 333e
00000260: 107e 16be a605 a73d 854e ff3d 472e a7bd
00000270: d1f2 a93c aa8f 3bbe 1861 34bd 3d51 863d
00000280: 64d1 aebd 7e2b 123e 4fcc 313d 20d0 313e
00000290: e93b 353a ceeb 363e dc03 653c 5d9c 24be
000002a0: 8ac5 d53c daa2 1bbe 8b33 59bd 1985 19bd
000002b0: be05 ef3c 088b 3a3e b188 ce3d d665 97bd
000002c0: 2bbd 9b3d 29df 8d3c 672e 87bd cde4 a0bd
000002d0: df39 1c3d 1d2e 25be 2cb3 4dbd 6241 84bd
000002e0: 3d98 3c3e f4cf 55bd 0e17 a7bd 9527 e1bd
000002f0: 21d8 963d 9183 37be 6bb1 b7bd d966 243c
00000300: 23e6 d73d 8122 163e b9d3 16be f8a3 30be
00000310: be3e b83c 53b6 4a3e 00b5 2a3e 2853 213b
00000320: b385 c3bd bbd2 bcbd 3a21 f53d 51c4 3cbc
00000330: 459a da3d 334a 55bc a128 e4bd f61d 433e
00000340: b37b 11be dedc 94bd 6c17 3b3e cb90 49bd
00000350: 332d 4ebd 2e12 e4bd 5a31 11be aba6 f6bd
00000360: f6df dfbc b0fe 32be 6806 293d d438 543d
00000370: 231a 34be dd7e e53c 7251 8abd 3c20 ad3d
00000380: cceb eebc 8b97 ddbd 509b 0ebe f2f6 16bd
00000390: 2d72 eb3d 7eef 0d3e 007f c5bb 6e80 cb3b
000003a0: ca0d 463e 1386 81bb ff05 1fbe 26d1 ed3d
000003b0: 0859 ef3d ea54 1f3e 8ed3 bfbc fa6b 11be
000003c0: 5760 3f3e e1eb 7e3a 6627 0fbe 0a1c e43d
000003d0: 9648 cebd 9d3f 94bb b5f5 d53d 7ba6 38be
000003e0: 8da4 22ba 5ae3 973d 20f5 cdbc fe56 cfbd
000003f0: 11fc b73d 904c 8ebd 70e4 dfbd daa5 39be
-0.027738506 -0.060873713 -0.012470761 0.12210512 0.022101508 0.16341485 0.052239012 0.10099008
-0.17020063 0.17814161 -0.044892117 0.16436435 -0.05784472 -0.020506296 0.012344846 0.020483173
-0.10239824 0.07292145 0.11912723 -0.10046398 -0.18409942 0.0686554 -0.13251166 0.15178397
0.048583373 -0.16299295 -0.09719726 -0.060954485 -0.0045301006 -0.17527683 0.1999939 0.19481851
-0.105454944 0.11930512 -0.0148169445 0.18858165 -0.014812307 0.14201015 0.011187831 -0.06643968
-0.04559651 0.14029239 0.03561548 0.03681049 0.0918028 -0.11438009 -0.15359989 -0.07523279
-0.12371428 -0.19568293 -0.0077690072 -0.09955172 -0.01296846 -0.070062295 0.08519391 -0.15283653
0.09685976 -0.13125652 0.16060735 0.027100252 0.060087364 0.1474959 -0.017129947 0.17249516
-0.0648319 0.17734136 -0.11035841 -0.026351525 -0.13844049 0.18270946 -0.14013216 0.10588887
-0.09265628 0.023382204 0.12947413 0.09434096 0.08366356 0.10354325 0.14133918 0.1279079
-0.09046344 0.16161013 0.039238367 0.088434085 0.1338947 -0.08159875 -0.021578401 0.1164724
-0.14617595 0.09390849 -0.13354999 -0.09582109 0.06906799 0.10818712 0.18549986 0.1748456
-0.16680868 0.024875795 -0.07052557 0.11239853 -0.10535318 -0.14821716 -0.16180634 -0.16111392
-0.045918353 -0.09105213 -0.06504506 -0.12195646 -0.0644414 -0.101192094 -0.08579865 -0.14391421
0.08476309 0.16781135 0.05885044 0.09828935 -0.09222689 -0.07583348 0.0917976 0.010750217
-0.15331292 -0.061398424 0.098687515 0.05606084 0.15937547 0.06618431 0.015431352 0.098926626
-0.0796822 -0.13290524 0.115682736 -0.16890152 0.18224737 0.034465704 -0.1842344 0.100972734
-0.1134669 0.057700943 0.004939299 0.062031645 0.062334895 0.08061037 -0.014584676 -0.1941377
0.0044047735 -0.10546637 0.08538474 -0.13782106 0.08254754 0.0811176 -0.120182104 0.17523503
-0.14696527 0.08155374 0.12466148 -0.081631236 0.020745667 -0.18316522 -0.04403791 0.06558464
-0.08536032 0.14274403 0.043407734 0.1736455 0.00069135294 0.1786339 0.013977971 -0.16075273
0.02609517 -0.15198842 -0.05302767 -0.037480447 0.029177543 0.18217099 0.100846656 -0.073924705
0.0760444 0.017318325 -0.066006474 -0.0785614 0.038141128 -0.16130872 -0.0502197 -0.06457783
0.1841745 -0.052200273 -0.08158694 -0.10993878 0.07365442 -0.17921282 -0.08969387 0.010034286
0.10541942 0.146616 -0.14729203 -0.17250049 0.022490855 0.19796114 0.16670609 0.0024616215
-0.095469855 -0.09219881 0.11969228 -0.011521415 0.10673956 -0.013018179 -0.11140562 0.19054398
-0.14207344 -0.072686896 0.18270653 -0.04921035 -0.050336074 -0.1113628 -0.14178982 -0.12043508
-0.027328473 -0.17479968 0.041265875 0.051812008 -0.17588095 0.028014595 -0.06753816 0.08453414
-0.029165171 -0.1081992 -0.13926435 -0.0368566 0.11496387 0.1386089 -0.0060271025 0.0062103784
0.19341198 -0.0039527505 -0.15529631 0.116121575 0.11686903 0.15559736 -0.023416307 -0.14201346
0.18689094 0.000972448 -0.13979873 0.111381605 -0.100724384 -0.004524185 0.104472555 -0.18032257
-0.00062043295 0.07416411 -0.025141299 -0.10124014 0.08983625 -0.06948197 -0.10932243 -0.18129674

head.0.bias f4 [48]
00000000: b024 6a3d 66c3 a83d 93c6 6ebd 81da 3bbd
00000010: dd5f b13c d414 44bf bcb4 143f 6e37 40bd
00000020: 3c0e 05be 8264 dd3e 7f5d 4fbd 42cd 47bd
00000030: 07b8 f53c f8cb 1c3e 7a2d 063c fb3f 1bbe
00000040: 44e0 13be 04bc a1bd 66f2 39be 5c31 fd3d
00000050: 9c96 cdbd 896a b23d f168 42be 9a99 afbf
00000060: 9f79 033e b136 30be 789f c9bd a1fb debe
00000070: d62f b1bd be14 523c a388 073e 4a27 643c
00000080: 23c1 a63d ec98 a03e 7e6a 203d 2884 14bd
00000090: ba33 1f3e 59a8 11bd 6ba6 29be 12c6 58be
000000a0: 89af 0cbf d3d6 78bd ed24 1cbd d7e4 b6ba
000000b0: 5124 f63c e556 913e 584c 31bc f04c 6dbd
0.057163894 0.08240394 -0.058294844 -0.04586268 0.021652156 -0.7659428 0.5808828 -0.046927862
-0.12993711 0.43240744 -0.050626274 -0.048779733 0.029994978 0.15312183 0.008189553 -0.15161125
-0.1444102 -0.07897189 -0.18158874 0.1236293 -0.10038492 0.08711726 -0.18985344 -1.371875
0.12839364 -0.17208363 -0.098448694 -0.43551353 -0.08651702 0.012822328 0.13235717 0.013925383
0.08142307 0.3136667 0.03916406 -0.036258847 0.15547076 -0.03556094 -0.1656739 -0.21169308
-0.54955345 -0.060751747 -0.038121153 -0.0013953698 0.030046614 0.28386608 -0.010821424 -0.0579347

head.1.weight f4 [48, 48, 3, 3]
00000000: 85d6 b43c 48ad 27bd 8e7b b2bc cbf3 5b3d
00000010: 0d81 4d3c c1c6 3dbc a5f1 d0bb 96ca 043c
00000020: 8911 263d c2c5 fe3c 97fd 543b 3822 e73c
00000030: 37f3 4dbc eb91 10bd 28f6 b8bc 22da a9bb
00000040: 7f5a fdbc 9b6c 17bc 33b8 3e3d 6e95 5d3b
00000050: a0b7 da3c 9575 453c abd3 39bb 9877 af3c
00000060: bd91 b73c f35b 25bc 07dc 8c3c f686 083d
00000070: 0986 ff3c dd4d 043d af3b 163c 0a62 853c
00000080: c0ce e63b 4c62 c2bc 49b8 f4bc 044f 87bb
00000090: f825 183c c274 a13c 525c 4f3c f60f 7f3c
000000a0: 98a3 f13b 9856 a9bc ce1b 11bb 8809 2f3a
000000b0: a830 0bbd c875 ebbc 5f01 b7bc 000b a73c
000000c0: baef 4bbc 99e9 a2bb 02ff 1d3c 922b 2f3d
000000d0: 9813 22bd d5c0 053d 7037 a33c 58da 673c
000000e0: 0dca 86bb a661 fe3c efde 7e3c 50a3 bf39
000000f0: 3f92 f2bc db79 c2bc 66fc a5bc f909 803c
00000100: dc97 9cbc 8a1d 72bb 097b 0b3d d2a7 3bbb
00000110: 0954 40bd 326e 08bd d554 36bd 7383 053c
00000120: 1004 f5bb b255 debc 39f6 c33b 094a e33c
00000130: 0158 1c3c c5cd f63c 486a 083d 4e92 67bc
00000140: 6f01 11bd cda7 d53b ac94 963c f4ca ae3b
00000150: 69fb b43c 6922 0f3c f47e eabc c862 0ebc
00000160: a0ef 333c 62f5 1bbd be57 77bc 3dfd 9e3c
00000170: 3115 803c 7af9 973c 4746 19bd 3517 373b
00000180: 6476 d7bc d096 efbc 0af6 1cbc d726 903b
00000190: 14a9 f43c 7d71 1d3c e4e8 2a3c 6bb7 203d
000001a0: 3069 5f3d ef32 97bc 4637 723c 1164 513d
000001b0: 798d 14bd 1a91 a33c e0fe a63c 61df 1cbd
000001c0: 5346 5a3d 2a9d c43c fac4 f5bc f416 c4bb
000001d0: 389c ce3b 3984 573a 7a6f 6f3c 7d77 49bc
000001e0: 9174 00bb a0bb 473d 9aae 78bd 6f08 b63c
000001f0: 780d eabc c158 e53a c150 0e3d 9a97 b33b
00000200: c39a 7cbd fee9 a03d b2ec 1d3d ec1f e73a
00000210: 46e8 ba3b 0261 42bc 6bde 683d 060d 4c3d
00000220: c1b4 233d a532 813a 2f2f d3bc 288b 1c3c
00000230: 449e dbbc 0d7b 08bd d0ed 1abc 392d a03c
00000240: bf3f bc3c 697b 9cbc 7b57 2abd b5de 333d
00000250: da24 253d 4954 e53b 54fa 343d 4114 ff3c
00000260: 979b cb3c 4f2b d63a 9fb0 113d 3632 3e3d
00000270: e2e8 e7bc 70c0 393d 3c90 07bd c49e 2c3d
00000280: 47ef 2d3d 755a 823c e58d 20bd 63dd 38bc
00000290: 3574 b53b 6aef 36bd 81e8 a93c 32e0 663b
000002a0: fe44 1cbd ef90 163d 6afc 033a 5396 3abc
000002b0: f511 9bbc bd0c 4b3c ed6a c13b 4d42 893c
000002c0: 494d 823c df78 e83c b210 34bd 610a 9e3b
000002d0: 5cf2 283c 794b 70bc ce25 f53c e93b bbbc
000002e0: d050 523d f004 8bbc 94c4 b8bc f02d b6bc
000002f0: 2854 31bc 3cd4 1e3d 186f 023d a4d2 e03c
00000300: 6408 f53c 8187 a7bc b7ea 493d 9e1e febc
00000310: b5a7 e53c f4f7 f63c 5f77 073d 4997 ebbb
00000320: 8c4d b73c 2e7f c6bc 80c4 c7bc f35e 073d
00000330: 6860 663d 95ef e93c 49a9 353d 92ce f7bc
00000340: 3c2b f5bc c3a3 a3bc 0da4 0b3d 0321 8ebc
00000350: ec89 103c 7277 1d3d 5cba 0d3c 55cc 37bb
00000360: 0851 c6bc cafc af3c d3b7 50bb 21ae 37bc
00000370: 854c c5ba aae0 e93c c3c2 ba3c 44a1 d03c
00000380: aa9e e43b 146c 8a3c ba13 e4bc 27aa 043d
00000390: 33a0 4dbd 95f0 03bd 17f2 173d 16c2 2bbd
000003a0: a33e 023d a2b2 e63c 21c5 bdbc 6946 a13c
000003b0: 909b 203d a281 bb3c 96e4 213c 2c72 463c
000003c0: c755 003d 7f7b 433c 9410 c2bb 0218 87bc
000003d0: 1ad9 2fbc 0f8a 7dbc ee14 293c 7536 61bc
000003e0: b054 d03c ad17 f03b 3f6d 05bd 8e79 e53c
000003f0: 7419 0338 bce0 b43b 1e57 2b3d ea1d 5e3c
0.022074947 -0.04093674 -0.021787431 0.053699296 0.012542975 -0.011583031 -0.0063764625 0.008104941
0.040544067 0.031100158 0.0032499784 0.028214559 -0.012570194 -0.03529541 -0.022578314 -0.005183474
-0.030926941 -0.009242202 0.046562385 0.003381099 0.026698887 0.0120519595 -0.0028354924 0.021419331
0.02240836 -0.010092723 0.017194761 0.033331834 0.031191843 0.03230082 0.009169503 0.0162821
0.0070436895 -0.023728512 -0.02987303 -0.0041292924 0.009286396 0.019708995 0.012656288 0.01556777
0.007374238 -0.020671174 -0.0022141817 0.00066771405 -0.03398195 -0.028742686 -0.022339521 0.020390987
-0.012447292 -0.0049716947 0.009643318 0.04276616 -0.039569467 0.032654602 0.019923896 0.014151178
-0.004113442 0.031052422 0.015556081 0.00036552036 -0.029610751 -0.023739746 -0.020261955 0.015629755
-0.019115381 -0.0036943876 0.034052882 -0.0028633964 -0.046955142 -0.033308215 -0.044514496 0.008149016
-0.007477291 -0.027140472 0.0059802798 0.027745264 0.009542466 0.030127415 0.033304483 -0.014134003
-0.035401758 0.0065202476 0.01838144 0.0053342525 0.022092538 0.008736231 -0.02862499 -0.0086905435
0.010982424 -0.038075812 -0.015096603 0.019407863 0.015635105 0.018551577 -0.037420537 0.0027937416
-0.02630157 -0.029246718 -0.009580145 0.0043991613 0.029865779 0.009609577 0.010431502 0.03923742
0.054543674 -0.018456904 0.014783686 0.05112082 -0.03626773 0.01996665 0.020385206 -0.03829897
0.053289723 0.024000723 -0.030001152 -0.0059841815 0.006305244 0.0008221302 0.01461398 -0.012296555
-0.001960073 0.048762918 -0.060713388 0.022220818 -0.028570876 0.0017497764 0.03474498 0.005480719
-0.06167103 0.078571305 0.03855581 0.0017633415 0.0057039587 -0.011863949 0.05685274 0.049817108
0.039967302 0.0009857012 -0.025779335 0.009554662 -0.026808865 -0.033320475 -0.009456113 0.019552814
0.022979615 -0.019101815 -0.041587334 0.04391356 0.040318348 0.006998573 0.044184044 0.031137588
0.024854464 0.0016339811 0.03556883 0.046434604 -0.02830929 0.04534954 -0.033096537 0.0421436
0.04246452 0.015912274 -0.03919782 -0.011283251 0.0055375346 -0.044661917 0.02074075 0.0035228846
-0.038151734 0.036759313 0.0005034866 -0.011388379 -0.018929461 0.012393174 0.005902639 0.016755247
0.015905993 0.028377948 -0.043961234 0.0048230146 0.010311689 -0.014666432 0.029925253 -0.022855716
0.0513466 -0.016970128 -0.022554673 -0.022238702 -0.010823287 0.03877662 0.03184423 0.027444191
0.029911228 -0.020450355 0.049296107 -0.031020459 0.02803407 0.03014753 0.033072826 -0.0071896655
0.022375844 -0.024230566 -0.02438569 0.033049535 0.056244284 0.028556624 0.044350896 -0.030249868
-0.029927842 -0.019975549 0.034091998 -0.017349726 0.008821946 0.03844399 0.008650389 -0.0028045375
-0.02420856 0.021482844 -0.003184785 -0.011210949 -0.0015052712 0.028549511 0.022797948 0.025467522
0.006976922 0.016897239 -0.027841438 0.032388832 -0.050201606 -0.03221186 0.03709611 -0.04193314
0.031798016 0.02816135 -0.023165287 0.019686894 0.039210856 0.022888962 0.009881159 0.012112182
0.031331804 0.011931299 -0.0059223864 -0.01649094 -0.010732913 -0.01547481 0.010319931 -0.013745894
0.025431007 0.007327041 -0.03257489 0.028012063 3.125654e-05 0.0055199545 0.04183113 0.013556937

head.1.bias f4 [48]
00000000: 11a8 85bb d690 803e 5906 8bbf 0631 ad3c
00000010: 6a17 1b3d d9e2 bd3e 99bc 3f3e bd8f 303d
00000020: dbf4 3d3e 6059 64bd 9e8d 0ebf b370 123e
00000030: 6c36 7bbf 5950 98be b8f7 97bc 253a 8dbd
00000040: 2deb 80bd 8476 41bf afe9 89bd 8785 1abf
00000050: a244 c1be 410a eb3d 1c41 09bf 41a8 bf3f
00000060: 9943 3dbe 853f 9f3c 77f5 11bd 5a43 0c3f
00000070: ba88 043e ec26 e3be ac34 973c 795a 5dbe
00000080: db46 263e 8c03 0cbe 3a0c ba3e 8088 b0bc
00000090: 7172 78be c675 a7be effd 493f 28be 74bd
000000a0: 61c8 123e f800 853d e57d 2dbe e842 6dbd
000000b0: b0da d63c 169a 28bc 4765 2dbf 19b5 d2bc
-0.004078873 0.251105 -1.0861312 0.02114154 0.037864126 0.37087134 0.18724288 0.04310583
0.18550436 -0.055749297 -0.5568484 0.14300804 -0.98129916 -0.297488 -0.018550739 -0.06895856
-0.06294856 -0.75571465 -0.06734025 -0.60359997 -0.37747675 0.11476565 -0.53614974 1.4973222
-0.18482818 0.019439468 -0.035634484 0.5479027 0.12942782 -0.44365633 0.018457733 -0.21616544
0.16237967 -0.13673228 0.36337453 -0.021549463 -0.24262406 -0.32707042 0.78903097 -0.05975166
0.14334251 0.064943254 -0.16942556 -0.057925135 0.026227325 -0.010290643 -0.6773266 -0.02572112

body.0.ca.conv_du.0.weight f4 [3, 48, 1, 1]
00000000: 00cd 2e3d b77d 49bd 3cec ff3d adb4 a03d
00000010: 09be 803d 603a e6bd e036 a3bd e834 07bd
00000020: b8be fa3d a07d 85bd e8a6 3fbe 4f20 48be
00000030: ffba d9bd 2a2d cfbd d842 18bd bed9 19be
00000040: 5f59 993d 6b0d 163d dc6e c83d 6cdd f3bc
00000050: 9f0b 25bd 6b1a bebd bc08 d13d 537a 89bd
00000060: fe68 413d e367 e4bd 94f7 223e 331f 203d
00000070: 36b1 f43d eb84 28bd 10e7 61bd f5df 813d
00000080: b5a5 b63d c583 043e f99c 313e 8cd0 e43d
00000090: 4b71 543d dfc8 1cbe 6a8c 4f3d 96b9 11be
000000a0: 02c1 00bd b7a5 cfbd d9da 1cbe b554 b43d
000000b0: 0d3e c8bd a1e9 3ebd 3660 f0bd a505 96bd
000000c0: 3b4e 673d 5335 803b f76b 52bd 42c7 323e
000000d0: c96f cc3c 5024 273e 5a58 04bd a36f 0bbe
000000e0: 397a 8bbd 5109 923d 764e 44bd 121c 53be
000000f0: 2958 b3bc 9092 70bd 89dd 06bd bf5b cbbd
00000100: bdea cd3d 350d d0bd fc26 4d3e 5cd3 8f3d
00000110: 1dfc 9dbd 6f12 d9bb 510e dd3d f147 0ebd
00000120: b693 3cbd 620f 473d 5749 4abd 62d8 bfbb
00000130: ccb8 bb3d b192 a23d 91b8 853d e2e5 88bc
00000140: 82a8 ffbb d8cc 18be 41a6 d1bc 3747 e43d
00000150: 9b22 77bb 2f29 45be 7228 15be 3015 1f3e
00000160: 1967 933d 5d21 1dbe cd91 3ebe ff6e 7a3d
00000170: 0ec4 3abd 769a c3bd 63ce 303c 4037 5bbd
00000180: ee41 50b9 b4c3 523d 4d88 123d 9386 ec3c
00000190: e9cd 57bd 6261 78bd 2c72 a3bc bf5d c9bd
000001a0: 7681 ffbd a8e8 e5bc 6dee a63d cbd8 483d
000001b0: 8eab 30bd 0337 85ba 4eae 08bb 2d65 65bd
000001c0: 21f5 14bd 3b22 043e 53a8 873c ebf2 23bd
000001d0: e5c3 f03d a0c9 463d 8b92 3e3e f882 52bd
000001e0: 4f96 573e 0b96 98bd b17c 933c 1b91 083e
000001f0: 2258 17be 5c95 34be 18ab 303d 6392 7bbc
00000200: 204f 0dbe b6dd 9e3d 2fce 3bbd d65d 8d3b
00000210: 2e16 d9bd 754f 0d3d ccd5 553d 1046 d63d
00000220: c922 c5bd 7ff1 10be 54e6 333e f391 ba3d
00000230: 8553 e73d 5daf 8fbc b14f 16be 9caf 843b
0.042675972 -0.049192157 0.1249623 0.07846961 0.06286246 -0.11241603 -0.07969451 -0.03300944
0.12243408 -0.06518102 -0.18716013 -0.19543575 -0.1063137 -0.10116036 -0.037173122 -0.15024468
0.07487749 0.03663389 0.0978677 -0.029768668 -0.040294286 -0.092823826 0.10206744 -0.067127846
0.04721927 -0.11152627 0.15914756 0.039092254 0.11947863 -0.041142385 -0.055152 0.063415445
0.08918325 0.12940891 0.17345037 0.1117259 0.051865857 -0.15311001 0.05067102 -0.14230952
-0.031434067 -0.101390295 -0.15317859 0.08805219 -0.0977746 -0.046609525 -0.11737101 -0.07325295
0.05647109 0.0039126067 -0.051372495 0.17458823 0.024955647 0.16322446 -0.03231082 -0.13616805
-0.068104215 0.07130683 -0.04792639 -0.20616177 -0.021892624 -0.058733523 -0.032926116 -0.099296086
0.100545384 -0.10158769 0.20034403 0.070227355 -0.077141024 -0.006624512 0.10793746 -0.034736577
-0.046039306 0.048598655 -0.04938635 -0.0058546523 0.091661066 0.079381354 0.06529344 -0.01671118
-0.00780207 -0.14921892 -0.025591971 0.11146396 -0.0037709835 -0.19253992 -0.1456621 0.15535426
0.07197399 -0.15344758 -0.18610306 0.06114101 -0.04559713 -0.095509455 0.010791394 -0.053519487
-0.00019860987 0.05145617 0.035774518 0.028872764 -0.052686606 -0.060639746 -0.019951902 -0.09832334
-0.124758646 -0.02806504 0.08150945 0.049034875 -0.043132357 -0.001016349 -0.0020855847 -0.056004692
-0.036366586 0.12903683 0.016559755 -0.040026587 0.11756114 0.04853213 0.18610589 -0.051394433
0.21053432 -0.074504934 0.018003793 0.13336603 -0.14779714 -0.17635101 0.043131918 -0.0153547255
-0.13799715 0.07757132 -0.04585093 0.0043141646 -0.105999336 0.034499604 0.052205846 0.10462582
-0.09625775 -0.14154623 0.17568332 0.09109869 0.11295227 -0.017539674 -0.14678837 0.0040492546

body.0.ca.conv_du.0.bias f4 [3]
00000000: 096f 43bd 4f76 80bd 9aa0 5a3e
-0.047713313 -0.062725656 0.21350327
