e_model_files/e_model/eSR-TR_s3_K3_C4.pth (torch, 915128 bytes, 80 tensors)

layer.filter.weight f4 [324, 48, 3, 3]
000000 01 40 97 3c ed 25 f3 3b 90 6b 10 3c fa 86 ff 3b
       0.018463137 0.0074202926 0.008814707 0.007798073
000010 e8 63 72 3f 11 de 35 bb e7 e0 c1 bb da b3 1b ba
       0.94683695 -0.002775077 -0.005916703 -0.0005939581
000020 c1 f1 97 bc ec 7e 43 3b 27 9b b7 3d 98 31 30 3c
       -0.018547894 0.002983029 0.0896514 0.010754012
000030 19 48 11 3d 85 57 90 bd 39 5a f5 bc d6 b0 90 bc
       0.03546915 -0.07047943 -0.029950248 -0.017662447
000040 3e 32 ad bb 90 e5 22 bb 4e ba 3e bd 61 f6 52 bd
       -0.0052855304 -0.0024856068 -0.046564393 -0.051504496
000050 cb 5f 8d bc 48 eb cf 3c 7f a0 45 3d 35 70 94 3b
       -0.017257592 0.025380746 0.048248764 0.0045299777
000060 6c d0 36 bc 1f 2b 54 bb 12 e2 b8 3c a6 74 cb 3c
       -0.01115809 -0.0032374335 0.022568736 0.024835896
000070 30 40 28 3b 3c 03 13 3c aa cd ab 3d 47 3f 0a be
       0.0025673024 0.008972939 0.08388837 -0.13500701
000080 e4 d9 c6 bb a9 9e 30 bc 2d 69 24 bc 12 19 ed bb
       -0.006068455 -0.010780015 -0.0100348415 -0.0072356546
000090 ac c8 97 3c c1 6b a9 bb 83 79 d0 3c 7e bd 27 bd
       0.018528305 -0.005170316 0.025448566 -0.0409522
0000a0 66 4c 1f bd b5 87 9a 3b db 2a c1 3b 9c de 89 bb
       -0.03889122 0.0047158846 0.0058950013 -0.0042074453
0000b0 70 2f a6 bc a9 9c 39 3c ff 79 eb bc cc 90 ad bb
       -0.020286292 0.011328855 -0.028744696 -0.005296802
0000c0 81 b8 03 3d 42 79 cb 3c c7 d4 e0 3c a0 be 4f bc
       0.03215838 0.024838094 0.02744521 -0.012679726
0000d0 4c f2 89 3c 96 5b 3b bc ed e6 39 bc 42 23 d2 bc
       0.016839169 -0.01143541 -0.011346561 -0.025651578
0000e0 08 9d 54 3c bf b0 a5 bc 62 ad 6b bd 3a 36 74 bc
       0.012976892 -0.02022588 -0.057538398 -0.014905507
0000f0 fd 9d c0 bb 0a 94 c8 bb 30 de 98 3c 37 14 8b bc
       -0.0058782087 -0.0061211633 0.018660635 -0.016977413
000100 16 44 a5 bc ee 97 7d 3c 4b 53 f6 3c 69 99 e1 3b
       -0.020174067 0.015478117 0.030069014 0.006884743
000110 4e fa 57 3c af 10 cf 3c 2a eb 00 3c 2c 33 6d 3c
       0.013182236 0.02527651 0.0078685675 0.014477532
000120 ef c1 04 bc 9b db 3c bc 8f ff d1 3c c3 a3 f7 3c
       -0.008102878 -0.011526967 0.025634555 0.030229455
000130 73 69 dc bd c7 50 08 3b 06 d3 23 3d ef 0e 43 bb
       -0.107623 0.00208001 0.03999617 -0.002976354
000140 6b 51 a0 3b 98 14 3d 3c b2 3d 1c bd dd d2 92 3b
       0.0048925183 0.011540554 -0.038144775 0.0044807033
000150 ae b9 48 3d 5d 03 49 bc 04 99 ea bb 1e a8 35 3b
       0.049005203 -0.012268868 -0.007159354 0.0027718614
000160 63 39 ac 3b af 85 00 3d ca 97 3a 3d 03 3a 6e 3c
       0.0052558645 0.03137749 0.045554914 0.014540198
000170 ff ea d6 3b 7c dc 4f bc 8d 6f 4e bb a5 6e b1 bc
       0.0065587754 -0.012686845 -0.0031499595 -0.021659205
000180 c1 5a 20 3c 74 c2 15 bc f9 9d 2d bc 3f a2 8c 3c
       0.009787262 -0.0091405995 -0.010596746 0.017167209
000190 11 e0 aa bb d2 fc 39 bc 41 27 a3 bc 7c 5f 9e bb
       -0.005214699 -0.011351781 -0.019916179 -0.00483316
0001a0 37 d5 36 3b bb cb 42 3c a6 57 33 3c aa 83 34 3c
       0.0027898082 0.011889393 0.01094619 0.011017719
0001b0 03 de 34 bd c5 1c f7 bc 8e e3 50 3c 1b f7 bf 3c
       -0.04415704 -0.030165086 0.012749566 0.023433259
0001c0 c4 70 82 bc fa dd 25 3c 49 ca a8 bb 11 08 84 3c
       -0.015922911 0.010123724 -0.0051510674 0.016117128
0001d0 04 85 0e bc 08 81 42 3c 93 61 e3 3b 2b 0f 69 bc
       -0.008698706 0.011871584 0.006939122 -0.014224808
0001e0 28 72 45 bd 7a b4 2d 39 f4 ba 04 bd 77 ad bd 3b
       -0.04820457 0.00016565798 -0.032404855 0.005788501
0001f0 7a 44 85 bc 56 f3 71 3a a5 12 cd 3a d8 95 10 bd
       -0.016268004 0.000922968 0.0015645815 -0.035299152
000200 a3 d5 dd bb 33 cf b0 bb 00 3d 15 3d 81 4a b3 ba
       -0.0067698522 -0.005395794 0.036435127 -0.001367882
000210 8a 89 f5 bb a6 a2 11 3c 21 f3 36 bc 91 9b 73 bc
       -0.0074932026 0.008888876 -0.011166365 -0.014868633
000220 bf 9e ee bc 2a e6 91 bc c4 e0 58 bd 3f 63 0b bd
       -0.02912843 -0.017809946 -0.05294873 -0.034030195
000230 6d 77 3c b8 6b 74 19 bd 65 a6 9a ba d1 03 50 bc
       -4.4933917e-05 -0.03746454 -0.0011798857 -0.012696222
000240 9f 11 1e 3c 49 d2 eb bb 3a c6 03 3d 74 7c 27 bc
       0.009647756 -0.007196699 0.032171465 -0.010222543
000250 f4 da 02 bd 83 81 ba bc 4f 8d 88 bc de 61 29 3d
       -0.03194709 -0.022766834 -0.016668944 0.0413531
000260 ce b5 a6 ba 56 7e 6a 3b 1e f0 80 bd 39 c3 0d bd
       -0.0012718977 0.0035780868 -0.06295799 -0.034610007
000270 5c e1 7e 3d 23 06 15 3c 8c 02 2b bc 59 22 6a 3c
       0.06222664 0.009095701 -0.010437619 0.014290416
000280 4c 00 0a 3c 6f 3d a6 3c bc 9d 0e 3c 41 29 fa 3a
       0.008422922 0.020292966 0.008704599 0.0019085781
000290 04 e0 e1 3c 9a 8b 84 bc 33 7a f3 bd 26 c9 11 3d
       0.02757264 -0.016179848 -0.11888542 0.03559222
0002a0 e8 59 d6 3c 21 f4 a8 bc 4a 8b be 3b 21 8c 29 bc
       0.026165918 -0.020624222 0.0058149444 -0.010348351
0002b0 51 bf 4c 3d c3 2c 00 bd a9 71 47 bc f0 73 08 3d
       0.04998714 -0.031292688 -0.012173095 0.03331369
0002c0 89 f6 b2 bd 7a 57 a5 3c 62 58 15 3d e7 36 c5 bc
       -0.08738429 0.020183314 0.03646124 -0.024074031
0002d0 d8 2c b5 bc 36 23 41 bd f2 e5 66 3c ac b5 04 3d
       -0.02211611 -0.04715272 0.014092909 0.03239982
0002e0 54 18 63 3d 13 b0 96 3a e0 03 15 bb 27 49 6f bd
       0.055443123 0.0011496566 -0.0022737905 -0.058419373
0002f0 61 4e 94 bc ca c8 c6 bc b1 66 1b 3c 57 60 fc 3c
       -0.01810378 -0.024265666 0.009484933 0.030807657
000300 49 c5 98 bd 94 32 ca 3c 1e 1f 7c 3d 75 92 04 3b
       -0.07459504 0.02468232 0.061553113 0.0020228897
000310 2d d0 a8 bc af e5 40 3c f8 23 43 3b cd 79 92 3c
       -0.020607078 0.011773511 0.0029776078 0.017880345
000320 16 5b f1 bc e3 eb b4 bc 89 0a d1 3c b5 e4 25 3c
       -0.029462378 -0.022085136 0.025517719 0.010125329
000330 56 b1 95 bc 7c db c9 3c d4 ab dc bb 1a 2c f1 bc
       -0.018273037 0.024640791 -0.0067343507 -0.029439975
000340 42 b9 8c bd 77 30 5c bb 0f 69 59 bd 72 14 01 3d
       -0.068712726 -0.0033598223 -0.053078707 0.03151364
000350 2d 86 45 3d 55 b3 a2 3c 78 a0 40 3c de 96 a0 3c
       0.048223663 0.019860903 0.011757009 0.01960319
000360 3e d9 e3 3b 83 e9 d8 3b 9d 2f 26 bc 70 50 e3 3c
       0.0069533875 0.0066196336 -0.010143188 0.027748317
000370 81 54 72 bd e5 f9 a9 bb 1d 25 7e 3c be 62 ae bc
       -0.05916262 -0.0051872605 0.015511778 -0.021287318
000380 6a e6 02 bb 4f 49 57 3d 4d 06 d8 bc 2d d9 21 bc
       -0.0019973763 0.052560147 -0.026370192 -0.009878439
000390 59 0d a1 3c eb 20 41 bd 8b bd d3 bb 53 5a f9 38
       0.019659685 -0.047150534 -0.0064618043 0.000118900694
0003a0 e3 38 f0 3b 0d 48 2c 3c 90 c3 45 3a e8 34 c9 bd
       0.007331 0.010515225 0.00075440947 -0.09824544
0003b0 6c ce 63 bc 9a 14 d2 bc 2e 1d 5c bd d8 8e 73 3c
       -0.013904195 -0.02564459 -0.053738765 0.0148656
0003c0 86 0a 21 bc 85 8c 51 bd d9 24 af bc ff 08 c3 3c
       -0.009829169 -0.0511594 -0.021379875 0.023808
0003d0 42 e7 d8 3b 9c de 5e bc e3 7e 30 3d ea 47 a3 3b
       0.006619365 -0.013602879 0.04308976 0.004982938
0003e0 9b 5b 44 3c 19 f8 33 bb 9d 37 16 bd 4f f8 b1 3b
       0.011984731 -0.002746111 -0.03667413 0.005431212
0003f0 bc d7 e3 bb 43 51 1f bd fa 49 10 bc 16 59 4e 3d
       -0.006953208 -0.038895857 -0.0088067 0.050377928

rca.ca.conv_du.0.weight f4 [3, 48, 1, 1]
000000 b2 b9 df bc af f0 ad 3d 49 cc 02 be 3b 8b c5 3b
       -0.027310226 0.084931724 -0.12773241 0.0060285605
000010 26 90 c1 3d 9d 97 95 bd 2c 81 e5 bd 3b 2c e9 3d
       0.09451322 -0.073043086 -0.11206278 0.113853894
000020 2e 31 17 bd 0c c0 ed bd 8b 07 21 3c 58 fe 20 3e
       -0.036912136 -0.11608896 0.009828459 0.15722024
000030 df 9f 35 3d d5 08 08 3c 91 7f ad bd 19 b5 84 bc
       0.044341918 0.008302887 -0.08471597 -0.016199635
000040 0d 1b e8 bd 6d ea 9d bd 09 bd ad bd b7 a3 0f bd
       -0.113332845 -0.07710729 -0.08483321 -0.03506824
000050 60 82 b4 3d 6b e9 50 bc 02 3c 9b 3c 18 05 bd bb
       0.088139296 -0.012750964 0.018949512 -0.0057684295
000060 65 4d 35 3c a2 dc 11 3e 5a e9 a6 3d 27 c1 6e 3c
       0.011065816 0.14244321 0.08149977 0.014572418
000070 c9 a0 ce 3d 1b ba c4 3c c8 67 4d 3d 1c 46 69 bd
       0.10089261 0.024014523 0.0501478 -0.056951627
000080 27 8e 70 bd 2f 84 4b bd f1 68 17 bc 54 01 dd bd
       -0.058729317 -0.049686607 -0.009241329 -0.10791269
000090 5b 5e 3a be 06 70 19 be 5e 6b 82 3d 0e 44 ae bd
       -0.18200056 -0.1498414 0.06368135 -0.08509074
0000a0 20 49 58 bd 6f 9c 18 3e 46 73 a2 3d b8 2e 11 be
       -0.052804112 0.14903425 0.07932143 -0.14177978
0000b0 a6 c9 98 bd 5a 39 07 3e c4 c4 c3 bd 90 fb 81 bc
       -0.074603364 0.13205472 -0.095590144 -0.015867025
0000c0 0d de 1f 3e a1 eb b5 ba 81 81 9e 3d 7c c0 4c 3d
       0.1561205 -0.0013879427 0.07739545 0.049988255
0000d0 83 8a fd bd 2b f7 8e bd b2 80 95 3c ff 85 a3 bd
       -0.12379935 -0.06980737 0.018249843 -0.07984542
0000e0 d3 8c b7 3d a0 fb ad bd b7 66 9e bd 01 31 00 3d
       0.08962407 -0.08495259 -0.07734435 0.031296734
0000f0 88 08 97 3d c8 e7 e7 bc 19 46 1c ba fb 5f a5 bd
       0.07374674 -0.028308764 -0.0005961373 -0.080749474
000100 ff a5 df bd 62 d4 21 3d e4 74 02 3c 12 bb aa 3b
       -0.10920333 0.039509185 0.007962439 0.005210289
000110 47 b7 16 3e 6f c5 92 bd 6c 4f 02 be 5f 4b f0 3c
       0.14718352 -0.07166564 -0.1272561 0.029332815
000120 3a c1 e7 bd af d9 e3 bd a8 03 33 3e 31 d6 16 be
       -0.11316152 -0.11125504 0.17481863 -0.14730145
000130 c5 46 3c be ca 83 84 3d b2 9e 53 be 97 2a 34 bd
       -0.18386371 0.06470449 -0.20666006 -0.04398593
000140 6d 5f 9e bc e1 59 93 3d 1e cb 4a bd 47 c5 c0 3d
       -0.019332612 0.071948774 -0.049510114 0.09412628
000150 b9 24 b6 3d 85 7b f2 bc f9 f5 b5 3d 14 bd a3 bd
       0.08893723 -0.029599914 0.08884806 -0.07995048
000160 83 f0 ce 3d b2 77 89 bd b9 64 77 3d 1e 22 6a bc
       0.10104468 -0.06712283 0.06039879 -0.014290361
000170 ad 04 6d 3e 66 1b dd bd 03 55 67 bc 7e da 06 3e
       0.23146315 -0.107962415 -0.0141193895 0.13169286
000180 e1 a9 57 3b 10 5e d4 3d 3f 1b aa bd 87 d9 07 bd
       0.0032907652 0.103695035 -0.08305978 -0.033166435
000190 cd 81 d7 bd 7a ed 2a bc 4c 50 fa 3a 2b e3 18 3d
       -0.105228044 -0.010432595 0.0019097417 0.03732602
0001a0 89 9a 61 3d 4f 96 7b 3c eb c9 3a bc 3a a4 de 3c
       0.055079017 0.015355661 -0.01140068 0.027177919
0001b0 c7 b5 91 bc 70 82 cf 3c e7 e1 95 3d 26 ea 57 3e
       -0.017786874 0.025330752 0.07318478 0.21085414
0001c0 80 87 95 3d cb 07 b8 3d 07 6d b7 bd 1d d8 42 bd
       0.07301235 0.089858614 -0.08956342 -0.047569383
0001d0 37 fc 01 be 05 d8 76 bd dd f1 78 3d 07 df df 3d
       -0.12693869 -0.060264606 0.060777534 0.10931211
0001e0 34 ee b9 bd 7d 9c a4 3d cc 98 3b bc 72 ca f5 3d
       -0.09078637 0.0803766 -0.011450004 0.12001504
0001f0 3f de 42 3d 98 8e 39 3d 8a 5e b1 3d 5a 12 d8 bd
       0.04757523 0.045302004 0.0866061 -0.10550375
000200 e0 a2 02 3d 31 95 1d bd ed 31 1e bd 59 b7 00 3e
       0.03189361 -0.03847236 -0.03862183 0.12569942
000210 12 76 2c 3e 82 a1 1f 3d b7 26 ae 3d c7 b9 89 3d
       0.16841915 0.038972385 0.08503478 0.06724887
000220 77 9e 4f 3d af c1 9e bc a5 1d f8 3c 80 6e 2d 3d
       0.050688233 -0.019379465 0.030287573 0.04234171
000230 9d 48 19 be bb 1d 83 bd 4a 58 39 3d 28 4d ba bd
       -0.14969106 -0.06402155 0.045250215 -0.09096748

rca.ca.conv_du.0.bias f4 [3]
000000 97 45 88 3e b2 48 0b 3f 98 b5 32 be
       0.26615593 0.544078 -0.17452085

rca.ca.conv_du.2.weight f4 [48, 3, 1, 1]
000000 90 38 16 bd 78 aa 20 be 4a c4 23 bd 34 24 96 3d
       -0.036675036 -0.15690029 -0.039982118 0.07331124
000010 97 6d d8 3e 8d c9 b2 3e 69 dc 5c bd 5c 44 db be
       0.4227111 0.34919396 -0.053921137 -0.42825592
000020 cd 11 09 be ef ad 3e bd 6d 7c 38 be 0d ff 6f 3e
       -0.13385697 -0.046552595 -0.18016215 0.23437138
000030 49 ce ed 3e 79 a7 d9 3e 1e 1e dd bd 64 94 08 bf
       0.46446446 0.42510584 -0.1079676 -0.53351426
000040 22 20 d3 3d ad 39 4a 3e d8 ed 03 bf 87 83 91 3d
       0.10308863 0.19748564 -0.51534796 0.07105165
000050 94 f1 34 be 78 6f cd be 8c 66 12 3f 74 d3 4e bd
       -0.1767028 -0.40124106 0.57187724 -0.050494626
000060 10 12 f3 3e fd a8 72 be 50 05 a0 3b 36 a1 88 3e
       0.47474718 -0.23697276 0.004883446 0.26685494
000070 5b 75 16 3e 88 5d c7 3c 96 f9 f2 be 4f 37 10 3e
       0.14693205 0.024336591 -0.47456044 0.14083599
000080 ef 20 0d 3f 9d 0f 29 bd cc db a7 3e 83 e2 62 3e
       0.5512838 -0.041274656 0.3278488 0.2215672
000090 64 d9 1c be d0 d8 c6 3d 2f 96 33 bd 12 cd ce 3e
       -0.15317303 0.097093225 -0.043844398 0.4039083
0000a0 1b d9 c6 be b1 a7 1a 3d e5 9d cf 3d 93 4f f6 be
       -0.38837513 0.03775758 0.10137538 -0.48107585
0000b0 b6 d4 90 3e 0b 8e 43 3e 43 a1 80 3d 9d bc e2 3d
       0.28287286 0.19097154 0.06280758 0.110711314
0000c0 de d1 b3 3e a1 2b 88 be 8f 67 f6 bd 15 04 b1 3e
       0.35121053 -0.26595786 -0.12031471 0.34573427
0000d0 00 d7 b0 bc 59 a9 40 3e eb 33 24 bd bf f7 99 be
       -0.021586895 0.18814601 -0.040088575 -0.30071828
0000e0 86 61 57 3d a7 16 9a be 3e 93 e5 3e 2d 04 7c 3e
       0.05258324 -0.30095407 0.448389 0.24610968
0000f0 51 a1 10 3f ee 62 12 bf 63 fd cc be 5c 40 d1 bc
       0.5649615 -0.57182205 -0.4003707 -0.025543384
000100 a3 76 7d bd d7 c4 9e bd 21 25 d0 bc 20 5f 1a bd
       -0.06188072 -0.07752388 -0.02540833 -0.037688375
000110 2c f9 a2 3d af df a1 be 40 57 d8 3e 4b b5 27 3e
       0.07957682 -0.3161597 0.42254066 0.16377752
000120 8f c4 59 bf 32 17 fd be 9a 9a 6b be f1 ca 79 be
       -0.8506555 -0.4943176 -0.23008195 -0.24393822
000130 3d 7b d9 3d 80 d1 87 bd 8f 3c a0 bd ef 74 71 be
       0.10619209 -0.06631756 -0.07824051 -0.23579763
000140 ce 24 80 3d 75 e8 30 be 3a 9e a2 3e 6a ed ec 3d
       0.0625702 -0.17276175 0.31761342 0.11568721
000150 93 b5 c3 3e f4 8d fa 3e bc e7 42 3f 38 7a a4 bd
       0.38224468 0.48936427 0.7613485 -0.08031124
000160 17 42 e3 3d 65 ee 08 3d 42 67 6b bd fb 14 0f bd
       0.1109659 0.033430476 -0.05747152 -0.034932118
000170 bf 5d 4e bb c3 29 4f 3e 02 57 b8 3e f8 5a 1e bd
       -0.0031488982 0.20230775 0.36003882 -0.038660973
000180 88 fd b1 3d 9d 9d 03 be 49 fa 41 3d 14 f6 8b 3e
       0.086909354 -0.12853093 0.04735783 0.2733618
000190 ee 6f d3 3d 75 3e 45 3e ec 46 23 be b3 b8 10 3e
       0.10324083 0.19262107 -0.15945023 0.14132957
0001a0 44 03 7f 3e 68 e4 10 3f 63 06 d2 be e9 3c 96 3e
       0.2490359 0.5659852 -0.41020498 0.29343346
0001b0 97 15 c4 bd d8 e1 6e 3a 43 90 fe 3d 80 2a 23 be
       -0.095744304 0.0009112633 0.124298595 -0.15934181
0001c0 a9 09 68 3d 16 c1 6d be 66 4b 3e 3e a0 e5 26 be
       0.056649838 -0.23218188 0.1858345 -0.16298532
0001d0 4f 00 2f be cb dd fa be 93 80 74 3e 7b ef e2 3e
       -0.17089961 -0.4899734 0.23877172 0.44323334
0001e0 21 d8 b8 bd 13 ed 66 3d be 1b 24 3d 01 ee dd bd
       -0.09025598 0.056378435 0.04006552 -0.10836411
0001f0 22 0b 03 be cb bc 0c 3e 15 10 8d 3e 6f a9 3e 3f
       -0.12797216 0.13743894 0.27551332 0.74477285
000200 c6 86 00 3e 96 15 ab bd 7f 3c 8e 3d 1b 05 88 3e
       0.12551412 -0.083537266 0.069451325 0.26566395
000210 3b a2 29 3e 62 5a 13 be 12 cf d7 3e d1 f2 b3 be
       0.16565792 -0.14389947 0.4215017 -0.35146192
000220 be f0 55 3e 64 af 63 3e 92 29 3b bf 09 49 4d 3f
       0.20892617 0.22234875 -0.73110306 0.8018957
000230 81 7d 0b be 78 3a 9d bd a5 f1 b1 3e ca 4d 20 be
       -0.13622095 -0.07677168 0.34754673 -0.15654674

rca.ca.conv_du.2.bias f4 [48]
000000 85 6e 26 bf 8f 33 56 3f ae e8 14 3f 01 0c 44 3e
       -0.6501239 0.8367242 0.5816754 0.19145204
000010 c2 2b e5 3c 32 21 80 3d 01 5d 38 3f 9d 56 8c 3e
       0.027974967 0.062563315 0.7201691 0.2740983
000020 1d d0 24 3d 4c 57 42 3e 00 da a0 3e 2a de e8 3b
       0.040237535 0.18978614 0.3141632 0.007106562
000030 89 0d 79 bd 61 37 4d 3d ac 02 0f 3f 5c 1f b2 be
       -0.060803924 0.05010164 0.5586345 -0.3478955
000040 c0 88 69 3e 15 65 ac bd 50 51 3c 3f f4 90 92 be
       0.22806072 -0.08417717 0.73561573 -0.28626215
000050 53 17 68 be 9f cd 1d 3f f0 52 b7 be c0 d3 f1 3e
       -0.22665147 0.6164188 -0.35805464 0.47231865
000060 ce 17 fd 3d 4e fa 46 3f df b7 0a 3f 29 54 ff bb
       0.12358056 0.77725685 0.54186815 -0.007792015
000070 b0 85 34 3e 98 cd 9a 3d eb 5c 5d 3d 80 3f 0f 3f
       0.17629123 0.07558745 0.05404369 0.5595627
000080 42 0b bd bd 63 f0 11 3f 79 fd a2 be d8 af 98 3e
       -0.09230663 0.57007426 -0.3183401 0.29821658
000090 99 7b 65 3e 88 24 25 bd 63 e3 1a 3f a6 86 da 3e
       0.2241043 -0.040318042 0.60503215 0.42680854
0000a0 44 1a 6d bd 02 52 0b bd 27 28 d8 3e 95 e8 01 be
       -0.057886377 -0.034013756 0.42218134 -0.12686379
0000b0 ec f6 3a 3e da 2c e2 3e 6c c4 02 bd 52 98 c1 be
       0.18258256 0.44174844 -0.031925604 -0.37811524

rca.body.0.weight f4 [48, 48, 3, 3]
000000 e4 34 46 3d 07 c6 45 3c 5e 16 9f bb ca db 08 3d
       0.048390284 0.012071139 -0.0048549613 0.033412732
000010 32 0d 66 3c 21 ab cf 3c d2 89 9c 3a ff 43 ab bd
       0.014041232 0.025350155 0.0011942929 -0.083625786
000020 fe 64 8a be 73 c5 e0 3c 22 51 f8 ba ab 98 71 3c
       -0.27030176 0.027437901 -0.0018945078 0.014745872
000030 4c 37 28 bb a6 94 f9 bc be a1 25 3c 4b ef c0 bc
       -0.0025667725 -0.030466389 0.010109363 -0.023551604
000040 c3 bc 8e bd ff f4 9b 3d e5 5a 9c 3c dd 93 d7 3b
       -0.06969597 0.07615089 0.01908631 0.006578906
000050 cb 7b 13 3d 0c 8b e3 bc 5c 2b 34 3d 89 f7 c7 3c
       0.03600673 -0.027776264 0.043986663 0.024410026
000060 c6 cd eb bc 64 51 99 bd ab 96 ef bc 8f 5c 34 bd
       -0.028784644 -0.07486227 -0.029246649 -0.044033583
000070 62 6e b6 3b 5b c2 55 38 08 28 63 3d 1c a7 f8 3c
       0.005567358 5.0964165e-05 0.0554581 0.030353121
000080 fc e8 cb 3c 28 81 93 3b 47 5d 06 3d 25 e0 4f bd
       0.024891369 0.0045014806 0.0328038 -0.05075087
000090 12 c8 ff 3b a4 ed c9 3c 74 2f 47 bc 43 fb ca bc
       0.0078058327 0.024649449 -0.01215731 -0.024778014
0000a0 68 58 11 3c c5 a5 f1 bc d4 01 9a bb 6d 6a 65 bc
       0.008871175 -0.02949799 -0.004699925 -0.014002425
0000b0 30 bc 90 3d 6a ae fb bb 22 83 d9 bc ab 8a 8e 3c
       0.07067144 -0.007680704 -0.026551787 0.017400106
0000c0 49 ab f2 bb 95 ba 60 3d 37 00 fa ba 31 a2 ac 3c
       -0.0074056727 0.05486544 -0.001907355 0.021073433
0000d0 be 1a 57 3d 68 6a 80 bd 03 e9 06 ba e7 bc d5 bb
       0.052515738 -0.062702954 -0.0005146416 -0.006522763
0000e0 ba e7 c1 3c d0 45 15 bd 73 e4 cf bc b5 a9 22 3d
       0.023670066 -0.03644353 -0.025377488 0.039712626
0000f0 f7 40 f5 3c 0f 8d 9b 3c 75 b4 32 3c d0 3d 69 3b
       0.029938204 0.01898816 0.010907282 0.0035589822
000100 c5 c6 67 3c 2d 96 9f bc 26 76 58 3d ef 7f f4 3c
       0.014146511 -0.01948079 0.05284705 0.02984616
000110 a6 69 7d 3d 1a b0 4d 3d 58 72 5c bc 05 ff e8 3d
       0.061868332 0.05021677 -0.013454996 0.11376766
000120 e9 48 9a 3c ef e5 29 bc 34 08 82 3c 99 c1 47 bc
       0.018833594 -0.010369762 0.015873052 -0.012192153
000130 da 30 35 3c 28 46 9a bd 9e 24 8f bc c7 37 0a 3e
       0.01105901 -0.075329125 -0.017473515 0.1349784
000140 4a e3 38 3d 3d e0 c5 bc 0c c7 4e 3c 55 5d a4 bc
       0.045138635 -0.024154777 0.012620699 -0.020064035
000150 d1 ee 80 3c 2b 55 4e bc b0 bd 13 3c 44 f9 10 bd
       0.015738877 -0.012593548 0.009017393 -0.03539397
000160 59 b8 3c bd 32 dc bb bd a7 dc d2 bc 18 6f 36 bb
       -0.046074245 -0.09172858 -0.02573998 -0.0027837213
000170 27 f5 58 3c e8 c8 aa bc c6 51 e1 3d e6 d3 a2 3c
       0.013242043 -0.020847753 0.11001925 0.019876432
000180 b9 61 fa bc c0 7a ac bd c3 a6 e4 3b 02 d7 8c bc
       -0.030564176 -0.0842185 0.0069778874 -0.017192367
000190 8e 39 49 3d 3d 54 cb bc 8a fe 79 bc 44 7f de bc
       0.049127154 -0.024820441 -0.015258441 -0.027160294
0001a0 53 39 1d 3c 84 5c fd 3d 4e c5 a0 3d 2d 99 26 3d
       0.009596187 0.123711616 0.07850133 0.040673424
0001b0 29 08 67 3c 00 ec 61 bc 04 12 10 3c 4f 15 4f bc
       0.014101067 -0.013789177 0.008793358 -0.012639358
0001c0 bd e8 e5 3c 4a 3b 94 3b 45 9c aa 3b dd f0 8e 3c
       0.02806508 0.0045236694 0.005206617 0.017448837
0001d0 11 b5 40 be ec 22 8e 3c 05 b5 55 bd ca 85 c5 3c
       -0.18819071 0.017350636 -0.052174587 0.024111647
0001e0 1d e6 1d bd a0 13 6e 3d 9e fa 15 3d bd 7b 46 bb
       -0.03854953 0.058124185 0.03661596 -0.0030286156
0001f0 f4 78 1c 3e 77 55 68 bc ac 1c 85 3c bb 3e b8 3c
       0.15280515 -0.014180533 0.016249023 0.02249085
000200 a7 bd d8 bc 7c e4 bc 3b 43 18 4f bd 0d b3 09 3c
       -0.02645762 0.005764542 -0.050560247 0.008404505
000210 e4 c3 5b 3d ae 56 e2 3d 3b 70 09 3e 9c 70 13 3d
       0.053653613 0.11051689 0.13421719 0.035996065
000220 28 a2 09 bc 50 c9 00 bd d1 1e 2a 3c d3 5e b8 3c
       -0.0084004775 -0.031441987 0.010383324 0.022506153
000230 59 b6 12 bd 6b b5 35 3d b3 11 6f 3c 45 1c 23 3c
       -0.03581843 0.044362467 0.014591622 0.00995547
000240 8f 2e 42 3b ba 3a 12 bd 31 0f 95 3c ee e3 9b 3c
       0.0029629802 -0.035700537 0.01819572 0.019029584
000250 65 af b4 3c d3 ef 54 bd 80 4b 19 bd 0d e6 3b 3d
       0.02205629 -0.051986527 -0.037425518 0.04587369
000260 7f 6a 22 3e f6 c9 da 3b e5 42 16 bc fe 99 81 3c
       0.15860938 0.0066769077 -0.009171222 0.0158205
000270 ee ac 72 3b ec b3 e4 3c db 8d a4 3b db f5 07 b9
       0.0037029344 0.027917825 0.0050217933 -0.00012966192
000280 75 4d 63 3c c3 22 e3 3d 1d 41 37 3d fd 9a a3 bb
       0.013873448 0.11090615 0.04473983 -0.0049928413
000290 8d 81 02 bc fe 0e c8 bb 91 e9 06 3b b7 84 89 bc
       -0.007965458 -0.006105303 0.0020585994 -0.016786916
0002a0 f1 72 a1 3b 67 3d fb 3b c8 d5 32 3e 60 61 89 bb
       0.004927032 0.007667232 0.17464364 -0.004192516
0002b0 70 6e ca bd b1 3e 96 3c 21 9b 2f 3c 7f 39 b3 3c
       -0.098843455 0.01834044 0.010718138 0.021878002
0002c0 53 1a ff 3b da 09 9c 3d 3a dc 56 3e d0 d9 c1 bd
       0.0077851205 0.076190665 0.20982447 -0.094653726
0002d0 be eb 12 bd 1e 3c a5 3d f0 f7 b1 3b 3c 46 b9 bc
       -0.035869353 0.08068107 0.005431168 -0.022616498
0002e0 43 c4 8e 3b 3c 20 db bc 42 88 e8 b9 36 09 9e be
       0.0043568923 -0.026748769 -0.00044352008 -0.30866402
0002f0 7c be d1 3c 2a d9 1a bc 3f 5a 90 bb ce 00 03 3d
       0.025603525 -0.00945119 -0.0044052894 0.03198319
000300 66 a2 13 bd 71 20 b8 bc ba 78 50 bd 4e 1e 99 bd
       -0.036043547 -0.022476407 -0.050896384 -0.07476483
000310 3f 23 0d bc b2 a4 8c 3b cd 56 1e 3d 74 6b ff bc
       -0.00861436 0.004292094 0.038657 -0.031179167
000320 21 5d 3a bb 29 79 66 bd 20 b0 a4 3d c0 22 0f 3d
       -0.0028436857 -0.05626789 0.08041406 0.03494525
000330 2f b6 cc bd 42 9c 0c be 9b 9c f1 3d fd 7f 52 3c
       -0.09995686 -0.13731483 0.11797448 0.012847898
000340 8e 46 03 bc 62 ef 15 3d d1 50 62 3c d8 4f 67 3c
       -0.008012427 0.036605246 0.013813213 0.014118157
000350 80 9c 4d bd e3 c4 ef bd 85 19 11 bc 14 ef 33 3e
       -0.05019808 -0.11707475 -0.008856182 0.1757167
000360 c8 0a 41 3c 11 24 0b bd 54 ae c0 bc a8 81 72 bc
       0.011782356 -0.033969942 -0.023520626 -0.01480142
000370 a1 ba 3a 3d 12 d6 31 bc bb d6 3c bc c7 c1 26 3d
       0.04558814 -0.010854261 -0.011525805 0.040712144
000380 63 80 d8 bc 45 09 0c bc f2 c2 21 3c b0 2d 0e bc
       -0.026428407 -0.008547132 0.009873139 -0.008677885
000390 5f ac 5a 3d ea 11 8c 3d db 4b ff 3c 67 7b 38 bd
       0.053387042 0.06839354 0.0311641 -0.04503956
0003a0 17 c6 87 bd a1 3a a3 bd b8 af 42 bb fb 2a 88 bc
       -0.066295795 -0.07970167 -0.0029706787 -0.016622057
0003b0 4e ea d6 39 3b c6 8c bc b7 da d5 3d 25 73 e8 3c
       0.0004099183 -0.017184367 0.10442107 0.028375218
0003c0 9c b6 da 3c 60 bc 19 bc 88 5e 53 bb 8f 25 26 bc
       0.026698403 -0.009383291 -0.003225239 -0.010140791
0003d0 68 d8 3e bc 50 ae 70 bc 4a 70 2e 3b 32 ba 35 3c
       -0.011648275 -0.014689997 0.0026617222 0.011091756
0003e0 41 8c 06 3d f1 29 f7 bc af 1d cb 3c 57 51 5a 3d
       0.0328486 -0.030171366 0.024794428 0.053300228
0003f0 d8 83 e5 3b ed 12 b1 bc 8a 63 22 3c a6 da 28 bc
       0.0070042424 -0.02161547 0.009911427 -0.010306036

rca.body.0.bias f4 [48]
000000 82 8e c9 bb ef ee 84 bc f1 33 73 bc 3e 41 98 3e
       -0.0061510215 -0.016227214 -0.014843927 0.29737276
000010 12 b6 91 3e d0 f4 dc 3d ec 76 c7 bd ab 25 39 3e
       0.2845922 0.10788882 -0.097394794 0.18080775
000020 89 80 f3 be 9d a8 05 3d 3c ed 80 bc 66 30 23 be
       -0.47559002 0.032631505 -0.015738122 -0.15936431
000030 74 89 15 3f 47 7c 99 3d b9 e8 95 bc ce b2 08 bd
       0.5841286 0.07494407 -0.018299447 -0.033373646
000040 29 5c 35 3e ae 7f a1 be 22 5d 1e 3d 75 59 26 bd
       0.17710938 -0.31542724 0.038663037 -0.040612657
000050 09 89 6f 3e 31 a5 a8 be d6 0e b3 3c c3 83 c1 3d
       0.23392119 -0.3293853 0.02185766 0.0944896
000060 a9 94 8f bd 8b da 96 3e 88 d5 75 3d 6d 2a 80 3d
       -0.070107765 0.2946361 0.060018092 0.06258092
000070 db 79 a6 bc b3 8e 6c be 52 50 06 be 03 36 e7 bc
       -0.020321777 -0.2310131 -0.13116577 -0.028223997
000080 c0 25 39 bf ca 6a 09 be 1f 42 c6 3d 04 f0 c5 bd
       -0.72323227 -0.13419643 0.0968058 -0.0966492
000090 dc a0 e6 3e f6 81 82 bd f0 17 cc 3c a9 f8 74 be
       0.450446 -0.06372444 0.024913758 -0.23922981
0000a0 d5 c9 b8 bd 76 3b 19 be 29 1f 16 3e c5 7c 0b 3d
       -0.090228714 -0.14964089 0.14660324 0.034054536
0000b0 4e 00 1f 3e 3a 4d f1 be b0 cf ad bd 32 f7 55 3e
       0.1552746 -0.47129232 -0.08486879 0.20895079

rca.body.2.weight f4 [48, 48, 3, 3]
000000 57 72 8e 3d 93 be 35 bd ca 2f 62 bc 03 a4 25 3d
       0.06955402 -0.0443712 -0.013805339 0.040439617
000010 0b 7f 8e bb d2 74 5a bc 62 98 a4 3c cd d7 b9 3b
       -0.004348641 -0.013333516 0.020092193 0.0056714774
000020 85 4d 23 3c 72 ac ce ba 1a 59 20 3d ef 2d 04 bd
       0.009967213 -0.0015767945 0.039147474 -0.03227037
000030 08 af 25 bd b1 eb 52 bc 84 e7 e0 3a 28 dd c7 3d
       -0.040450126 -0.012873576 0.0017158841 0.09758979
000040 58 7f bc bb 2f 5b 2c 3d 2f 8a eb bc 4e b3 7b bb
       -0.0057524852 0.042079147 -0.028752415 -0.0038406434
000050 ed 51 c7 bc e9 29 b4 bb 7a f2 23 3c c5 b6 e4 bc
       -0.024331057 -0.00549816 0.010006541 -0.027919183
000060 da 65 05 bd 7c bf e4 bc fb 04 25 bd 86 0c 12 bd
       -0.032567836 -0.027923338 -0.040287953 -0.035656475
000070 77 97 c1 bc 4b 56 05 bb 10 9a b6 3c dd 86 43 bc
       -0.023631794 -0.0020345624 0.02229026 -0.011934009
000080 fe 59 b1 bb a8 74 db bc 2d e3 94 bc 8d d8 61 bc
       -0.0054123392 -0.026789024 -0.018174732 -0.01378454
000090 90 7e a4 bb 2c 59 4b 3b e9 62 e1 3d 9f 48 8b bd
       -0.0050199702 0.0031028492 0.11005194 -0.06800961
0000a0 12 09 76 bd 39 8c 94 bd b1 04 19 3e e9 4c 6c 3c
       -0.060067244 -0.07253308 0.14943196 0.014422634
0000b0 a0 37 b1 3b 07 ed 9a bc 98 d1 34 bd b5 30 88 bd
       0.0054082423 -0.018911852 -0.044145197 -0.06649915
0000c0 38 c8 91 bb b7 5a 1c bd b7 ca 97 bd 09 81 f1 b9
       -0.0044489168 -0.03817245 -0.07411712 -0.0004606324
0000d0 34 17 3a bc a2 5d 83 3c 6d d2 ae bc 3e d1 22 3b
       -0.011358071 0.016035859 -0.021340573 0.0024843956
0000e0 e6 ee 21 3c e0 a7 7d 3c 9d 9d a1 bb 34 42 f9 bc
       0.009883618 0.015481919 -0.004932119 -0.030427076
0000f0 17 85 0b bd 60 8e e6 bc 0a a5 23 bd 38 ed 3e 3b
       -0.03406247 -0.028144062 -0.039952315 0.0029133093
000100 7f 35 c8 bc b7 e4 52 bc c8 ac c6 3c 50 e3 31 3d
       -0.024439571 -0.012871913 0.02425231 0.043429673
000110 ed 60 6d 3c ac 6d 34 3d 41 8c ac 3c 36 71 da 3c
       0.014488441 0.044049904 0.021062972 0.026665311
000120 fd ad a0 3c 4e d3 e4 bc b3 2f 8d 3c ea b0 1e 3d
       0.019614214 -0.02793279 0.017234659 0.038742937
000130 b1 c7 0f bd 71 c0 f3 ba 6f b2 2c bd 4c 2b 9e b9
       -0.03510255 -0.0018596781 -0.042162355 -0.00030168367
000140 37 36 44 bc db 83 11 bc 18 cf 48 bc 5b 0e 24 3c
       -0.011975816 -0.008881534 -0.012256406 0.010013188
000150 0d 80 23 bc 57 2c 7f bd 89 89 c2 3b d5 b3 ed 39
       -0.00997926 -0.062298145 0.0059368056 0.00045338148
000160 4c 6d 84 3e 23 55 00 3e 54 40 38 3c 33 9c 03 bd
       0.25864637 0.12532477 0.011245806 -0.032131385
000170 b2 86 8c 3c 31 fe 9c 3c 74 52 c7 bc c8 d4 32 bc
       0.017154071 0.019164177 -0.024331309 -0.010914989
000180 33 40 ce 3c 35 a6 23 bd 0c fc e6 bc 27 08 0d 3d
       0.025177097 -0.03995343 -0.028196357 0.034431603
000190 ae 33 c3 bc 56 86 a9 3c f9 56 57 3c bc 0c 58 bc
       -0.023828354 0.02069394 0.0131432945 -0.01318663
0001a0 53 d7 9b 3c 9f 6a e7 bc 55 27 cf 3c 8c 36 d8 ba
       0.019023573 -0.028249083 0.02528731 -0.0016495748
0001b0 c3 16 18 bd e2 1f b6 3a ee 2c af 3c a3 dd b9 bc
       -0.037131082 0.0013895 0.021383729 -0.022688692
0001c0 b7 d3 a6 3c cd e4 87 bc c9 bf 80 bc d8 ea 42 3c
       0.020364625 -0.016588593 -0.01571645 0.011896811
0001d0 ef 23 09 bd 72 46 cc bb 4c 7b ad 3b 3c bd ac 3a
       -0.033481535 -0.0062339837 0.005294239 0.0013178955
0001e0 29 76 b3 bc 89 f9 67 bd d8 10 2d 3d 77 e5 d6 bc
       -0.02190693 -0.05663446 0.04225239 -0.026232464
0001f0 20 7d dc bc 30 1b 64 bc 1e 0b 6d bc e4 c6 b6 bc
       -0.026915133 -0.013922498 -0.014467983 -0.022311635
000200 d7 ed 41 bd c3 61 4f bc 9e 3d 17 bd 6c ba c0 bc
       -0.047345962 -0.012657586 -0.036923997 -0.023526393
000210 18 b6 f0 3c 9b 2d c2 bc 9f 55 a2 bb e9 e3 16 3d
       0.029383704 -0.023703387 -0.0049540545 0.036838446
000220 ea 42 d8 3c e3 5e 7d 3c d4 d8 ff 3c 02 b8 36 3d
       0.026399095 0.015464517 0.031231321 0.044609077
000230 e9 28 df 3c 2e 44 9e bc cd e6 3b bd 45 b0 10 bb
       0.027241187 -0.01931962 -0.045874406 -0.002207772
000240 48 67 b2 3b 1f c8 8c bc 7b de b9 3d 3d b0 13 bd
       0.005444441 -0.017185269 0.09075638 -0.036056746
000250 f6 72 d3 3c e2 49 ee 3d 83 8d f4 bc 4c 48 dc bc
       0.025811654 0.11635186 -0.029852634 -0.026889943
000260 b4 61 6a 3d 21 31 42 3b af 35 ba bb ff 47 83 bc
       0.057222083 0.0029631334 -0.005682669 -0.016025541
000270 4a 95 07 3c d9 bc bf bb 5c 93 6e bd 79 17 c3 3c
       0.008275339 -0.00585137 -0.058246 0.023814904
000280 ba 37 96 bc 24 1e 68 bc 3d 8c 1a bb c4 84 12 3c
       -0.01833712 -0.014167342 -0.0023582124 0.008942787
000290 ed 22 27 3b e6 44 23 bd c2 8c 54 bd e7 02 02 bd
       0.0025502995 -0.03986063 -0.05189205 -0.03174105
0002a0 73 0c b9 3c ed 6c 89 3c da 16 0a 3b cd 22 de 3c
       0.022588944 0.016775573 0.002107075 0.027116204
0002b0 be 59 37 bd 48 5c f7 39 8e a7 d7 3c 14 73 27 bd
       -0.04476332 0.00047180266 0.026325013 -0.04088123
0002c0 73 4b 1f bc 7d ac 54 bb 2b 31 16 3d 57 15 98 3c
       -0.009722578 -0.0032451444 0.036667984 0.018564863
0002d0 a5 bb 3e 3c cc bb 1e 3c 2f aa b3 3b 8a d1 23 3c
       0.011641418 0.009688329 0.005482934 0.0099986885
0002e0 40 f9 da bc 7d 29 9e 3b fb 44 13 3c 9d bf d1 3b
       -0.02673018 0.004826723 0.008988614 0.006401016
0002f0 38 f4 f2 3c f5 62 ad bb 07 d7 ad 3c 20 81 b5 3c
       0.029657468 -0.0052913376 0.021220697 0.022156298
000300 f3 04 15 ba 37 ff 0e bb 8b c7 f5 bc b4 e7 4d 3c
       -0.00056846364 -0.00218196 -0.030002376 0.012567449
000310 78 61 ce 3b b5 3c 14 3d b8 3b c2 bc 54 fe f2 3c
       0.0062982403 0.036190707 -0.023710117 0.029662289
000320 0a cd c5 bc 4d 45 86 bc c3 91 7b bc ee 32 c0 3c
       -0.024145622 -0.016390467 -0.0153545765 0.023461785
000330 70 4f a2 3c ed 75 d7 bc 61 44 1a bc ea 00 85 bc
       0.01981327 -0.026301349 -0.009415717 -0.016235787
000340 1f 38 1e 3c 17 1e 80 bc 3f 4f ce bc bf 08 65 3c
       0.009656935 -0.015639348 -0.025184272 0.013979136
000350 18 a3 3d bd 28 c0 84 bc 23 2e 55 bd bd bb f5 bc
       -0.046298116 -0.016204908 -0.052045953 -0.029996747
000360 07 38 4f 3c c8 27 a7 3c 7c 26 a7 3b 90 52 b0 3b
       0.012647635 0.020404711 0.0051010232 0.005380936
000370 2c 4d b9 3c 5e 8d 3a 3b 5b 25 08 3a 76 26 3f bc
       0.022619806 0.002846561 0.00051935547 -0.011666885
000380 c7 13 a4 3c 63 c1 86 3c ba 05 29 bc df ff 00 bd
       0.020028962 0.016449636 -0.010316307 -0.031494018
000390 98 ee ce 3c 62 16 6b bc 88 f2 ab 3c ff be 6c 3c
       0.025260255 -0.014348598 0.020989671 0.014449834
0003a0 7d 10 e9 bc 6d 90 af 3c 23 e6 33 bc 0a 06 6b bb
       -0.028450245 0.021431172 -0.010980162 -0.0035861754
0003b0 e6 9d 6c bb 83 c2 c4 3c 56 ea 9b 3b ce ab 27 bd
       -0.0036104857 0.024018532 0.0047581596 -0.04093533
0003c0 50 19 9b 3c 48 de 14 bd 49 74 fc 3c 24 08 73 bb
       0.018932968 -0.036344796 0.030817168 -0.003708371
0003d0 28 48 5f 38 2f 16 10 bd 05 18 92 bc 24 d6 fb 3b
       5.3234544e-05 -0.035177406 -0.017833719 0.0076854397
0003e0 ad 8c f7 3b 59 c9 34 3a 0d d3 cf bc 19 fc 4e 3d
       0.0075546117 0.0006896458 -0.025369192 0.050533388
0003f0 0a be 39 b9 c5 df a4 bc 68 b3 21 3c c7 63 a1 bc
       -0.0001771377 -0.020126233 0.009869434 -0.019700898

rca.body.2.bias f4 [48]
000000 32 0d 48 3d e6 48 89 be 4a b1 b9 bc 78 06 ba bc
       0.04884071 -0.2681343 -0.022667546 -0.022708163
000010 4f 67 34 bd d1 99 4d bd a7 87 cf bd 8d 44 3e 3d
       -0.044043835 -0.05019552 -0.101332955 0.046452094
000020 71 cc 12 be ee 4a 80 bd 6a 40 f3 3c c1 b5 42 3c
       -0.143358 -0.06264292 0.029693801 0.011884154
000030 c4 59 45 3e fd 06 a0 3c e6 60 db be a9 e7 cf bd
       0.19272524 0.019534582 -0.42847365 -0.101516075
000040 1c 71 24 be e7 9b 85 be 5d 6b 40 be 07 c8 18 3e
       -0.16058773 -0.26095507 -0.18790956 0.14920054
000050 55 e7 9c 3e 11 e6 bd bb d3 50 85 be a7 13 58 bd
       0.30645242 -0.0057952483 -0.26038226 -0.052753117
000060 77 8f 6f 3c 86 ec f5 bd 70 a1 4b 3e 9b 74 77 be
       0.014621607 -0.12008004 0.19885802 -0.24165575
000070 95 9e e3 3d 07 5c 77 bd f0 7a 2a be 14 3c bb 3b
       0.111142315 -0.0603905 -0.1664846 0.005713949
000080 f3 54 cd be b1 66 8a 3e e4 91 74 be 3e c9 6a be
       -0.40103874 0.27031472 -0.23883778 -0.2292833
000090 16 03 97 bc a0 25 4a be 03 a9 0f 3c 31 74 00 be
       -0.018434089 -0.19740915 0.008768323 -0.12544324
0000a0 ee da 58 3e e8 82 94 3c a3 5b 8b 3d d5 80 3b bc
       0.21177265 0.018128827 0.06804588 -0.01144429
0000b0 19 35 d5 3d 6e 71 35 be af 03 db bd 0e 5e 58 be
       0.10410518 -0.17719051 -0.10694062 -0.21129629

head.0.weight f4 [48, 3, 3, 3]
000000 d1 64 1b be e4 0d 74 3a aa 36 c9 3d 4b da fc 3d
       -0.15175177 0.0009309931 0.098248795 0.123463236
000010 52 0f 1c be fe 46 b4 bc d8 20 0a 3d 38 bb 43 3d
       -0.15240219 -0.022006508 0.03372273 0.047785968
000020 4f 8a 19 3e 9b af 2a 3e c1 c5 9b bd ad 7f c8 bd
       0.14994167 0.1666855 -0.07606078 -0.09789977
000030 70 85 f7 bb 14 f8 7b b9 fc 5d 40 3e ec dc e8 bd
       -0.007553749 -0.00024029642 0.18785852 -0.113702625
000040 86 b6 1b 3e b3 e7 9a 3d 45 74 d3 bd 28 c5 0e 3e
       0.15206346 0.07563724 -0.10324911 0.13942397
000050 c7 45 3c be 35 b3 f3 bd 19 84 2f 3e ef 36 cb bd
       -0.18385993 -0.118994154 0.17140235 -0.09922587
000060 95 47 92 3d 27 d1 2f be ec 91 0f be 04 08 fd bb
       0.071425594 -0.17169629 -0.14020509 -0.007721903
000070 1f 4a 55 bd b0 38 25 be 76 da 7c bd 87 28 c3 3d
       -0.05207264 -0.16134906 -0.061731778 0.09529214
000080 ed 0f 38 3e 3d 55 38 bd 6c 4d 60 bd bd 77 32 3c
       0.17974825 -0.045003165 -0.054761335 0.010892806
000090 8a 8d 2b be 86 55 c4 bd 7f 83 dd 3d 76 37 74 bd
       -0.16753212 -0.09586625 0.108160965 -0.059623204
0000a0 a0 5a 0e 3e e0 ab e2 bd a2 49 4a 3e bd 5a de bd
       0.13901758 -0.11067939 0.19754651 -0.10857151
0000b0 63 5c 61 bd 23 82 83 bc 28 61 c4 3b 56 78 fc bd
       -0.055019747 -0.016053265 0.0059930272 -0.1232764
0000c0 48 54 2f be f5 d7 ca bd 59 44 b9 3d 9d a6 05 3d
       -0.17121994 -0.09904472 0.090462394 0.032629598
0000d0 94 60 33 be 92 56 0a 3d 1e d2 0c be b1 fc 92 3d
       -0.1751731 0.033773966 -0.13752028 0.07177103
0000e0 d3 fa ae 3d ad 3f c5 bd 6e 49 fc bd e3 35 c1 3d
       0.08543935 -0.09631286 -0.12318693 0.09434106
0000f0 eb 99 e5 ba 63 3a c0 3d 53 ef 09 3e c0 e6 bd bd
       -0.0017517185 0.093861364 0.13470201 -0.09272528
000100 b8 7a 81 bd d6 75 35 be fd 1f 3a 3c 8f c6 e4 bd
       -0.06322235 -0.17720732 0.011360166 -0.111706845
000110 88 64 24 be 2f 71 d5 3d 11 41 da bd 02 86 25 bd
       -0.16053975 0.10421979 -0.10656942 -0.040411003
000120 fd 49 bd 3c 62 ba b2 3d 5e 20 1a 3e 18 cd 10 3e
       0.02310657 0.08726956 0.1505141 0.14140737
000130 ba 68 c8 3d 14 de 10 3e f8 5c 0b be db c3 bb 3d
       0.097856 0.14147216 -0.13609684 0.09168216
000140 16 08 21 bd be 6d eb bc 17 1a c3 bd 12 51 4d 3e
       -0.039314352 -0.028738853 -0.095264606 0.20050457
000150 76 f9 33 3e 36 3c a7 bd c5 7a 5c 3e 79 26 70 bc
       0.1757563 -0.08165781 0.21531208 -0.01465761
000160 b4 76 63 3b a8 f3 54 bd 85 40 3b 3e 3b 46 61 bd
       0.0034708204 -0.05199018 0.18286331 -0.054998618
000170 a6 11 db bd f9 e2 f5 bd eb 67 a2 3d 90 7c 9f bd
       -0.106967255 -0.12006182 0.07929977 -0.0778743
000180 bf 7e 7b bd 06 d9 18 bd 27 11 c6 bd 6c fc d7 3d
       -0.06140017 -0.037316345 -0.0967124 0.105461925
000190 56 55 c8 bd 79 4a 55 bc e0 91 fa bd 75 6a e0 3d
       -0.097819015 -0.013018244 -0.12234855 0.10957805
0001a0 d5 2a 29 be 86 8c c9 bc ba d1 24 3e 88 a9 e9 3b
       -0.16520245 -0.02460314 0.1609563 0.0071308054
0001b0 77 db c9 3b 5f a9 e5 bb 82 7f d8 3c f8 5d 8c bd
       0.0061601955 -0.007008716 0.026427988 -0.068538606
0001c0 8a c7 e7 3d 50 73 be 3d 21 af 39 be 80 a8 b6 3d
       0.11317356 0.09299338 -0.18133213 0.089188576
0001d0 f2 90 81 3c 55 ea 45 3d 5f 49 8b 3c e3 42 89 bd
       0.015816186 0.04831918 0.01700276 -0.06702211
0001e0 b1 c4 c4 3d ec 0c 83 3d 2e bd 17 3e 28 2b 09 3d
       0.096078284 0.06398949 0.1481826 0.033488423
0001f0 ee 4e 12 3d e4 4a a2 3d a2 47 b2 3d c2 fb 28 bd
       0.035719804 0.079244405 0.08705069 -0.04125572
000200 5a 8d 99 3d 86 9f 7a 3d d6 b5 f1 3d 0b 98 cf 3d
       0.07497664 0.06118729 0.118022606 0.10136422
000210 9e 39 9b bd 7b 7b e9 bd 9e d5 05 3e 93 43 0f 3b
       -0.07579349 -0.11400505 0.1306977 0.0021860346
000220 c3 c4 e7 3d eb 33 e3 3c 1f 36 88 bd 96 d3 30 3d
       0.11316826 0.027734717 -0.06650948 0.043170534
000230 56 5d 04 be 34 51 ca 3d 86 99 ec 3d 27 32 9d 3d
       -0.1292623 0.098787695 0.1155272 0.076755814
000240 42 f8 44 3d 98 d3 9a 3c 1c b3 2e bb 9f c0 d9 bd
       0.04808832 0.018899724 -0.002665705 -0.10632443
000250 65 ce 2c 3e a1 6a 14 be e5 e0 8b bd a2 1e 0b bd
       0.16875608 -0.144938 -0.068300046 -0.03396476
000260 af 2f 1a bd a2 11 14 3e 2d dc ae 3d 1d 25 78 3b
       -0.03764313 0.14459851 0.08538089 0.0037863918
000270 f0 03 19 bc 20 ed 03 be 2d a9 88 3d d5 62 cd bd
       -0.009339318 -0.12883425 0.06672893 -0.10028616
000280 a4 95 09 be 05 7c 86 bd 52 66 0c 3e f7 aa c3 3d
       -0.1343599 -0.065666236 0.13710907 0.09554093
000290 94 a2 12 be bb c5 07 3e a8 e4 90 3b 7c c4 8d bd
       -0.14319831 0.13259022 0.004421789 -0.06922242
0002a0 fc 63 e0 3d 35 5c 2c 3e dc 20 b8 bd 7c 4f b6 3c
       0.109565705 0.16832049 -0.089906424 0.022254698
0002b0 d4 c5 86 bc 59 33 15 3e ef 59 14 bc 1e 0c 70 3d
       -0.016451754 0.14570369 -0.009054645 0.058605306
0002c0 df de 1c 3d ba 24 ce bd c3 33 11 be 5c 1d 80 3d
       0.038298484 -0.10065599 -0.14179902 0.062556
0002d0 d1 0e 0d 3e e7 79 15 3e ac 7a a4 bd f1 ff 43 3d
       0.13775183 0.14597283 -0.0803121 0.047851507
0002e0 c2 ad c4 3d 5c 87 45 be 73 00 1e 3e f2 17 86 3d
       0.09603454 -0.19289917 0.15429859 0.06547536
0002f0 ec 42 37 be 8b 8f 83 3c 80 28 4d 3e 4e 85 8b 3c
       -0.17896622 0.016059658 0.20034981 0.017031338
000300 69 c2 b7 bd 0d 11 6a 3e ef 04 b4 bd 4b ae f7 3d
       -0.08972628 0.22858067 -0.087900035 0.120937906
000310 b4 f1 13 be 9d a0 18 be 73 eb 05 be 4d 05 34 be
       -0.14447671 -0.14905019 -0.13078098 -0.17580147
000320 21 e4 1a 3e ae e2 35 bd f1 24 df 3c 0b 38 18 be
       0.15126087 -0.04440563 0.027239295 -0.14865129
000330 bd d2 f7 3c 7f 5b b9 3d 91 5e b3 3c 78 2d 52 bd
       0.030251855 0.090506546 0.021895679 -0.051312894
000340 50 f7 ed 3c 32 db 0a 3d 95 46 b1 3d da d5 6e 3d
       0.029048592 0.033900447 0.086560406 0.058309413
000350 7f cb ae bd 84 a5 b2 bc 3e 04 70 3d bb c7 0d bd
       -0.085349075 -0.02180744 0.058597796 -0.034614306
000360 3f c6 a2 bd ff f9 b0 3c 19 89 a4 bb eb 24 25 3e
       -0.07947969 0.021603582 -0.005021226 0.16127364
000370 24 87 31 be 87 9d 0d be c2 e8 46 3d af ce 1f 3e
       -0.17336708 -0.13829623 0.04856182 0.15606187
000380 cf e5 1e be 58 e8 d2 3d 87 61 45 be c5 66 70 bd
       -0.15517353 0.10298222 -0.19275485 -0.05869176
000390 1e e8 f3 3d 5d 1d b1 3d 36 88 fd 3d c1 23 0b be
       0.11909507 0.08648179 0.12379496 -0.13587858
0003a0 eb db 13 3e e7 15 bb 3d 4b a2 9c bd a3 e4 72 bd
       0.14439361 0.09135037 -0.076481424 -0.059300076
0003b0 76 5e d2 3c b1 dd 84 bd 6b 5c d4 3d 8b 15 00 3e
       0.025679808 -0.06487597 0.1036919 0.12508218
0003c0 73 bc 02 be e8 e3 06 be 0e 87 c0 3d 94 b1 b0 bd
       -0.127672 -0.13172877 0.0940076 -0.0862762
0003d0 1a 83 25 3e d1 8e cb bd 46 16 2d 3e 1d 44 63 3d
       0.16163293 -0.099393494 0.16903028 0.05548488
0003e0 5c 36 f6 3c 33 28 f4 bd 3b cf a7 bc 72 51 97 3c
       0.030055217 -0.1192173 -0.020484557 0.018471453
0003f0 69 56 84 bd 54 45 aa 3d 22 0c 0c be 72 a4 09 be
       -0.06461794 0.083140045 -0.13676503 -0.13441637

head.0.bias f4 [48]
000000 1c a2 01 3d 8b 8f 13 be 81 99 c3 be 72 93 2a bd
       0.03164874 -0.14410226 -0.38203052 -0.04164452
000010 1e 7e c5 3d d0 7e 1d 3c 53 51 12 bd 18 17 28 3e
       0.096431956 0.009612754 -0.035722088 0.1641506
000020 71 07 80 bc 06 d5 04 bb 8a 43 55 3e 91 9a a3 bd
       -0.015628548 -0.0020268573 0.20826545 -0.079884656
000030 5f 26 a0 bd 99 e8 85 3d ae 2e 8a 3d 53 e8 6d be
       -0.07819819 0.06538505 0.06747185 -0.23233156
000040 25 ee e4 bd 28 d9 75 3d 42 bb 0c 3d ac 72 11 be
       -0.11178235 0.06002155 0.03435827 -0.142039
000050 ab 7a db 3c 1e 87 cb 3e 02 5a 85 3d 5e d1 05 be
       0.026791891 0.39751524 0.06511308 -0.13068148
000060 69 ad 5d 3e ec a8 fb 3d 2e 19 60 be f0 f8 02 be
       0.21648182 0.12288079 -0.21884605 -0.12790275
000070 f4 c5 b5 bc f1 90 b7 bc 56 d9 7c bd 00 95 09 be
       -0.022189118 -0.02240798 -0.061730705 -0.13435745
000080 35 de f1 3c e9 d1 dd bb ab 1a 6c 3e 85 1c 77 3e
       0.029524902 -0.006769408 0.23057048 0.24131973
000090 78 99 ea bc b6 42 04 3e fa 43 89 be 7d 0e c4 bd
       -0.028637633 0.12916073 -0.26809675 -0.09573076
0000a0 0e 14 c3 3e 2b 18 42 3d 31 bf c8 3d 1c d6 2d 3d
       0.38101238 0.04738633 0.09802092 0.04244052
0000b0 28 ea 93 3d 4d 49 de bd 6b 48 c4 3d 55 d5 ef 3d
       0.07222396 -0.10853825 0.09584125 0.11710612

head.1.weight f4 [48, 48, 3, 3]
000000 db dd c6 3b 6d 03 3e 3d 2b 02 8e bc ba fc 74 3d
       0.0060689277 0.046389986 -0.017335018 0.05981133
000010 3e d5 96 bb 64 1c 85 bc d1 de ef 3c 92 30 d1 bc
       -0.004603057 -0.01624889 0.029281052 -0.025535855
000020 a8 a8 1d bd 2d f1 22 bc ff bd 86 bb a9 c9 e6 3c
       -0.03849092 -0.009945196 -0.004112005 0.02817233
000030 1f 17 d0 bb 4c b4 1d bd 9d a3 a9 3b 33 6e d4 bb
       -0.0063504125 -0.038502023 0.005176975 -0.0064828633
000040 6e 6a 82 3b 9e 72 4e bd 62 08 80 bb 2e 7a 16 3a
       0.0039799726 -0.050402276 -0.0039072493 0.0005740252
000050 36 64 1d 3c 47 8f ad bc 91 eb 22 3d ac e6 27 bd
       0.009606412 -0.021186484 0.039775435 -0.04099147
000060 71 8e 9b bc 62 b6 28 3d fa ee dd bc 12 8f 07 3c
       -0.01898882 0.04118956 -0.027091492 0.008273857
000070 fa ae cb bc 6a 50 d1 bc 3d 0f c3 39 7d 15 42 3c
       -0.024863709 -0.02555104 0.00037204652 0.0118459435
000080 49 28 84 3c 0b a1 ed 3c 5d 94 1e bc e0 f2 b7 3b
       0.01613249 0.029007455 -0.009678927 0.0056136698
000090 05 d2 09 3d ac 0a 46 3d a8 ab 2e bd ff 8a 92 bc
       0.033647556 0.04835002 -0.042644173 -0.017888544
0000a0 6f 37 46 bc 87 b8 38 bc 2d 91 ef 3c b2 8a 5e 3d
       -0.012098177 -0.0112744635 0.02924403 0.05433149
0000b0 90 ec c8 bc 33 18 61 3c 57 58 15 bd d6 4c c4 3c
       -0.024526864 0.01373868 -0.0364612 0.02396242
0000c0 53 7c b1 bc fd 7e 57 bc d9 38 de bb 80 54 38 bc
       -0.021665728 -0.013152835 -0.006781679 -0.011250615
0000d0 c9 a6 35 3d 67 52 12 b9 d6 8c 23 3d 53 8c f6 3c
       0.04434851 -0.00013954342 0.039929233 0.030096209
0000e0 81 ba 4f bc 60 02 36 3d 34 46 af 3c 2a a3 9b 3c
       -0.012678743 0.04443586 0.02139578 0.018998701
0000f0 e5 06 11 bd 3a 1f 26 bc c2 8d 01 bd 2f 22 8a bc
       -0.035406966 -0.010139281 -0.03162933 -0.016862003
000100 2a 04 e8 3c d9 87 d4 bc ad 4f c3 bb e5 8f 6c 3d
       0.028322298 -0.025943683 -0.005960426 0.057754416
000110 b4 ad 0d bd e9 af 98 3c 11 1d cd bc 2c 0f e0 3c
       -0.034589484 0.018638568 -0.025038274 0.027350985
000120 8b b1 0b bd cb a2 9f bb ac 8c 6c 3c 2d 91 65 3d
       -0.034104865 -0.0048717014 0.014437836 0.056046654
000130 59 d5 da 3c c9 e2 54 3d f8 e5 36 bd 5c ed 42 bb
       0.02671306 0.05197409 -0.04465291 -0.0029743528
000140 65 82 af bc 4a cf ee 3c e8 1d 3f 3d 3e 90 1e 3d
       -0.021424482 0.029151578 0.04665938 0.03871178
000150 ef 3f 08 bd 35 0c 49 3d 74 08 bb 3c d3 3b fb 3c
       -0.033264097 0.049083907 0.02283118 0.030668175
000160 37 ff 03 bd 00 94 43 3d 5a 07 df 3b 18 0f b9 bb
       -0.032225814 0.047748566 0.0068062963 -0.0056475513
000170 e9 4d 25 3c d2 60 bd 3c d2 17 26 3d 29 f9 ea bc
       0.010089376 0.023117457 0.04055006 -0.028683262
000180 d7 0d b3 ba 8f eb d4 bc b5 06 8b 3c 96 60 04 b9
       -0.0013660741 -0.02599123 0.016970972 -0.00012624482
000190 b3 d9 4c bc 26 9c 1d bd d6 9b c6 bc d3 dc dd 3c
       -0.012503075 -0.038478993 -0.02424423 0.027082836
0001a0 d0 14 86 bb df 20 91 3c 97 14 1f 3c fe 75 22 3c
       -0.0040918365 0.01771587 0.009709499 0.009915827
0001b0 c5 fb b6 bc 56 cb 1a 3d d0 7a 02 3d 26 05 af 3b
       -0.02233685 0.037791573 0.031855404 0.00534119
0001c0 3d c4 10 bd fd 88 4b bd 8f 34 12 bd 74 69 23 bd
       -0.035343397 -0.04969119 -0.035694655 -0.03989549
0001d0 95 81 b6 bc 33 c9 c9 bc 4e 04 1e 3d 77 1d 85 bc
       -0.022278586 -0.024632072 0.038578324 -0.016249401
0001e0 ac c5 84 3c 23 8a 30 3c 12 60 0c 3d b9 56 76 3b
       0.016207539 0.010775122 0.034271307 0.0037588312
0001f0 bd 7d d6 bc ca b5 f7 3c 6a 9b 0a bc 4a 2b bb bc
       -0.026183004 0.030238051 -0.008459905 -0.02284779
000200 dd 2f 21 3c 0b a0 03 bc cf c9 82 bd 97 33 05 3d
       0.009838072 -0.008033763 -0.06386148 0.032519903
000210 cf 55 b6 3c eb e8 74 3b d0 3f 77 3c ec e4 04 bc
       0.022257714 0.0037370275 0.015090898 -0.00811122
000220 25 e2 ee bc 6b 63 8c 3c 1e bb 17 3d 83 00 00 bd
       -0.029160568 0.01713725 0.037043683 -0.031250488
000230 cf cb f7 3b 55 66 f6 3c fd 45 69 39 92 27 17 bd
       0.0075621377 0.030078093 0.00022246684 -0.03690297
000240 4c 01 50 3c 08 aa c7 bc 8d ac 3a bd ad c8 fc bc
       0.012695622 -0.02437307 -0.045574713 -0.030857408
000250 45 95 d6 bc ff 1b c3 bc d4 51 05 3d fe 0a 76 bb
       -0.026194224 -0.02381706 0.03254874 -0.0037543173
000260 2d 1d 85 3c 61 2f 52 ba d9 0b b0 bb 67 10 14 3d
       0.016249264 -0.0008017924 -0.005372506 0.036148455
000270 73 5b f1 3c 05 d8 3f 3d c7 81 a7 3c dc 09 66 3d
       0.029462552 0.04683687 0.020447625 0.056161746
000280 e8 09 b3 bb 0c 6a 38 3d 64 ac be 3c 9e e2 fc ba
       -0.0054638274 0.04502301 0.023275562 -0.0019293611
000290 ba f8 f6 3c d0 ec d3 3c 54 91 dd bc 51 21 d1 bb
       0.030147899 0.025869757 -0.027046837 -0.0063821455
0002a0 3b f0 03 3d 04 69 4b 3c 69 5f de 3a 32 e3 c1 3c
       0.032211524 0.012415174 0.001696569 0.023667905
0002b0 56 7d 4c bb ba 64 01 bd 84 74 4d 3c 32 8f 77 bd
       -0.0031202636 -0.0315902 0.0125399865 -0.060439296
0002c0 08 95 fb 3c f0 c1 36 bd 74 e4 f5 3b c4 d2 95 3c
       0.030710712 -0.044618547 0.0075040404 0.018288977
0002d0 2f fb 89 ba f9 7b cf 3c b6 19 cb 3b ca 9d 8f bc
       -0.0010527129 0.02532767 0.0061981333 -0.017531294
0002e0 a6 97 8a 3c 95 08 71 bc c4 54 dc bc 0d 79 fc bc
       0.016918015 -0.014711519 -0.026895888 -0.03081944
0002f0 59 a4 24 3d 89 0c 46 3d c9 88 99 3b 28 d9 84 3c
       0.040195797 0.0483518 0.0046854955 0.01621683
000300 a3 ab 69 3c 7f 78 d4 ba 04 6f 49 bd 11 07 aa 3b
       0.014262113 -0.0016210227 -0.04917814 0.0051888307
000310 8a 72 06 bd 89 72 e1 ba 80 30 46 bc 5b bc c0 3c
       -0.032824077 -0.0017200272 -0.012096524 0.023527315
000320 8f a0 bf bc 72 ae 33 bd 87 fc 3b bd 7c f1 7c bc
       -0.02339199 -0.043867536 -0.045895126 -0.015438434
000330 3e d1 cf 3c ca 47 8c 3c b2 48 e7 3c 4c bc 37 bd
       0.02536833 0.017124075 0.028232906 -0.04485731
000340 72 f2 45 bd f2 da d6 3c 9b bb 28 3c 82 7e a3 3c
       -0.048326917 0.026227448 0.010298635 0.019957785
000350 b2 16 b1 bc ac f6 1b 3d 32 94 b9 bc 40 c2 d5 ba
       -0.021617267 0.03807704 -0.022653673 -0.0016308501
000360 dc f8 12 bc 88 af 52 bc 1a 6c 88 3c cf b4 83 bc
       -0.0089704655 -0.012859233 0.01665311 -0.016077427
000370 5d 8d 4a 3b ca 76 84 3c a3 4e 7b 3c 0a 45 da 3b
       0.0030907013 0.016169924 0.015338573 0.006661062
000380 7d bb 1f bd ae c2 1a 3d c8 2c d9 3c ab 40 05 bb
       -0.038997162 0.037783317 0.026510611 -0.0020332735
000390 3c a1 11 3d 1a 30 88 3c 75 18 d8 3c c3 99 d8 3b
       0.035554156 0.0166245 0.02637885 0.0066101267
0003a0 db 6f ba 3b a5 56 bd 3c 39 ca bd bc ee e3 7a 3c
       0.0056896037 0.023112604 -0.023167716 0.015313132
0003b0 e7 7d 4b 3c 7e 56 76 bc c4 4d f8 bc 0d c9 e1 3c
       0.012420154 -0.01503527 -0.030310519 0.027561689
0003c0 94 af cf bc 25 74 68 3c 80 bf 95 bb 0b 98 1b bd
       -0.025352277 0.014187847 -0.0045699477 -0.037986796
0003d0 51 7f ce 3c 79 53 2f bd ee d1 0e 3d b0 b8 24 bd
       0.025207194 -0.042804215 0.034868173 -0.040215194
0003e0 ab 8f 6b 3c eb 83 3a bd 02 84 38 3c ba f1 08 3d
       0.014377515 -0.045535963 0.011261942 0.033433653
0003f0 31 8e 57 3c bf b6 03 3d 98 95 b1 bc 76 1e df bc
       0.01315646 0.032156702 -0.021677777 -0.027236205
