e_model_files/e_model/eSR-TR_s3_K3_C3.pth (torch, 775160 bytes, 80 tensors)

layer.filter.weight f4 [243, 48, 3, 3]
000000 8a 19 6b 3c f0 6e 13 3d 86 62 b4 3b 39 fd 47 bd
       0.014349351 0.03599447 0.005504909 -0.048825476
000010 d6 05 80 3f ac 17 36 bc 88 88 70 3b 02 f5 bf bc
       1.0001781 -0.011114042 0.0036702473 -0.023432259
000020 dd e6 9f bb de 79 59 bb 17 87 20 3d 00 63 5a 3c
       -0.004879816 -0.003318421 0.03919133 0.0133292675
000030 da 57 3c 3b 5c f6 3c bd e9 9e 96 bc 41 c1 f6 3b
       0.0028738887 -0.046133384 -0.018386321 0.007530362
000040 d7 e6 df bc 5d e0 4a 3c 12 59 3c bc 31 17 fc bb
       -0.027331753 0.012382594 -0.011495845 -0.0076931943
000050 6e 96 ee bc 13 59 f8 bb 6e 89 14 3d 88 3f 13 3d
       -0.029124465 -0.007578978 0.036263876 0.03594926
000060 70 43 2a 3d ab bc 67 bc d1 ae 45 bc ce ef 85 bc
       0.04156822 -0.014144103 -0.012065605 -0.0163497
000070 3b c4 c4 3b ec 70 e0 3c 40 c1 fa bb c6 c7 3e 3b
       0.006004838 0.027397595 -0.0076524317 0.0029110773
000080 b3 ea f3 3c 04 09 89 bc d0 5c b5 bc 69 4a 52 bb
       0.029775 -0.016727932 -0.022138983 -0.003208781
000090 bf a5 1e 3d 28 1d 0e 3d 7b 45 38 bd c1 1e a3 3c
       0.038732287 0.034695774 -0.044988137 0.019912126
0000a0 ca a1 97 3d a1 74 a2 3b 4a 37 29 3c 5c c8 65 bc
       0.07403906 0.004957751 0.010328123 -0.01402482
0000b0 02 e0 59 bc 3c 80 2f bc 61 89 49 3d 72 14 dd bc
       -0.0132980365 -0.010711726 0.04920328 -0.026987288
0000c0 87 dc 15 bd 63 9b ec bc 45 81 5c bc 16 83 94 bc
       -0.036587264 -0.028882688 -0.013458555 -0.018128913
0000d0 bb 91 69 3c 82 47 dc 3b f7 bc b6 3c d2 b3 9f bc
       0.014255936 0.0067223916 0.022306902 -0.019494925
0000e0 31 56 25 3c 6b 38 d7 bc 1b d8 0b bd aa 55 0f 3c
       0.01009135 -0.02627202 -0.03414164 0.008748451
0000f0 07 f5 89 bc 20 ba 07 bc 29 9a 2e bb b3 6c 16 bd
       -0.016840471 -0.008284122 -0.002664218 -0.036724757
000100 e6 93 f8 3c b3 d2 b9 bc 7e 89 53 bd 4e fd 91 3d
       0.030343961 -0.022683477 -0.051644795 0.07128392
000110 a6 22 9a 3c 43 60 6d bb f9 ad fd 3c 7b 28 29 3c
       0.01881535 -0.0036220707 0.030966746 0.010324593
000120 e9 75 fd 3c 18 7d bf bc 0d 0a b1 bb 4c d8 23 3c
       0.030940013 -0.023375079 -0.0054028095 0.0100003
000130 e8 60 13 3d a0 66 a4 3c 29 2d 68 3a a7 da 33 3c
       0.03598109 0.020068467 0.0008856827 0.010977424
000140 89 ad e1 bc eb 7b 57 3a db cc c1 bc db ae 6c 3c
       -0.027548568 0.00082200643 -0.023657253 0.014445986
000150 07 a5 5e bd 97 91 53 bd ae e6 45 3d 59 87 e5 3c
       -0.0543566 -0.051652517 0.048315696 0.02801864
000160 d2 d7 21 bc 54 b9 bf bb 33 72 d4 3b f7 10 e8 3c
       -0.009878116 -0.0058509503 0.00648334 0.028328402
000170 84 63 d6 bc 2a 04 e3 bc dc 2a d7 3d 1d 04 0b 3c
       -0.0261705 -0.027711947 0.10506222 0.008484867
000180 c0 51 1e 3d 3f 74 9d 3b d3 cc 01 bc a3 6c 7a 3c
       0.03865218 0.0048051174 -0.007922369 0.01528469
000190 89 9f 59 bc 66 13 9c b9 66 d7 21 bd 9c 40 ba 3d
       -0.013282665 -0.00029769092 -0.03951206 0.090943545
0001a0 67 6a 04 bd 00 e6 a4 3c 08 13 9e bb 61 4f 49 bc
       -0.032328036 0.020129204 -0.004824046 -0.012286992
0001b0 08 5b fe 3b 2c 21 bf bb 7c cb 83 3c 3b 4b e4 3d
       0.0077623166 -0.005832812 0.01608824 0.111471616
0001c0 eb 3b bd 3b 5f e3 06 3d eb fb 21 bc 12 7b 0d 3b
       0.005774965 0.03293168 -0.009886722 0.0021588248
0001d0 94 b4 38 3c df 88 3f 3c 27 2d 23 3d d1 d7 f4 bc
       0.011273522 0.011690347 0.039837983 -0.029888066
0001e0 0a ab 86 bb d4 93 c4 ba bd ef 40 bc 70 4a 5c bb
       -0.004109745 -0.001499767 -0.011775908 -0.0033613704
0001f0 a1 35 21 3c 3a ca 1c 3c e0 53 88 bd ad 42 aa bb
       0.009839446 0.009569699 -0.06656623 -0.0051959367
000200 50 19 23 3d 01 dc d4 3c 8d 84 fd 3c 5e b6 c3 3c
       0.03981906 0.025983812 0.030946994 0.02389067
000210 2c 4a b9 bb b3 c6 21 bd 17 c1 81 bb dc 69 cc bb
       -0.005654594 -0.039496135 -0.0039597857 -0.0062382054
000220 2c 22 76 bd 0a 45 f6 bc 17 81 1e 3c f8 4c b2 bd
       -0.060091183 -0.030062217 0.009674332 -0.08706087
000230 aa 6a 2d bd 05 ed ec 3c 3e 9e 38 3b c3 79 e6 ba
       -0.04233805 0.028921613 0.0028170492 -0.0017583895
000240 9f a4 54 3d f5 da 33 3d 89 40 5f bd a1 96 8d 3d
       0.051914807 0.043909986 -0.054504905 0.06913496
000250 78 08 07 3d 73 b7 08 bd 8c f4 08 3d 33 2f a2 bc
       0.03296706 -0.033378076 0.033436343 -0.019797897
000260 e5 e5 b7 3c 76 a7 b2 bc 02 7f 8f 3d e2 b0 64 bc
       0.02244849 -0.021808367 0.07006647 -0.013958188
000270 0b ec 84 bb 99 9c 75 bd 69 80 9d bc dc 46 3d bc
       -0.004056459 -0.059963796 -0.01922627 -0.011552539
000280 0c 3b ca 3b c2 8f 77 3b d4 97 9b 3c 34 20 dd bc
       0.0061715897 0.0037774895 0.018993296 -0.026992895
000290 f8 82 a8 bc 91 20 5d 3c d7 e1 a1 3c 84 bf 83 bb
       -0.020570263 0.013496534 0.01976101 -0.004020633
0002a0 f4 25 f8 bc eb df a1 3c 66 b8 8f 3b 51 bc 21 3d
       -0.030291535 0.019760093 0.0043859957 0.039486233
0002b0 4b 33 09 bd 27 34 05 bd ad 26 5e 3d be e0 16 3d
       -0.033496182 -0.03252044 0.054236103 0.036835425
0002c0 71 93 83 bd e6 ac 42 3c 8b d9 fd 3a 8c 33 7e bc
       -0.064246066 0.0118820425 0.0019367201 -0.015515219
0002d0 43 42 d2 3c dc f6 73 3d 97 f3 05 bd bc a5 6a 3d
       0.025666362 0.059561595 -0.03270301 0.057286963
0002e0 56 a8 e8 bd 0a 0f b5 3c e2 7d f3 ba af e5 0a bd
       -0.113602325 0.022101898 -0.0018576945 -0.03391045
0002f0 0e 63 d5 bc ce b2 2f bc 65 7a d6 bc 0c 03 35 bd
       -0.02604821 -0.010723783 -0.02618141 -0.04419236
000300 b6 11 f1 3b 66 0f 85 bd 63 5d 7b bd 08 68 aa bc
       0.0073568476 -0.06497078 -0.061368357 -0.02080156
000310 11 35 d3 bc 19 a8 1b 3c fc ae 28 bd d4 ed 33 bd
       -0.02578214 0.009500527 -0.041182503 -0.043927982
000320 e5 cb 0e bc d4 40 31 3c 74 14 b0 bc 32 c7 87 bd
       -0.008715604 0.010818679 -0.021494128 -0.0662979
000330 48 bd 25 3b 04 70 84 3c 0b fc 54 bb 2e f0 8f 3c
       0.0025289822 0.016166694 -0.0032498862 0.017570581
000340 32 e5 5e 3d 92 76 91 bc 11 62 dd 3c 82 1d 86 bd
       0.054417796 -0.017756734 0.0270243 -0.06548597
000350 34 f5 2d bd 3c 4c 7b bc 78 4f 1d 3c 26 39 87 3c
       -0.042470172 -0.015338 0.009601466 0.016506743
000360 82 be 23 3a 03 d1 8d 3c db ce c4 3b 2a 64 02 3d
       0.00062463444 0.017311579 0.0060061044 0.031833805
000370 18 36 0d bd 5a 0f ab 3d 08 8c af bc c5 12 35 3c
       -0.034475416 0.083525375 -0.021429077 0.011051838
000380 46 7c a1 3a 75 cb ab bc 13 d2 ee bc 91 d0 c2 bb
       0.0012320362 -0.02097104 -0.029152906 -0.005945273
000390 de a3 0b bd 0d cc e3 3c 1a 9d db bc 11 a9 99 bd
       -0.034091823 0.02780726 -0.02680831 -0.0750295
0003a0 0b bc 7c bc c1 55 2f 3c d9 87 f6 3b dc a5 e5 bc
       -0.015425692 0.010701598 0.0075235185 -0.02803319
0003b0 98 f0 02 bd e7 06 12 3d e2 78 36 3d 27 57 d3 bc
       -0.03196773 0.035651114 0.044548877 -0.025798393
0003c0 5d 9e 2b 3b d6 db 52 39 56 4e 2a 3c 2b 4b ea bc
       0.0026186921 0.00020109056 0.010394653 -0.028600296
0003d0 79 d3 f7 3c 53 f4 02 3c 57 72 bf 3b 6e 2a aa 3d
       0.030252205 0.007992822 0.005842488 0.08308874
0003e0 8c 7f 20 bc 59 79 ab bc 70 33 85 ba 32 01 a6 bb
       -0.009796035 -0.020931887 -0.0010162424 -0.0050660605
0003f0 66 5d fa 3c 0b a7 8d 3d 01 84 b5 3c 40 43 c8 3d
       0.030562114 0.069166265 0.02215767 0.09778452

rca.ca.conv_du.0.weight f4 [3, 48, 1, 1]
000000 48 69 06 3e f0 b7 ba bb 48 cf 8a bc 39 67 85 3d
       0.13126099 -0.0056981966 -0.016944543 0.06513829
000010 c7 23 77 bd 3a ff cf bd c2 79 b1 3d 3c 0a a7 3d
       -0.060336854 -0.101561025 0.086658016 0.08156249
000020 a0 00 da bd 9d ab 6d bb 4e 5a 68 3d 3f 9b d6 bc
       -0.106446505 -0.003626562 0.056726746 -0.026197074
000030 0b 4a 01 3e 7d 95 0b bc 0f 6e f6 3d 2f b8 d4 bb
       0.12625901 -0.0085195275 0.12032711 -0.006491683
000040 c6 3e bb bc 82 c8 9c 3d 72 81 65 3d 63 65 6f 3c
       -0.022857081 0.07655431 0.05603165 0.014611575
000050 e4 9d 96 bd d0 54 d6 bd 5a d7 c0 3b 30 94 e5 bd
       -0.07354334 -0.104653955 0.005885047 -0.11209905
000060 46 96 bd bb 0f 6b d4 bd c0 2f 4e bd 70 c1 aa bd
       -0.0057857363 -0.10371982 -0.050338507 -0.083376765
000070 27 3c 01 3b ed 7c 62 3d 1e a5 8c 3d bb fc 98 bd
       0.0019719691 0.05529492 0.06867431 -0.074700795
000080 fb 7e ff bd ed 05 34 3d 79 55 ae bd 0c ff ef 3b
       -0.124753915 0.043950964 -0.08512396 0.007324105
000090 59 0a 57 3c 97 54 e1 3c 21 17 a5 3c 4e 37 52 3a
       0.013125026 0.027506156 0.02015263 0.00080191053
0000a0 8f 0e ed bd d0 f9 24 bd 12 59 24 3e c0 64 0a 3b
       -0.115750425 -0.040277302 0.16049603 0.002111718
0000b0 bd 3f a7 3d a3 12 be 3d 29 cd f6 3d 4c e6 e4 3d
       0.08166454 0.092808984 0.1205085 0.11176738
0000c0 0c 65 c4 bc 0c 80 8d bd 48 0d ce 3d a0 f9 07 bd
       -0.023973964 -0.06909189 0.10061127 -0.033197045
0000d0 2c fa a8 3d 93 3f bd bd d3 7a f6 bc a4 f9 e9 bd
       0.082508415 -0.092406414 -0.030087864 -0.11424568
0000e0 a8 a3 86 3a 0d d7 2e 3d 62 98 2a bd 72 b1 fd bd
       0.0010272162 0.042685557 -0.04164923 -0.12387361
0000f0 09 20 a1 bd ea b6 c3 3d b0 66 57 bd 2c 29 00 be
       -0.07867438 0.095563725 -0.052588165 -0.12515706
000100 6e 5b 28 3e 06 2b f8 bd f0 9b 1b be b7 ee f0 bd
       0.16441128 -0.12117581 -0.15196204 -0.11764281
000110 2a 09 69 bd fd f3 f8 3c a3 ab 88 3d 8d 89 85 39
       -0.056893505 0.03038978 0.06673362 0.0002547022
000120 1e 87 45 be 2a 9e de bd fd df e2 3d 39 1e 4f bc
       -0.19289824 -0.10870011 0.110778786 -0.012641483
000130 4e 8f 93 bd fd 01 cd bd 14 7e bd 3d ca 8b a9 3d
       -0.072050676 -0.10010145 0.09252563 0.08278616
000140 3c ec 5e be ce 4d a1 bc 77 8d 87 bd 58 da 48 bd
       -0.21769804 -0.01969042 -0.06618779 -0.049036354
000150 82 48 13 3e a2 1f ac 3d ef ee ad bd 1d 32 ea bc
       0.14383128 0.08404471 -0.084928386 -0.028588349
000160 0f 61 1f bd 23 cd b6 3d 1d 22 25 3b 49 ee b9 bc
       -0.03891092 0.089258455 0.0025197335 -0.022696631
000170 4a f6 70 bd 30 05 f1 bd c1 3d 77 3d 7e 0f b8 3c
       -0.05882863 -0.117685676 0.060361627 0.022468325
000180 69 21 ad 3d 30 8b 8d bc 82 cb 8a bd 68 16 3d 3d
       0.08453638 -0.017278284 -0.06777097 0.046163946
000190 6f 5c fe bd f4 b4 74 3d 35 71 cc 3d 27 b2 d2 bc
       -0.12419974 0.059742883 0.0998253 -0.025719715
0001a0 02 1c 85 3d b7 cc 8e bc 35 a4 31 bd 88 71 85 bb
       0.06499483 -0.0174316 -0.04336949 -0.004072372
0001b0 dd 35 97 bd 03 d3 4f bc 1c f2 00 bb 61 55 d9 bd
       -0.073833205 -0.012684586 -0.0019675558 -0.10611988
0001c0 2f ec a3 3d d4 54 0d be 2f e3 18 be d0 aa 94 3c
       0.08004033 -0.1380189 -0.14930414 0.018147856
0001d0 89 dc 82 bd ed 1d 94 3d 9a 5d 58 3c b4 26 6a 3c
       -0.0638972 0.072322704 0.01320591 0.014291454
0001e0 bf 7f 85 bc 6d 9f 24 3e 9c c5 33 3d fb 23 7e 3d
       -0.016296266 0.16076441 0.043889627 0.062046032
0001f0 95 33 ed bd 40 bc c2 bd 50 5f ed bd e2 f7 f2 bd
       -0.11582104 -0.09508562 -0.11590445 -0.11863686
000200 f9 d8 7e bd b4 83 eb 3d ef 94 39 3d 5b bc da 3d
       -0.06221864 0.1149973 0.04530805 0.10680457
000210 fe a5 04 3c d8 b9 ec bb 31 9a 4f bc a2 fb f7 bc
       0.008096216 -0.0072243027 -0.012671039 -0.030271355
000220 5b 30 3d 3d 7d a6 d3 bc 44 96 97 bd 12 e4 a7 3d
       0.046188693 -0.025836224 -0.07401708 0.08197798
000230 85 1b 89 3d 33 3e b7 bd b2 60 72 bd f1 30 0b 3e
       0.06694702 -0.089474104 -0.059174247 0.13592888

rca.ca.conv_du.0.bias f4 [3]
000000 18 97 95 bd b6 dc e7 3d e2 8e b0 3e
       -0.073042095 0.11321394 0.3448401

rca.ca.conv_du.2.weight f4 [48, 3, 1, 1]
000000 b0 47 a5 3d ee 3e f2 bd dd 6d dc bc 00 3c 40 be
       0.08070314 -0.11828409 -0.026907856 -0.18772888
000010 b1 f7 34 3e 5e ab 52 3c cc 5f 91 3d e6 be 4d 3d
       0.17672612 0.01285824 0.0709835 0.050230883
000020 93 24 f3 3b 05 65 23 bb 2b 80 2d be 2e c6 37 be
       0.0074201315 -0.0024932039 -0.16943423 -0.17946693
000030 58 9b 00 3f 81 2d 3e be 17 27 77 bd 74 37 da 3c
       0.50237036 -0.18572046 -0.060340013 0.02663777
000040 9b 13 04 bf 5e b3 9e 3c a9 d9 a3 3e 57 13 c2 bd
       -0.51592416 0.019372638 0.32002 -0.09476345
000050 04 4e 85 3f 02 24 76 3e b1 37 00 3e b1 12 15 3e
       1.0414433 0.24037173 0.12521245 0.14557911
000060 d4 e9 ba 3e 78 b2 03 bd ca d6 b8 3c c0 4c e4 3e
       0.36506522 -0.032152623 0.022563357 0.44589806
000070 84 a5 4e be e1 ad 0c 3f 8c 09 92 3e 73 2b 0b 3f
       -0.20180327 0.5495282 0.2852291 0.54363173
000080 4c 5b 86 be 2d 2d bc 3e a0 bf 1e 3e 94 ba 1f be
       -0.2624153 0.36753216 0.15502787 -0.15598518
000090 32 19 8d 3e b6 ce a3 3d b3 f1 ba 3e b2 2d 82 bb
       0.27558285 0.07998411 0.36512527 -0.0039727325
0000a0 81 77 09 3d 31 e9 16 3e 6e 46 95 3e 9d 4b 53 3e
       0.033561233 0.14737393 0.29155296 0.20634313
0000b0 d0 a8 de bd 33 9a a9 3d c4 28 0d bc 6d 7e 15 bd
       -0.10872042 0.08281364 -0.008615676 -0.036497522
0000c0 c7 20 18 bf 14 20 de bc b3 15 6f be 31 62 b1 3e
       -0.59425014 -0.027114905 -0.23348121 0.34645227
0000d0 cf fa 95 3e 2d 60 e5 be 68 12 81 3e 1e 57 ff bd
       0.29292914 -0.4479994 0.25209355 -0.12467788
0000e0 21 30 5d 3e b7 58 38 3e 1e a3 54 be f3 42 55 bc
       0.21600391 0.18002592 -0.2076535 -0.01301645
0000f0 c7 d4 19 3d 7c ca e9 bd 59 21 8f 3d b2 ca c2 3e
       0.037556436 -0.11415574 0.069887824 0.3804527
000100 77 5a 7f be 74 28 58 3e b0 38 0c be 78 6e 7e 3d
       -0.24936853 0.21109182 -0.136935 0.06211707
000110 0b 54 09 be d9 e4 a8 bd 8c e2 09 bc c5 ae 3f 3c
       -0.13410966 -0.08246774 -0.008415829 0.011699383
000120 4a 21 8a 3d 8b 53 a8 3e a3 75 9d be 2f c0 0f be
       0.06744631 0.32876238 -0.30753812 -0.14038156
000130 3f f2 17 be 61 9d a6 3c f5 8a e5 3e 0a 7b c8 be
       -0.14838503 0.020338716 0.44832578 -0.3915637
000140 11 74 2e 3e c3 1c 30 3f 7b a8 b9 3d e3 f7 03 bd
       0.17036463 0.68793887 0.09065338 -0.032218825
000150 7a 98 26 3f c9 c4 43 3e 09 f6 8d 3e 90 22 2f be
       0.6507641 0.19118036 0.27726772 -0.17103028
000160 78 56 56 3e 74 d2 92 3c fd ee 99 3e dc f4 04 be
       0.20931423 0.017922617 0.30065146 -0.12984031
000170 75 b6 6d 3e 8d f1 a4 3e e4 ef ab be e1 97 64 3e
       0.23214133 0.3221554 -0.3358146 0.22323562
000180 5f 5c c2 3e c8 ff 58 3d 59 3a ab bc 26 dc 6c 3e
       0.379611 0.052978307 -0.020901846 0.23130855
000190 be a9 bd bd 9f 65 21 3e fd 2c aa 3c 51 a6 5c be
       -0.092608914 0.15761422 0.020773405 -0.2154782
0001a0 a4 0a 8e 3e 21 aa 97 3e 59 44 8f bd 29 83 50 3e
       0.27742493 0.29621986 -0.06995458 0.20362534
0001b0 70 e9 91 3e d5 1b e3 be 1d 47 1b 3f e0 3b c6 3e
       0.2849841 -0.44357172 0.60655385 0.38717556
0001c0 80 fc b8 3e f4 8c 8e 3d f7 d6 19 3d 9b 68 16 bf
       0.36130142 0.069604784 0.037558522 -0.58753365
0001d0 91 dc cf 3e 09 b0 a3 bc b7 83 e1 be e0 46 2d be
       0.40597966 -0.019981401 -0.44045803 -0.16921568
0001e0 8c c8 2b 3e 64 70 18 be f0 3f a1 be ee 36 0a 3f
       0.16775721 -0.14886624 -0.31494093 0.53990066
0001f0 b7 6c f3 be 3e bb e7 3d a6 78 73 be db 04 9c be
       -0.4754388 0.113150105 -0.23776492 -0.30472454
000200 65 a2 cc bc 2b f2 e5 3e 5e d6 87 3e ea 04 8e 3e
       -0.02497978 0.44911322 0.26530737 0.27738124
000210 6d b9 d9 be f4 74 77 3d f5 9a 6d 3e f3 5d fe bd
       -0.4252428 0.06041427 0.23203643 -0.12420263
000220 23 c8 eb 3e 82 6f 91 3e eb 82 52 be 99 0c 4c bd
       0.4605113 0.28405386 -0.20557754 -0.0498167
000230 b9 bb 46 bf 7e cc 09 3f cc 6a ef bd f9 36 c9 3d
       -0.7763019 0.53827655 -0.11690292 0.09824938

rca.ca.conv_du.2.bias f4 [48]
000000 b4 3a 3b 3d 82 78 f5 be 1d 81 cd 3e 93 91 45 3f
       0.04571028 -0.47943503 0.40137568 0.77175254
000010 44 b8 e1 be 93 d8 07 3e a5 98 ce 3e 40 b3 e9 be
       -0.44085896 0.1326621 0.40350834 -0.4564457
000020 47 60 06 be ae 08 9d 3e af 49 e9 3e 71 4f 6e be
       -0.13122664 0.30670685 0.4556403 -0.23272492
000030 46 f7 18 3f 37 4e 37 be 62 9f 09 bd 0e 81 ee 3e
       0.5975231 -0.1790093 -0.033599265 0.46582836
000040 5b 34 1b 3f 80 f9 32 3d d7 dd a1 3d bd 5b 56 be
       0.60626763 0.043694973 0.07903641 -0.20933433
000050 a5 14 b9 be d9 04 74 3e 02 23 d8 be 1f 43 01 be
       -0.36148563 0.23829974 -0.4221421 -0.12623261
000060 e5 22 ed 3e 49 f4 a3 be f8 55 73 bb 62 9d b7 be
       0.46315685 -0.32022312 -0.0037130099 -0.3586226
000070 b1 f7 7c 3e 08 57 c0 3e 9a b8 bc be 77 00 27 3e
       0.24703862 0.375664 -0.3685959 0.16308771
000080 fc 8a a0 3f 0b 60 88 3e b7 8e 02 3f 8e bc d5 3d
       1.2542415 0.26635775 0.50999016 0.104363546
000090 e4 fc a3 3e 62 12 45 3f 7d 2d 89 3e 7e d6 d4 3e
       0.32028878 0.76981175 0.26792517 0.41569895
0000a0 32 df 4e 3f 5c 59 a1 3c 0e 0b 46 be 38 60 b0 bc
       0.8080932 0.01969593 -0.19340155 -0.021530256
0000b0 a7 f0 ba 3d 16 dd fe 3e a3 10 74 3f 5b 35 08 3e
       0.09127932 0.4977805 0.95337886 0.13301603

rca.body.0.weight f4 [48, 48, 3, 3]
000000 96 59 9f bc 76 8e 0b 3d 85 a4 ee bc 30 29 f9 3c
       -0.019451898 0.03407141 -0.029131183 0.030415148
000010 fb 53 b3 3c 1f dc 3e 3c a1 66 06 bb 4a ea 13 3d
       0.021890631 0.011649161 -0.002050795 0.036112107
000020 d4 15 87 bc a8 82 1d 3d e3 b1 09 bc 73 de 09 bd
       -0.0164899 0.03845468 -0.008404228 -0.03365941
000030 14 bd 05 3d fb ac 48 bc f4 bd 34 bd 69 7a 01 3d
       0.032651022 -0.012248273 -0.044126466 0.03161088
000040 98 2a 24 bd 3a 1f b7 bc d9 57 97 3c 38 7a 5e 3a
       -0.040079683 -0.022353757 0.018474506 0.000848684
000050 16 32 10 bd c6 d2 30 3d 29 3f a6 bc 57 d8 4b 3d
       -0.035204016 0.04316976 -0.020293789 0.049766865
000060 61 1d 61 3d 09 15 39 bd 1e 67 45 3d 4d 26 3e 3c
       0.05495966 -0.045186076 0.048194043 0.011605811
000070 24 57 00 bc c4 b3 d9 bb e7 75 e9 3c 8d 16 ec bd
       -0.007833276 -0.006643744 0.028498603 -0.11527739
000080 f6 2c 88 bd c9 89 8f 3d b1 3e 52 bd 1b 07 24 bc
       -0.066492006 0.07008702 -0.05132932 -0.01001146
000090 95 49 40 bc d5 5e 6f 3d ce 3a dc 3c 76 6f 09 3c
       -0.011736293 0.05844005 0.026883509 0.008388391
0000a0 80 7c 16 3d 9d c3 b6 bd 6f cc a2 3c f1 a9 a7 3c
       0.036739826 -0.08924029 0.019872872 0.020466777
0000b0 cd 00 26 3d a5 b3 9a 3d 76 75 bf 3a 74 01 50 bc
       0.040528107 0.07553796 0.001460715 -0.012695659
0000c0 e1 27 ac 3c e6 e0 4b 3b 6c d9 25 bd c3 18 8c 3d
       0.02101511 0.0031109392 -0.040490553 0.068406604
0000d0 8a 51 89 bc 93 dc 47 bc 59 7f 1d 3b 32 40 9c bd
       -0.016762514 -0.012198585 0.0024032204 -0.07629432
0000e0 06 bb 0f 3c 46 f0 a8 bd f1 98 39 bd 72 4c 8b bd
       0.008772617 -0.082489535 -0.045311872 -0.0680169
0000f0 1d 19 c8 bc f7 01 15 bd 18 96 97 bc fa bf 80 bd
       -0.024426037 -0.036378827 -0.018504187 -0.062866166
000100 42 65 e0 3c a2 35 2e 3c 29 db 72 bc 22 13 2f bc
       0.027392033 0.010632904 -0.01482276 -0.010685714
000110 95 ae 54 bd f9 27 b2 bc b5 df 34 ba e7 36 b6 3c
       -0.051924307 -0.021747576 -0.000689979 0.022242976
000120 3a 14 22 3d f4 5e 0c 3d 37 e8 6e bc b7 61 d7 3d
       0.03957007 0.03427024 -0.0145817315 0.105166845
000130 7b a0 a8 3c 2c 36 a5 bd 4a 57 ce 39 6c 44 bc bc
       0.020584336 -0.08066973 0.00039356417 -0.022981845
000140 30 1e 93 bb 0d 78 d4 3b 22 00 b5 3d 68 e3 51 bc
       -0.0044896826 0.0064840377 0.08837916 -0.0128105655
000150 5d 26 0b 3e b0 e4 62 3d 48 2c ad bc 10 a4 45 bd
       0.13588853 0.055393875 -0.021139279 -0.048252165
000160 fc 27 34 bd f7 3f 15 bd be 74 b2 3c 51 90 18 bd
       -0.043983445 -0.036437955 0.021784183 -0.037247006
000170 d1 6a 3e 3b 5a f5 88 bd 93 ab 03 3c a3 01 77 bc
       0.0029055367 -0.06687422 0.008036512 -0.015076074
000180 62 47 18 bd af cb 96 bc ac 12 cd 3c 1e 26 86 bc
       -0.03717745 -0.01840767 0.025033318 -0.016375598
000190 4c 7e ff bc 93 fc 51 bc 0e 4d 81 bc 36 a4 9b bd
       -0.031188153 -0.012816566 -0.015783813 -0.0759968
0001a0 b5 9f 1a 3d bd 17 f4 bb ac dc be bc 8a 52 42 bc
       0.037749965 -0.007449119 -0.023298584 -0.011860499
0001b0 6e e8 1c bd d8 f5 14 3b 73 4f 91 bb 26 73 01 be
       -0.0383076 0.0022729542 -0.00443452 -0.12641582
0001c0 cc 3e b7 3d bc 93 12 bd d7 e4 ef 3b 8b 54 09 3d
       0.089475244 -0.03578542 0.007320981 0.033527892
0001d0 5d 36 48 bd da 73 f3 ba 7e a6 df bb 21 40 f7 3b
       -0.04887997 -0.0018573955 -0.0068252673 0.0075454866
0001e0 1d 59 54 bd f8 fe ad 3d 5d e3 82 3d 3f 58 d4 3b
       -0.051842798 0.08495897 0.06391022 0.0064802463
0001f0 4d 25 e5 3a d6 92 0e 3d 71 48 19 bc b0 07 c7 3c
       0.001748243 0.034808002 -0.00935565 0.024295658
000200 9e 17 ac 3b 52 ce 19 bb 0c 8b 67 bd a0 f5 57 3b
       0.005251839 -0.0023468924 -0.05652909 0.00329528
000210 07 97 13 bd 93 93 4c bc 80 5a 05 3d 1a a2 26 3b
       -0.036032703 -0.012486356 0.03255701 0.002542621
000220 af 47 be 3c 61 e9 7e bc 65 4d 2c bd f1 e6 11 b8
       0.02322754 -0.015558572 -0.042065997 -3.4785775e-05
000230 f9 07 26 ba 3e ed db 3c 72 5c 95 3b 3e cd 9c 3c
       -0.00063335855 0.026846524 0.0045581395 0.019140836
000240 a9 20 8c bc 59 59 06 bd 1d 79 a9 bd 5b b5 45 bd
       -0.017105417 -0.032800052 -0.08275054 -0.048268657
000250 6a 8b 29 bd 1f af 93 bd 50 f9 a1 bd 78 39 1f bd
       -0.04139272 -0.07211136 -0.07908881 -0.038873166
000260 aa a7 54 3b dd 01 06 bd a4 02 62 bc ce 88 72 3c
       0.0032448568 -0.03271662 -0.013794575 0.014803125
000270 9f d4 fb 3b 8d 22 9c 3a 72 d6 c5 bb 49 92 9c 3c
       0.0076852585 0.0011912152 -0.0060375268 0.019112723
000280 e0 a2 8b 3c 23 29 bd 3b 46 63 db bb 5e 26 d4 bc
       0.017045438 0.005772726 -0.006695184 -0.025897201
000290 06 c5 96 3c 27 f0 cd bc ff 52 0e 3d dd 7d 1b 3d
       0.018404495 -0.025138928 0.03474712 0.03796183
0002a0 b8 bc 05 3d cc f9 70 3d 52 91 ba 3c e6 1f a9 b9
       0.03265068 0.058831975 0.022774372 -0.00032257958
0002b0 2a 46 8e bc df a6 b5 3c 05 97 cb bd 51 a0 b7 3d
       -0.017367441 0.022174297 -0.09940914 0.08966125
0002c0 29 6e a4 bc da cc 13 3b b3 71 55 3d 1e f6 28 3c
       -0.02007206 0.002255252 0.052110385 0.010312585
0002d0 48 1d 0d bd 75 e5 aa bc fa 1d bd 3c dd 20 91 bd
       -0.034451753 -0.020861367 0.023085583 -0.07086346
0002e0 ed ce 24 3d 2c 6d 61 3c e7 4b f6 bc 22 d4 e6 bb
       0.040236402 0.013758939 -0.03006549 -0.007044331
0002f0 e3 59 5c 3a f9 ed 18 bc 11 b5 15 3d ce 63 35 3c
       0.0008405728 -0.009334081 0.03654963 0.011071159
000300 7b cd 82 3d 53 ab a8 3c 72 e2 85 3c 5e 04 54 39
       0.063868485 0.020589506 0.01634333 0.00020219522
000310 bc cd 02 3d 98 bc af bc f8 bd 31 bd 7b d0 94 3c
       0.031934485 -0.021452233 -0.04339406 0.018165817
000320 c0 88 84 bd e3 46 3a bd 67 80 35 bd af dd 10 bd
       -0.064713955 -0.04547776 -0.044311907 -0.035367664
000330 dd 9c ad 3c 04 35 5d bc 25 65 f8 3b 85 a3 27 3d
       0.021192962 -0.013501409 0.0075804167 0.04092743
000340 62 b9 35 3c 34 fc 2c 39 f9 77 89 3d b9 fb c0 3b
       0.011091562 0.00016497151 0.06712336 0.0058893827
000350 a5 c2 3f 3d 89 e9 a8 3c 6c 34 48 bd f6 92 9b bc
       0.046816487 0.02061917 -0.04887812 -0.018990975
000360 f5 28 49 bd 3b 1f af bd 5b 08 22 bc 8b 7d 57 3b
       -0.049111325 -0.085508786 -0.009889687 0.0032881226
000370 05 e9 e3 bb b2 cf c4 3b 75 1d 09 bc 13 75 e5 3c
       -0.0069552683 0.0060062045 -0.0083688395 0.028009927
000380 4e a1 32 bd 10 52 62 3b 14 f7 c8 3c 80 e7 ce 3c
       -0.043610863 0.0034533776 0.024531879 0.025256872
000390 1f 32 f7 bd 12 eb 05 3c 6c 4e 4f bd e0 23 02 3d
       -0.12070107 0.008173721 -0.0506119 0.031772494
0003a0 6d 11 52 bd 46 09 fc ba 28 9f 57 bd 67 48 39 3c
       -0.05128615 -0.0019228838 -0.052642018 0.011308766
0003b0 26 1f 15 bd 6d 0a b6 bd 4f a2 44 3c 86 ca ed bc
       -0.03640666 -0.08888707 0.012001588 -0.029027235
0003c0 67 12 89 bc 46 e9 70 bd 81 4b 88 3c b6 99 3e bb
       -0.016732408 -0.058816217 0.016637566 -0.0029083318
0003d0 a9 d0 35 bc a0 bd 0f 3c 2c 51 1c bd 54 db cb bc
       -0.011097112 0.0087732375 -0.03816335 -0.024884857
0003e0 ef 30 40 3c df 7d 0e 3d a4 8b a4 bc 28 30 51 bd
       0.011730417 0.03478801 -0.020086117 -0.051071316
0003f0 f1 8c 44 bc b7 1d 38 bc a5 5f f4 3c 9a a6 52 bd
       -0.011996494 -0.011237553 0.029830763 -0.051428415

rca.body.0.bias f4 [48]
000000 8b 2b 9b bd da eb da 3e 40 47 3d 3e 4d 01 0d 3d
       -0.075766645 0.42758065 0.18484211 0.03442507
000010 4d d9 d7 bc 0b ff 22 3e 32 64 6b 3e bb 5f c2 ba
       -0.026348734 0.15917604 0.2298744 -0.0014829555
000020 68 21 79 3d 72 d7 39 be 38 b9 ee bd 34 b1 c0 3d
       0.060822874 -0.18148592 -0.116564214 0.09408799
000030 e4 82 be 3e 2d 8d 69 3e 90 ed 9c 3d e5 6d e2 be
       0.37209237 0.2280776 0.07662499 -0.44224468
000040 11 31 50 3e 81 7f 83 bd 77 9d d9 bd ba 2c 0c be
       0.20331217 -0.06420804 -0.10625737 -0.13688937
000050 78 d9 8a 3d 0d 2e f5 3d 4b bc 93 3e 39 23 eb 3d
       0.0677976 0.11971674 0.28854594 0.114813276
000060 93 e9 94 3e 58 2b 58 3e e7 89 12 3e 0b c6 14 be
       0.29084453 0.21110284 0.14310418 -0.14528672
000070 f4 cf 1a be f7 09 29 3e ad 66 df be 65 dd a8 bd
       -0.1511839 0.16507708 -0.43633023 -0.08245353
000080 56 f8 f4 3e 60 91 0e 3c 99 04 14 3e 04 1e e5 3c
       0.47845715 0.008701652 0.14454879 0.027968414
000090 ea 08 5a bc af 02 2c 3b 5b 11 0c be dc d3 02 bf
       -0.013307789 0.0026246717 -0.13678496 -0.5110452
0000a0 9d 90 87 be 8f 31 3e 3d 95 89 63 bd 2d 39 86 3e
       -0.2647752 0.04643398 -0.05555113 0.26215497
0000b0 4a c0 2c 3e 6e 08 4a be 48 5b 7f 3b 60 fe 58 3c
       0.16870227 -0.19729778 0.003896432 0.0132442415

rca.body.2.weight f4 [48, 48, 3, 3]
000000 51 02 b3 bc 5d 3a 53 bd 32 ca bc bb a7 91 41 bc
       -0.02185169 -0.05156933 -0.0057614082 -0.011814511
000010 c0 06 12 bd f3 70 a2 3b b7 33 89 bc 4f 4e c8 bc
       -0.03565097 0.0049573123 -0.016748292 -0.024451403
000020 85 db d2 3b b3 f0 97 3c 6a b0 8c 3b 33 d5 e1 3c
       0.00643486 0.018547392 0.004293491 0.027567482
000030 36 2c b1 bc 57 68 2d 3c 77 24 62 bc 19 e5 a0 3a
       -0.021627527 0.010583959 -0.013802639 0.0012275308
000040 9e bf a2 3b 33 9b 98 bc c5 4c 46 3e f5 5d 33 bd
       0.00496669 -0.018628692 0.19365223 -0.043790776
000050 0e 3e 62 3d 53 bb bc bc 6b 29 55 bd d1 b9 c9 bc
       0.05523496 -0.023038542 -0.052041452 -0.024624737
000060 ce f4 ee bc 96 96 44 bd 33 42 79 ba 2d bd c2 bb
       -0.029169466 -0.047995172 -0.00095084606 -0.0059429617
000070 e9 29 0e bd 2a 99 8e 3d b3 1e b5 bc fa 4b de bc
       -0.034707937 0.069628075 -0.022109365 -0.027135838
000080 16 11 8d bc 31 ad fb 3a 06 15 67 bc 4a 77 75 bc
       -0.017220061 0.0019201395 -0.0141041335 -0.014982054
000090 62 d1 43 3b 2a d2 26 3c 0e e2 13 be c6 8c 5e 3c
       0.002987944 0.010181943 -0.14441702 0.013583368
0000a0 33 4b 53 bd 66 63 97 bc 9a 26 55 3c 68 82 5b 3c
       -0.051585387 -0.018480014 0.013009692 0.0133977905
0000b0 b3 9f 4a 3c c2 ab 54 bc aa a4 bf bb c1 0c a4 3c
       0.012367177 -0.012980403 -0.005848487 0.020025613
0000c0 71 37 a5 bc 36 31 08 3d ed 8b 69 bc 62 ef a0 bc
       -0.020168038 0.033250056 -0.014254552 -0.019645397
0000d0 10 6a 76 3c c9 68 d0 bb 21 49 48 3c c9 6f bc bc
       0.015039936 -0.0063601476 0.012224467 -0.023002522
0000e0 28 87 0c 3b 70 ec 6d 3c e2 75 8d bc d7 2b 2d bc
       0.0021442864 0.014521703 -0.017268125 -0.010569534
0000f0 37 1f 97 39 65 87 dc 3b 7d c1 5c 3c 5c 72 39 3d
       0.0002882422 0.0067300075 0.013473866 0.045275077
000100 e2 bc 16 3c 3e d6 26 bb 95 9f 92 3d 25 3b cc bb
       0.009200307 -0.0025457288 0.07159344 -0.0062326365
000110 64 7b 95 3b 87 fe 36 3c 97 32 9d bc 45 92 2f bc
       0.0045618284 0.0111690825 -0.019189162 -0.010716026
000120 51 67 3f 3d e8 1f 8d bc 08 da 19 3d bb cd a0 3c
       0.04672939 -0.017227128 0.037561446 0.01962935
000130 50 c3 45 3d 7b 70 da 3c 9a c3 87 bb df 7e 86 39
       0.048281968 0.026664963 -0.0041431906 0.00025652998
000140 5f 32 b8 3c ac 34 c0 3c 4b a3 2b 3c 2f e5 2c 3c
       0.022484956 0.023462616 0.010475944 0.0105526885
000150 71 ab 8d ba 6c a0 c4 bc 74 a0 73 bc d3 96 df bc
       -0.001080854 -0.024002276 -0.014869798 -0.027293598
000160 31 00 36 bd 2c b1 fb bb f3 ba 70 3d b2 05 5a bc
       -0.044433776 -0.0076810326 0.05877204 -0.013307022
000170 cf 8b 3a bb 2e 48 21 3d ec c2 82 bc b1 85 fb ba
       -0.002846468 0.039375477 -0.015962087 -0.0019189623
000180 8c ef 13 3b bd 84 6e bc e0 8f 8b 3c 5d 21 16 bc
       0.00225732 -0.014558014 0.017036378 -0.009163228
000190 c4 61 6f 3b 95 6b 04 3d e4 2f 2c 3c 11 55 e2 39
       0.0036526779 0.03232916 0.010509465 0.00043169459
0001a0 1d 09 11 bc 26 75 3c 3d e2 11 a6 3c 69 70 f1 3b
       -0.00885227 0.04601016 0.020272199 0.0073681367
0001b0 a6 7f 9f bc 7d 7f 7d 3b b6 76 ef bc ff d0 7c bc
       -0.019470047 0.0038680725 -0.02923141 -0.015430688
0001c0 74 d7 4f bd 77 1a 8d bb 5d 63 0b 3c 89 ac 80 bb
       -0.05074258 -0.0043061334 0.008507577 -0.003926818
0001d0 0a 45 12 bd 52 ef 2c bd 55 8e a8 bb 1a 47 ff 3c
       -0.035710372 -0.04222042 -0.0051439204 0.031161834
0001e0 d6 64 86 bc cc 29 9e bd e6 f0 4b bc 51 ca 9c bd
       -0.016405504 -0.07722816 -0.012447571 -0.07655776
0001f0 91 f4 d1 3d 0c d6 23 3e e8 5f 8e 3c 8e 88 03 bd
       0.102517255 0.15999621 0.017379716 -0.03211265
000200 14 18 04 3d a5 4a 83 bc c4 b5 ac bc 35 21 2c 3b
       0.032249525 -0.016026804 -0.021082766 0.002626491
000210 c7 8e e5 3c a9 95 d8 3c 0e 81 ba 3c 55 82 a9 bd
       0.028022183 0.026438551 0.022766616 -0.08276812
000220 42 28 db 3a 7c 82 ad bc c8 34 b6 bc b1 5c c2 3b
       0.0016720372 -0.021180384 -0.022241965 0.00593146
000230 01 6d 97 3c 2f b9 40 3c 5a 8e 47 3d b1 b5 aa bc
       0.018484594 0.011762901 0.04871974 -0.02083859
000240 96 84 ce bb ba ef 95 bd 0c ae 70 bd fa 45 09 3c
       -0.0063024266 -0.07321115 -0.058759734 0.0083785
000250 14 9f 10 bd 82 7c de bc 95 d1 12 bc 4c 84 15 bd
       -0.03530796 -0.02715898 -0.008961101 -0.03650312
000260 ac e5 36 bd 9c 82 96 3b 07 dc 93 3c af c8 8f 3c
       -0.044652626 0.0045932066 0.018049253 0.017551748
000270 3e 2e be 3c 5c a6 69 3d 4b ec b4 bb 26 cb 1a 3c
       0.02321541 0.05704342 -0.0055213324 0.009447848
000280 05 88 86 bb 09 ab 60 3c cc a6 b1 3c c9 2d 5f 3d
       -0.0041055703 0.013712653 0.02168598 0.054487024
000290 27 42 76 bb d8 43 f1 bc 09 91 b5 3d b2 de eb 3c
       -0.003757605 -0.029451296 0.08865554 0.028792713
0002a0 f1 38 a7 3d 50 78 ae 3d 68 d5 e5 3c 1a a7 2f 3d
       0.081651576 0.085190415 0.028055862 0.04288397
0002b0 7c c1 e5 bb 29 e2 28 3d 7d e0 e7 3c 80 d7 72 3d
       -0.0070115905 0.041231308 0.028305287 0.059287548
0002c0 48 ab 98 3c 25 44 c3 3c c8 d3 10 3d 46 99 4e 3c
       0.01863636 0.023836205 0.03535822 0.012609785
0002d0 8c f8 44 bd da e1 30 bd 5a b2 bb bb 0f c4 37 bd
       -0.048088595 -0.04318414 -0.0057280483 -0.04486471
0002e0 34 2f 60 bd e0 81 90 bb 16 21 05 bd 96 39 80 bd
       -0.054732516 -0.0044100136 -0.032502256 -0.06260984
0002f0 97 e3 19 bd f5 95 73 bc e0 14 28 bd 5a 00 0b bd
       -0.037570562 -0.0148672955 -0.041035533 -0.033935882
000300 ba 9f cc bb 62 7c ab bd ac 6d 8e bd 8f dd 1f bd
       -0.006244627 -0.083733335 -0.06954512 -0.039029654
000310 a9 3d 8a bd 6f b1 39 bd 56 94 b2 ba 95 49 8d bc
       -0.06750042 -0.04533523 -0.001362453 -0.017247
000320 8d 17 c3 bc ff d2 45 bd 66 ab 2a 3d ab 10 75 3a
       -0.02381494 -0.048296925 0.041667365 0.0009348492
000330 66 53 80 bb d1 27 e3 bb 5e ac 51 bb be b1 99 3d
       -0.003916192 -0.0069322367 -0.0031993608 0.07504605
000340 d5 d6 cf 3c f5 56 e3 bb d4 f8 4a bc 90 1a 96 bd
       0.025370995 -0.0069378563 -0.012388427 -0.07329285
000350 e0 64 fd bc 80 01 98 3e bf 79 ee 3c d0 1f ac bc
       -0.03093189 0.29688644 0.029110787 -0.021011263
000360 26 8e ee 3c 16 bd 25 3c c4 72 df 3c 1d 16 6a bc
       0.029120516 0.010115882 0.027276404 -0.014287499
000370 f3 15 31 3c c5 73 2e 3d 85 c3 de 3c d8 b3 59 3d
       0.010808456 0.042590875 0.02719284 0.053150028
000380 42 22 22 bc 56 6b 47 3d 1d 28 0d bd 04 d9 7e 3c
       -0.009895863 0.048686348 -0.034462083 0.01555467
000390 14 67 32 3d 75 81 1a 3d 6c 04 46 3c 91 53 cc 3b
       0.043555334 0.037721116 0.012086015 0.006235548
0003a0 e6 12 97 3c 4e 1a b6 bb 5a 47 a9 3d 68 10 c2 3c
       0.018441629 -0.005557335 0.08265562 0.023689464
0003b0 0b 16 51 bc 14 99 4a 3d 96 1d 78 bc 87 69 6f 3d
       -0.012761603 0.049462393 -0.015143773 0.058450248
0003c0 b8 cc 30 3c 9f 82 a7 bc c6 cc 95 3c 53 fe 6d bd
       0.010790996 -0.020448027 0.01828612 -0.05810387
0003d0 7b 22 fb 3b ba fe e3 bc f8 00 60 bd e0 ae 5e 3d
       0.0076640225 -0.027831424 -0.054688424 0.054365993
0003e0 35 2f c5 bc 12 06 45 3c ba 49 f8 3c 15 95 7a 3c
       -0.024070362 0.012025373 0.030308593 0.015294333
0003f0 ba 2a 7f 3c fb c0 db bc b2 b9 a0 bb 82 00 1e bc
       0.015574152 -0.026825419 -0.004904949 -0.009643676

rca.body.2.bias f4 [48]
000000 8e 43 34 3b f8 f9 5b bd 48 9f 93 3d 80 48 15 3e
       0.0027506086 -0.053705186 0.07208115 0.14578438
000010 d5 20 be 3d 0c 8b 78 bd 60 f1 b8 bd 47 47 0a bc
       0.09283606 -0.06067948 -0.09030414 -0.008439845
000020 c3 5b 98 bd a8 16 14 bb 48 ab f1 bd 42 46 47 bd
       -0.07439377 -0.0022596512 -0.118002474 -0.048650987
000030 2c 2f f0 3d 23 ef 62 be 6d b2 35 bd ff 87 1e 3e
       0.11727747 -0.22161536 -0.044359613 0.15481566
000040 ec 95 c2 3d a9 ec 85 bd c3 c8 1e 3d ec 7c e7 3d
       0.095012516 -0.0653928 0.03876568 0.11303124
000050 7f 45 62 be c0 2a 23 be 38 05 e6 bc fa ba 01 be
       -0.22096823 -0.15934277 -0.02807866 -0.12668982
000060 7d 9f 0b 3e 1f ad a7 3e ca 8f 91 3d 1a 27 92 3d
       0.13635059 0.32749268 0.07107504 0.07136364
000070 ab 30 4d 3a e2 86 8b 3d fd 5e 00 3d 92 f1 0e 3d
       0.00078273815 0.06812836 0.031340588 0.03489835
000080 4e 01 cf 3d 69 4c 8d 3d 76 dc a3 bd 79 d9 26 be
       0.10107671 0.0689934 -0.08001034 -0.16293897
000090 dd 89 5f be d8 12 81 be 0f 07 8c 3c 28 0d 08 bd
       -0.21829934 -0.2520969 0.01709321 -0.03321567
0000a0 d8 ed 6d be 1c 72 78 be c4 d8 18 be b3 ce ab 3d
       -0.23235261 -0.2426228 -0.1492644 0.08389034
0000b0 71 2e 4d 3d 0e b6 8d be 1d 52 b0 3c 0c d0 65 bd
       0.050093118 -0.2767796 0.02152353 -0.056106612

head.0.weight f4 [48, 3, 3, 3]
000000 3c 75 f0 bd eb 74 df bd 80 ea da bd 47 96 b6 bd
       -0.11741111 -0.10910972 -0.106892586 -0.08915382
000010 55 d2 26 3e 0d b1 13 3e 13 9e aa bc 07 ab fb 3d
       0.16291173 0.14423008 -0.020827329 0.1228848
000020 02 14 45 3b d5 8a 37 3e 20 15 0d bd 29 e2 85 bd
       0.003007174 0.17924054 -0.034443974 -0.06537277
000030 ac bd 07 bc 7e 2b 00 3c bf 8e 0a be a3 a4 6f bc
       -0.008284967 0.007822869 -0.13531016 -0.014626655
000040 30 ce 47 3d 22 e0 94 3d 29 66 40 3e 05 e1 c3 3d
       0.04878062 0.072693124 0.18788971 0.095644034
000050 6c 37 8e bd 48 74 4c 3d dd 32 42 3e 13 91 11 3d
       -0.06944165 0.049915582 0.18964715 0.035538744
000060 17 d7 39 3e c4 cc 66 bd 99 cd 37 3e 7f a3 b8 3d
       0.18148457 -0.056347623 0.17949523 0.090155594
000070 31 86 4a bd 8a d6 2c be e8 d6 9c 3d d1 a9 35 be
       -0.04944438 -0.16878715 0.076581776 -0.17740561
000080 43 f4 1d be 95 2e 25 be 50 1c fb 3c 1a d9 28 bd
       -0.1542521 -0.16131051 0.030653149 -0.04122267
000090 08 d5 13 3e 05 85 aa 3d 9a fd 2d be 60 1b 33 be
       0.14436734 0.08326153 -0.16991273 -0.17490911
0000a0 23 4b 41 3d 2f 91 88 bd 4d 50 27 3e bf 45 14 3e
       0.047190797 -0.066683166 0.16339226 0.14479731
0000b0 6f e0 24 bd 9a 85 38 be 2b 0c 00 3e ea a4 59 3d
       -0.0402531 -0.18019715 0.12504642 0.05313579
0000c0 ea d6 4a 3d 1c f8 75 3d 42 82 29 be eb bc b1 bd
       0.049521364 0.06005107 -0.16553596 -0.08678611
0000d0 fd 91 77 3d e0 28 98 bd dc 1f 0b bd 73 ba 84 3b
       0.06044196 -0.07429671 -0.03396593 0.004050547
0000e0 4f 55 49 be bb d6 a5 bc 2e d7 f6 3d d1 b8 2c 3d
       -0.19661449 -0.020243993 0.12052761 0.042168442
0000f0 05 62 01 be 79 1a e8 3d 02 89 f4 bd a1 70 93 3d
       -0.12635048 0.11333174 -0.11940195 0.07199217
000100 7d e2 75 3d 8f 79 d7 3d b4 8d e6 bd d4 55 61 bd
       0.06003045 0.10521232 -0.112574965 -0.055013493
000110 2e 0f a4 3d 5b 00 2b 3d 23 58 ee bd 7f f4 4e bd
       0.08010708 0.041748386 -0.116379045 -0.05052614
000120 97 cf 21 3d 23 53 a4 3b 28 ab 16 3e bb de 62 3d
       0.039504614 0.0050147935 0.14713728 0.055388194
000130 ad d2 0b 3e 96 ca d7 3d 5f c1 dd bd bf e4 b6 3d
       0.13654585 0.10536687 -0.10827898 0.089303486
000140 62 ce 14 be b9 b1 01 be 8d c5 85 3b 10 65 95 3d
       -0.14531854 -0.12665452 0.004082388 0.07294667
000150 f0 6b ba 3c e0 ac ae 3d 57 db fb 3d 88 2a 8c 3d
       0.022756547 0.08529067 0.12297695 0.0684405
000160 c8 62 a5 3d ae 5f ac bd c8 61 a8 3d a0 d3 ef 3c
       0.08075482 -0.08416687 0.08221775 0.029275715
000170 6d 8d 37 3d df 9d 24 3e e4 4e da 3d e8 73 fc 3b
       0.04481261 0.16075848 0.106595784 0.007704247
000180 4b 68 43 be 13 2b 20 3e 92 fc 80 bc 32 c2 87 3c
       -0.19082753 0.15641432 -0.015745435 0.016572092
000190 9b 6f 41 be 69 a6 27 be 5f 66 23 3d e7 2d 93 3d
       -0.1889023 -0.16372074 0.03989255 0.071864896
0001a0 90 1c 65 bd 38 69 ad 3d eb d7 9e bc a5 12 12 bd
       -0.055935442 0.084673345 -0.019390067 -0.035662312
0001b0 62 8b 10 be 47 aa 28 3e e3 6e 29 be 67 70 4a be
       -0.1411567 0.16471206 -0.16546206 -0.1976944
0001c0 7a d0 24 3e 5d e8 29 3d a1 22 36 3e 58 02 cd bd
       0.16095152 0.041481365 0.17786647 -0.10010213
0001d0 d7 2e e3 bd a5 98 d9 bd d8 43 39 be 2e bb 0b be
       -0.11092918 -0.10624818 -0.18092287 -0.13645622
0001e0 0a 85 26 3e 17 da a4 3d 26 64 b0 3d b4 b6 0f be
       0.16261688 0.0804941 0.08612852 -0.1403454
0001f0 5a 85 54 3d 0d ec 2a 3e bc 79 3f be ec a8 d7 3d
       0.051884986 0.16691609 -0.18698782 0.10530266
000200 b1 8e b9 3d 3f 0e d7 3d 70 53 31 3e f6 9b 20 be
       0.09060419 0.10500764 0.17316985 -0.15684494
000210 33 50 b5 3d bb 30 a7 bb c5 eb 93 bc 43 80 0b be
       0.088531874 -0.0051022447 -0.01805676 -0.13623147
000220 bf 47 01 be bd b5 24 3e 70 e2 64 bd 50 ec 2e be
       -0.12625025 0.16084953 -0.05588001 -0.17082334
000230 9b f0 09 3e ad 53 fd bd da cb 33 3e 81 e2 92 3d
       0.1347069 -0.123694755 0.17558232 0.071721084
000240 ab 02 52 3d f2 24 ad 3d 16 cd 2f be c9 41 33 3e
       0.051272076 0.084543124 -0.17168078 0.17505564
000250 bd 2a 2c be 3c 2b bb bd 41 ba 1e be cb 7a 48 3e
       -0.16813178 -0.09139106 -0.15500738 0.19578092
000260 90 82 0f be 1b ea 35 be de 69 7c 39 ff 34 b0 bd
       -0.1401465 -0.17765085 0.00024072031 -0.08603858
000270 4c 16 b7 bc f1 2c 98 bd 3a f6 bc 3d d3 41 e7 3d
       -0.0223495 -0.07430447 0.092266515 0.11291852
000280 84 22 0a 3e af 04 b8 3c ab 69 13 3e 0c bd 05 be
       0.13489729 0.02246317 0.14395778 -0.13060397
000290 92 7c 27 bd 77 bc 5c bd 53 e0 bd 3d 6a e4 9c 3d
       -0.040890284 -0.05389067 0.09271302 0.07660754
0002a0 8f ff e8 3d 53 5b 27 3d dd f6 09 be 20 9a 1a 3e
       0.11376869 0.040858578 -0.13473077 0.15097857
0002b0 26 06 18 be 9e a9 bd bd 65 59 07 be 85 0e 1b 3e
       -0.14846095 -0.092608675 -0.13217695 0.15142258
0002c0 95 52 c5 3d 64 1b b4 3d ea 95 c3 3d 9d da b3 3d
       0.09634892 0.08794287 0.09550078 0.087819315
0002d0 f3 f8 4d 3c 15 49 7e bd 16 97 20 bd 34 31 9e 3b
       0.012571561 -0.062081415 -0.039206587 0.004827643
0002e0 39 ab ce bc 01 d9 e8 b9 d1 ea 15 3e 85 b7 43 be
       -0.02522813 -0.0004441217 0.14640357 -0.19112976
0002f0 d6 53 9d bd 35 8c db 3b ab 60 5d bd 8e da 43 bb
       -0.07682006 0.0067000636 -0.054047268 -0.0029884907
000300 36 1a 36 3d 25 e9 8f bd 2d 20 bb bd ef 0f 01 3d
       0.04445859 -0.07026891 -0.091369964 0.031509336
000310 d8 76 2c be 77 72 af bd 50 02 5e 3b 1f a6 cf 3d
       -0.1684221 -0.08566754 0.003387589 0.10139107
000320 5e 1a 30 3d 91 95 84 bd 59 a0 0a 3d 74 be 0c be
       0.042993896 -0.0647384 0.033844326 -0.13744527
000330 35 1c df 3d 50 cf 0f be d7 5b a8 bd ab 98 d1 bd
       0.10894052 -0.14043927 -0.08220642 -0.10234197
000340 c3 4c d1 bd 51 83 7b bd d1 b8 35 3d 73 c1 de 3d
       -0.10219719 -0.06140453 0.044365708 0.10876741
000350 31 58 ec 3d 6d da e8 3d ab 4d d5 3b 96 d6 68 3c
       0.11540259 0.113697864 0.006509503 0.0142113175
000360 99 d7 ca bd 7c fe 88 bd a3 38 04 3e 26 4d e3 ba
       -0.09904403 -0.06689164 0.1291223 -0.0017341718
000370 4c 4a 9c 3d 38 d5 9c bd 4b 6e 00 be 52 11 1e bd
       0.076313585 -0.07657856 -0.12542073 -0.038590737
000380 e4 1e e6 bd ef 6a 51 3e 7a 75 b1 3d c6 14 d0 bd
       -0.11236361 0.20450948 0.08664985 -0.10160212
000390 1b ca 12 3e bb dc 59 3e 3e c5 17 be 08 3e 18 be
       0.1433491 0.21275608 -0.14821336 -0.14867413
0003a0 6e 31 41 bd 27 56 0e 3e 03 e6 ec 3d b7 93 87 3a
       -0.04716628 0.13900052 0.11567309 0.0010343705
0003b0 3c 12 ec bc bf a9 66 3d 5b 8c af bc 3a 5a 36 3d
       -0.028817289 0.056314226 -0.021429231 0.04451964
0003c0 01 a7 ae bd b2 90 16 3d b6 c5 04 be c9 a3 e2 3a
       -0.08527947 0.036759086 -0.12966046 0.0017291243
0003d0 0e 1d 3c be 2b 42 33 3e c7 7d 19 bd cf ec 29 3d
       -0.18370458 0.1750571 -0.037473466 0.041485604
0003e0 b3 d4 22 3e 70 7e fd bd 82 1b d8 3d fb e1 18 3e
       0.15901451 -0.12377632 0.10552122 0.14929955
0003f0 ff 05 10 3e 30 83 7d bc 8c 83 b2 bc 39 7e 31 bd
       0.14064787 -0.015473172 -0.021791242 -0.043333266

head.0.bias f4 [48]
000000 ed 61 a5 bd 65 0f 0d bc 3d 89 2f 3d ac fc 12 3d
       -0.080753185 -0.008609627 0.04285549 0.035885498
000010 53 f7 57 3d f2 c1 15 3d 3a 80 2e 3e 33 e2 e1 bb
       0.0527261 0.036561914 0.17041102 -0.00689342
000020 0a 36 55 be fa 73 17 3e f0 85 01 3e ff 00 b6 3c
       -0.20821396 0.14790335 0.1264875 0.022217272
000030 f0 d5 ff 3d 08 8d 6c be f8 49 83 3d 4c 00 23 be
       0.12491977 -0.23100674 0.06410593 -0.15918082
000040 9b d9 f7 bd c1 c4 0b be 90 7f 8f 3c 52 1a c9 3d
       -0.12102052 -0.13649274 0.017516881 0.09819473
000050 76 e9 f2 3d db ac a7 3d 73 e2 3e 3d f9 fc 66 bd
       0.118609354 0.081872664 0.046602678 -0.056393597
000060 3f f7 22 be cc c3 4e 3e 27 48 2b 3e a4 b8 92 bc
       -0.1591463 0.20191878 0.16726743 -0.01791031
000070 5a f6 2a be 0a 67 38 3e d5 47 29 3d ec ce f8 bd
       -0.16695538 0.18008056 0.04132827 -0.12148842
000080 06 ac c3 3d 03 18 28 3d 85 a1 bd 3d e1 2c a0 3d
       0.09554295 0.041038524 0.09259323 0.0782106
000090 5e 2c ef ba 6b e9 31 be 15 13 7f 3d 47 14 a4 bd
       -0.0018247475 -0.17374198 0.062274057 -0.0801168
0000a0 08 a9 16 3e 6f 9d 06 be a6 ae 8c 3d 7a 0e 28 be
       0.14712918 -0.13145994 0.06869249 -0.16411772
0000b0 09 87 39 bd d5 d9 cb 3c 08 9d 35 be 2c 61 f0 3d
       -0.045294795 0.024884144 -0.17735684 0.11737284

head.1.weight f4 [48, 48, 3, 3]
000000 0d 10 04 3d f0 fc 39 3d 60 6c c2 3c 2f bd 8f bb
       0.03224187 0.045407236 0.023733318 -0.004386566
000010 c9 e5 4f 3d 47 bc 76 bc ce b4 ac 3c c0 94 2c 3b
       0.05075625 -0.015059537 0.021082308 0.002633378
000020 0d b6 2b 3d 5e 78 39 3b 98 d8 55 3c f9 9a 90 bb
       0.041921664 0.0028300504 0.013052128 -0.0044130054
000030 48 ea 1b bd df 87 10 bd a1 f8 87 3c 53 99 26 bd
       -0.038065225 -0.035285827 0.016598048 -0.040673565
000040 a8 13 d0 bc 34 3e 9a bc 91 43 2d 3d fc e3 2c 3c
       -0.025399998 -0.018828489 0.042300764 0.010552403
000050 64 40 f0 3b 2b 60 85 3c d8 09 0b bc ba 07 49 3d
       0.0073318947 0.016281208 -0.008486234 0.049079634
000060 d5 f0 82 bc 58 2a bc 3b 23 8b 37 bc ef 1d d6 3c
       -0.015983978 0.0057423525 -0.011202606 0.02613732
000070 42 27 8f 3c 6c e4 18 3d 4e 4e 39 bb 7e 4c 4a 3b
       0.017474774 0.037327215 -0.0028275433 0.0030868347
000080 72 67 6b 3c 46 37 45 bb 83 93 bb 3c 07 6a ba bc
       0.014367925 -0.003009276 0.022897488 -0.022755636
000090 a3 e3 77 3b 76 d3 d1 bb 78 10 0b 3d d4 51 12 3d
       0.003782489 -0.006403382 0.033951253 0.03572257
0000a0 df fe 71 3c fb b3 fc bc 3b 4c d2 3c 99 ef a0 3c
       0.014770239 -0.03084754 0.025671115 0.019645499
0000b0 c8 66 17 bd ac 27 a3 bb 1b 03 54 3b 69 b0 07 bd
       -0.036963254 -0.0049790945 0.0032350484 -0.033127222
0000c0 24 12 22 3d c5 b2 ce bc b9 0f e8 3b e4 01 58 bd
       0.03956808 -0.025231728 0.0070819524 -0.052736178
0000d0 8c fd fe bc 6d c5 05 bd f3 b1 17 bd 5d d8 c7 3b
       -0.03112676 -0.032658983 -0.03703494 0.0060987906
0000e0 1d 24 df bb 10 1f bb bc 48 71 b1 bc 09 c9 22 3d
       -0.006809725 -0.02284196 -0.021660462 0.039742503
0000f0 7c e2 83 3b 71 1f 2c 3d 50 62 4e 3d 21 3d 80 bb
       0.004024802 0.042022172 0.050386727 -0.003913537
000100 f0 5b 1a bc 03 fa 39 bc 7c b9 cc bc 7d e8 ad bb
       -0.009421334 -0.011351111 -0.02499079 -0.005307256
000110 f5 92 36 bc 41 73 d6 bc c7 97 45 bd 71 05 1f 3d
       -0.011143436 -0.026178004 -0.04824045 0.03882355
000120 67 e5 3a bd db d8 ee 3c cf 18 36 bd 45 3a 25 bd
       -0.04562893 0.02915614 -0.044457253 -0.040338773
000130 cc 38 5a 3d 1d 84 ce 3a 94 ed 19 bc ef 07 46 3d
       0.053276822 0.0015755926 -0.009395022 0.04834741
000140 50 5b d8 3c 58 d7 36 3d 8b 2c 67 bd 84 21 e9 bb
       0.026410729 0.04463896 -0.056438964 -0.007114591
000150 0d 03 bd bc 58 69 1d bc 6c 23 4c 3c f6 2b 4f bd
       -0.023072744 -0.009607635 0.012459617 -0.050579034
000160 da a5 13 bd 81 f2 1b 3c a5 a2 b6 bc b7 d7 cc 3b
       -0.03604684 0.009518267 -0.022294352 0.006251301
000170 9b 75 73 3c eb 9e 90 bc 64 88 21 3c c2 d2 13 bd
       0.014859582 -0.017653903 0.009859178 -0.036089666
000180 7a d5 19 bd 27 ae f2 3c f4 8c 23 3d fc 0d ac 3b
       -0.037557103 0.029624058 0.039929345 0.0052506905
000190 75 a3 5b 3d 10 48 10 bd b2 d5 38 38 56 32 92 3d
       0.05362268 -0.035224974 4.4068038e-05 0.07138507
0001a0 72 62 0d bc 21 d0 51 bd e2 45 99 3c 74 2e e8 ba
       -0.008629428 -0.051223878 0.01871008 -0.001771404
0001b0 89 03 83 bc 33 49 4d bd 49 4f 1f 3d a8 5f 24 3d
       -0.015992897 -0.050118636 0.03889397 0.040130287
0001c0 ef b2 8d bc e9 8e 34 bd 06 94 f4 3c 25 37 db 3c
       -0.017297236 -0.044081602 0.02985574 0.026759693
0001d0 10 0b a1 3c 86 da 28 bd 88 8b ec 3c c1 10 38 3d
       0.019658595 -0.041224025 0.028875127 0.044937853
0001e0 4f 09 b5 bc 1f b1 1f bd 04 7d 2a bc 02 54 8c 3b
       -0.022099165 -0.038987275 -0.010405783 0.0042824754
0001f0 6f 06 bc 3c 43 07 82 3b 20 ac 51 3a 08 ea 15 3d
       0.022952287 0.003968151 0.0007998366 0.036600143
000200 89 99 a4 bc 28 01 f7 bc 9c 4e cf 3c 54 35 03 3d
       -0.020092743 -0.030151919 0.025306039 0.03203328
000210 2b 70 42 3d 4e 96 65 3d 1e 29 b4 bc 05 0b 74 bc
       0.047470253 0.056051545 -0.021992262 -0.014895205
000220 04 70 b1 3c e8 c4 82 bb cd ae fe bc d1 ca 8b bc
       0.021659859 -0.003990758 -0.03108921 -0.017064484
000230 88 15 74 3d 80 47 b3 bc 19 d5 0d 39 5c 87 a8 bb
       0.059590846 -0.02188468 0.00013526193 -0.005143089
000240 23 9e 0b 3d e7 2a 44 bd 56 c8 35 bc 04 96 ef bb
       0.034086358 -0.047892477 -0.011095127 -0.0073115844
000250 16 81 10 bd 23 55 ee 3c ed 8d f0 3b 60 f6 cc 3c
       -0.035279356 0.02909333 0.0073411376 0.025019825
000260 a7 32 91 3c e5 7b 10 3d 2b 80 73 3c b2 aa b8 3c
       0.017724348 0.035274405 0.014862101 0.022542331
000270 c1 ae 18 bd 97 6b a4 bc e6 5d f6 bc c9 40 17 3b
       -0.037276033 -0.020070834 -0.030074071 0.0023079386
000280 bf 54 b1 3c b0 bd fe 3b 3c 23 e0 3c 6c 9b 7b bc
       0.021646855 0.0077740774 0.027360551 -0.01535688
000290 b2 88 35 bb 45 23 0e bc 6d 6c 14 3c 95 d4 c1 bc
       -0.0027699885 -0.008675401 0.009059054 -0.023660937
0002a0 4e 90 79 3c af 5f 88 bc b8 be bc 3c b6 e9 15 bd
       0.015232159 -0.016647188 0.02304016 -0.036599837
0002b0 ae c8 0f bd 83 c5 12 3d d6 09 0b bd 05 a7 1d bc
       -0.035103492 0.035832893 -0.033944927 -0.00962234
0002c0 8c 63 0b 3d 74 7b 8c bb df bd 85 3b f1 99 91 bc
       0.034030482 -0.0042871777 0.0040814723 -0.0177736
0002d0 19 66 23 3b de cc 19 bd 72 59 e4 3b 31 9c 22 3d
       0.002493268 -0.037548892 0.0069686705 0.039699737
0002e0 bd 74 d8 bc a4 fd 1a bd 60 cb d3 3c 87 57 e8 3b
       -0.026422853 -0.037839547 0.025853813 0.007090512
0002f0 95 23 9b bb 2b de 5e 3d 95 03 92 3c b1 9d 08 bc
       -0.0047344663 0.054411095 0.017823974 -0.008338378
000300 38 d3 42 3d cc 2a 54 bb 3b 4c bf 3c 36 d7 97 bc
       0.047564715 -0.0032374142 0.02335178 -0.018535238
000310 12 e5 59 3c b5 c6 fd bb 50 19 3a 3d f3 14 eb 3c
       0.0132992435 -0.007744635 0.045434296 0.028696513
000320 d0 56 31 3d 3e 43 42 3c 16 ff 1e bc cd 14 12 3d
       0.04329568 0.011856852 -0.009704372 0.03566437
000330 8f 1c 02 3d 71 8c f6 bc 67 df 34 3d b9 0c 8d 3c
       0.031765517 -0.030096265 0.044158366 0.01721798
000340 b8 a1 e3 bc 4c 0f 00 3d 34 eb ff bc 0c 51 6e 3c
       -0.027787074 0.03126459 -0.031240083 0.01454569
000350 e7 82 87 bb 0c 7c 9e 3c fa 8a d2 bc 8a b5 a7 3c
       -0.004135478 0.01934626 -0.025701035 0.020472307
000360 5d af 92 bb fb bb 9c bc fe ed d9 3c 81 fb 96 39
       -0.0044764713 -0.019132605 0.026602741 0.00028797615
000370 e7 e4 8b 3b de e9 d6 bc 75 97 b8 3c 7a 9a df bc
       0.0042692306 -0.026234563 0.022533158 -0.02729534
000380 49 69 53 3c 69 90 aa bc 48 ac b3 3b 61 1e 92 3c
       0.01290352 -0.020820813 0.005483184 0.017836751
000390 55 89 f1 bc 90 4a 13 3d 0b a8 01 bd a2 28 26 3d
       -0.02948443 0.03595978 -0.0316544 0.040566094
0003a0 a1 4d 10 3d 57 df 18 bc 57 fd c5 3b 03 10 13 bd
       0.035230283 -0.009330592 0.0060421634 -0.03590394
0003b0 43 e5 9d 3c e8 54 22 3d 3a b6 a7 3d dd fb f0 bc
       0.01927436 0.039631754 0.08189054 -0.029416973
0003c0 08 0c 93 bc b6 70 d3 bc ea 90 e6 bc 98 31 21 3c
       -0.017950073 -0.02581058 -0.028145272 0.009838484
0003d0 62 dc 9e bc 56 7c 1d 3b 27 1f a1 bc 5b 7d f1 bb
       -0.019392196 0.0024030409 -0.019668175 -0.00736968
0003e0 eb 10 50 bd 2f 3f 7a bc ec 3c ec bc a8 16 d8 bc
       -0.050797384 -0.015273853 -0.028837644 -0.02637799
0003f0 d0 68 92 3c 65 44 ab bb a8 ef 18 bd 15 00 80 bc
       0.017872244 -0.005226659 -0.03733793 -0.01562504
