e_model_files/e_model/eSR-TR_s2_K3_C3.pth (torch, 541880 bytes, 80 tensors)

layer.filter.weight f4 [108, 48, 3, 3]
000000 90 26 a7 3c a4 85 83 3c a6 4e b8 3b f1 d7 d1 bc
       0.02040413 0.016054936 0.00562461 -0.025615664
000010 ad 7c 80 3f 14 38 98 3c 1a 6d 34 3d ad 58 e0 3c
       1.0038048 0.018581428 0.04404936 0.027386034
000020 2c 75 e7 bb 36 a7 ba 3c 08 d4 a0 bb b9 6c f0 bb
       -0.0070635285 0.02278481 -0.0049080886 -0.0073371795
000030 70 be 16 3d 70 d8 a0 3d 7a af 90 bc 8f f9 1b bb
       0.03680271 0.07853782 -0.017661799 -0.0023799872
000040 56 9f b0 3b 1a cb c7 bc 99 9b 90 bc 0a d3 9e 3b
       0.005390088 -0.024388839 -0.01765232 0.004846935
000050 45 3e e3 bb 37 c8 21 3c ed 8c e9 3d 11 2a f9 bb
       -0.0069349133 0.009874395 0.114038326 -0.0076038917
000060 80 5c d2 bb cc b2 dc bc 11 fc f3 bc c0 eb 8e 3b
       -0.0064197183 -0.026940726 -0.02978328 0.0043615997
000070 4e 08 53 3d 48 5c a0 3c 5d 13 3e bd bc c3 a6 bc
       0.05152159 0.019575253 -0.046405185 -0.020357005
000080 33 4d d2 3c 70 fb 82 ba 2d bc 88 b9 18 03 ab 3c
       0.025671577 -0.0009993147 -0.00026080143 0.020875499
000090 18 d7 8f 3c 17 1c 66 bb c7 e5 db bc b9 da c3 bb
       0.01755862 -0.0035111958 -0.026842965 -0.0059770015
0000a0 67 e7 9c 3d 2b 4d f6 bb 1d 20 3c 3c 57 4e e7 bc
       0.07661324 -0.0075165234 0.011482266 -0.028235598
0000b0 5d cb b2 bc d1 3e 38 3d 4c 92 88 3c 59 67 1c 3d
       -0.021825487 0.04498178 0.016671322 0.038184498
0000c0 e8 7f 8b bc e6 77 0c 3d 89 51 36 bd 58 66 b6 bc
       -0.017028764 0.03429403 -0.04451135 -0.022265598
0000d0 b3 70 18 bb 26 3a 7e bc 01 17 4e 3d 9f f6 9c 3c
       -0.0023260533 -0.015516793 0.050314907 0.019160567
0000e0 80 ee 4d 3d 46 f9 0a 3d bd 99 51 3c dc 3b f7 bc
       0.05027628 0.033929132 0.012793002 -0.03017991
0000f0 51 92 d1 bb b2 a9 81 bd 67 ae bb bb 71 9f 3e bd
       -0.006395616 -0.06331195 -0.0057275775 -0.046538774
000100 18 e4 9d bb 96 a8 91 3c 3a d8 6d 3b e6 9a 11 3d
       -0.0048184507 0.017780583 0.003629221 0.035548113
000110 7d c3 e4 3b 0b 8a dd bb 59 ac 44 3c 99 cb 20 bc
       0.006981312 -0.006760841 0.0120039815 -0.009814166
000120 43 83 c4 bc ec 7d 6e bd 8f 71 c6 bc 16 fe e0 bb
       -0.023988372 -0.058225557 -0.02422407 -0.006866227
000130 f6 70 ca bd c9 49 97 3c 40 43 23 3c 37 7c 2b 3d
       -0.09884827 0.0184678 0.009964764 0.041866507
000140 30 2a 7e bc 41 b6 39 bd bc e7 7b bd 84 67 9c 3b
       -0.015512988 -0.045339826 -0.061500296 0.004773082
000150 3e 82 06 3d 2d c9 46 3d fa be c2 3c 82 4a d5 ba
       0.032839052 0.0485317 0.023772705 -0.0016272815
000160 6d 8f b6 bc e6 79 dd ba 49 52 7b bb 62 d1 f1 3b
       -0.022285188 -0.001689729 -0.0038348606 0.0073796967
000170 92 05 00 bc 3f 7e 29 bd c9 36 10 bd 1a 6d bd 3b
       -0.007813828 -0.041380163 -0.035208497 0.005780828
000180 04 ca b6 bc 54 34 18 bd 7c 5f 03 bc 17 6c 3e bd
       -0.022313125 -0.03715928 -0.008018371 -0.0464898
000190 d0 56 b9 3c a6 04 93 3c 6e 38 8e 3c 54 10 45 bd
       0.022624403 0.017946552 0.017360892 -0.048111275
0001a0 96 6d cf bb 18 b0 51 b8 cc a0 85 3d 2a 28 80 bc
       -0.0063302023 -4.9993483e-05 0.0652481 -0.015644152
0001b0 1a 73 31 bd 9f 06 8d bc f9 ee 08 bd 0a 06 0d 3c
       -0.04332266 -0.017215071 -0.033431027 0.008607397
0001c0 49 0b 88 bc 84 82 ec bb 0e 95 87 3b b5 be 0c bd
       -0.016606944 -0.007217707 0.0041376418 -0.03436156
0001d0 90 54 db bc 2a c5 16 bd 50 68 ac bc 68 58 e1 3b
       -0.026773721 -0.036809124 -0.021045834 0.006876994
0001e0 90 c8 22 3d d1 ba 8b ba 59 50 8c bc c8 13 76 bc
       0.039742053 -0.0010660534 -0.017128156 -0.015019365
0001f0 07 c6 aa 3b 99 85 d7 bb ba c0 b0 3a 52 4d d3 bb
       0.005211595 -0.0065772054 0.0013485171 -0.0064484263
000200 19 88 ca bc 08 c3 a7 3c 0f fb 93 3c 7d 4e d0 3a
       -0.0247231 0.02047874 0.01806405 0.0015892532
000210 77 4d fe ba 3a df 02 bd 71 49 e0 3c e6 44 0e bc
       -0.0019401748 -0.031951167 0.02737877 -0.008683419
000220 d5 e1 14 bd b6 79 a6 3b cf 13 06 3d 16 25 be 3d
       -0.036348183 0.005080427 0.032733735 0.09284417
000230 0d 17 3f 3d 46 04 f1 3c e0 17 74 3c 03 f7 60 bc
       0.046652842 0.029420983 0.01489827 -0.013730767
000240 7d 89 90 bc 61 ba 88 3b 5b 3b 08 bd ef 8b 90 bc
       -0.017643685 0.0041726087 -0.03325973 -0.01764485
000250 bb 86 42 3c 2a 43 7d 3c 35 5e 83 bc 84 c5 06 3d
       0.011872943 0.015457908 -0.016036132 0.03290321
000260 2c 81 58 bd 24 31 80 3c fe 9c 0c 3d 01 80 ae 3c
       -0.052857563 0.015648432 0.034329407 0.021301271
000270 a3 fb cd 3c ab b9 35 3e 16 11 93 3c 91 2f 9c bc
       0.025144404 0.17746608 0.017952483 -0.01906565
000280 2d 32 38 bc c5 1b e8 3b 83 d5 9e b9 c0 49 46 3d
       -0.011242432 0.0070833885 -0.00030295187 0.048410177
000290 f4 a8 3e bc 0f 80 32 bb 10 8a 64 3a 54 3e 81 bb
       -0.011636961 -0.0027236973 0.00087180827 -0.0039441977
0002a0 d1 63 e4 b9 81 84 89 3c 0f 2b 35 3c c6 53 78 3c
       -0.00043561918 0.016786816 0.011057629 0.015156692
0002b0 7b 55 28 3d 0a de 0c 3d 58 e0 d5 bb 56 55 45 3c
       0.041097146 0.03439144 -0.006526988 0.012044271
0002c0 70 8d bd 3c 71 c7 62 bd 5d e6 6f bc e7 d8 3d bc
       0.023138732 -0.055365983 -0.014642325 -0.011587358
0002d0 29 48 0c 3d 96 2a 4c 3d 89 da 0c 3b 34 40 e4 3b
       0.034248505 0.0498453 0.0021492562 0.0069656614
0002e0 9e 79 b4 3d a0 22 9a bd 3d 30 b1 3c c5 fe 22 bd
       0.08812259 -0.075261354 0.021629447 -0.03979375
0002f0 b6 27 08 bc d4 63 7b bc 2c 0c cc bc ff 00 a7 bb
       -0.008310249 -0.015343625 -0.024908148 -0.0050965543
000300 12 7a 41 bd 7b e1 8d bd 7a 82 a2 bc c7 dd 1e 3c
       -0.047235556 -0.069277726 -0.019837607 0.0096964305
000310 1a 51 25 3c 16 a7 61 3c 4a f0 b1 3b 41 a7 d3 3c
       0.010090137 0.013772747 0.005430256 0.025836589
000320 67 cf ae 3c 90 bd fe ba 01 d5 cf 3d 8f 0b 5d bd
       0.021339132 -0.0019435156 0.10148049 -0.0539661
000330 24 24 0a 3c 7f 81 f1 bc b1 83 90 bc 0c 40 c0 3a
       0.008431468 -0.029480694 -0.01764092 0.0014667525
000340 39 cc 54 bc 0f c4 71 3c c5 f0 c7 bc 92 36 55 ba
       -0.012988144 0.014756217 -0.0244068 -0.0008133437
000350 0e e9 3e bb 25 d1 55 3c 3f 5c 14 3d 6f 92 31 3b
       -0.002913061 0.013050352 0.036220785 0.0027095338
000360 84 5a 05 bc 28 9a 08 bd 84 6f 32 3a 13 8b 52 bd
       -0.008139256 -0.03335014 0.0006806778 -0.051402163
000370 44 67 d8 bd 18 c9 00 bd 62 72 f9 bb 10 90 04 bd
       -0.10566571 -0.031441778 -0.0076125124 -0.03236395
000380 84 84 1a 3d 5c 2c d3 3c 65 e7 3a bc 8d c5 9d bb
       0.037724033 0.025777988 -0.011407708 -0.0048148097
000390 87 65 e8 3b 40 aa ac bc 57 eb d4 3c 2c a2 3a bd
       0.007092181 -0.021077275 0.025991125 -0.045564815
0003a0 a1 bb 95 bb 31 24 c1 3c 3d 28 46 bd 60 fa 8f 3c
       -0.0045694862 0.023576828 -0.048378218 0.017575443
0003b0 ad c6 ce 3c 9c 43 f4 bc 59 f9 87 bc 6c 1a 68 3c
       0.02524122 -0.029817395 -0.01659839 0.014166456
0003c0 bb e2 da bc 85 d2 e8 3a b0 aa 24 3c 83 f9 4a 3c
       -0.026719442 0.0017762935 0.010050461 0.01238859
0003d0 2e bd b5 bc 62 ff 8c bc 5c cf 59 bc 2b 71 3c bd
       -0.022184934 -0.01721162 -0.013294067 -0.046006363
0003e0 74 e9 1d 3d 15 b2 a1 bc 1d 0d e3 bb 86 5f e3 3b
       0.038552716 -0.019738236 -0.0069290535 0.0069388775
0003f0 1a 34 83 3c b0 ce 8a 3b 6d cb 8b 3b 8c 15 02 3b
       0.016016055 0.004236065 0.0042661936 0.0019849269

rca.ca.conv_du.0.weight f4 [3, 48, 1, 1]
000000 b0 79 02 be 5b 1f 83 bd 5c 46 34 3d 68 c4 75 bd
       -0.12741733 -0.06402465 0.044012412 -0.06000176
000010 88 e2 9c 3c 71 16 bf bd e8 08 b7 3d fe c4 1c 3e
       0.019150987 -0.09330452 0.089372456 0.15309522
000020 95 45 f9 bd a2 9c cf 3d a0 b2 cd 3d 85 4c b6 3d
       -0.12171475 0.10137297 0.10043836 0.08901314
000030 69 7f 58 be 9f 4f b5 3d 5d ea 92 3b c6 bb d4 bd
       -0.21142353 0.08853077 0.0044835047 -0.103873774
000040 7a 40 f4 3d a7 46 ad bd db d3 a3 bd f3 2b 39 3d
       0.119263604 -0.084607415 -0.079993926 0.04520793
000050 12 c9 8b 3c 1e 58 f2 3c e8 d0 dc 3d 82 89 fe 3d
       0.017063651 0.029583033 0.10782033 0.12428571
000060 d1 56 a7 bb ea 70 3c bc bb 8a 53 bd fd 83 25 be
       -0.005106785 -0.01150153 -0.051645976 -0.16163631
000070 9b 61 c0 bd 9b 87 88 bd a4 7b 49 bd b3 ec 26 3e
       -0.09393617 -0.0666649 -0.04919018 0.16301231
000080 32 6a 7b 3d 1b 7f 1b 3e bc f7 9b bd fe cf 54 3d
       0.061380573 0.15185206 -0.07615611 0.05195617
000090 ec 84 7e bd f9 20 df bd fe e1 9d bc c4 36 93 bd
       -0.062138483 -0.10894961 -0.0192728 -0.0718818
0000a0 6a ee 80 bd b7 d5 f7 3c 46 5f 60 3c 4b 20 00 3e
       -0.06295474 0.030253274 0.01369459 0.12512319
0000b0 2c c5 86 3d 40 86 8b bc 45 6f 04 3e 72 27 2f 3d
       0.06580576 -0.017031789 0.12933071 0.042762227
0000c0 b6 0a ed 3d c8 b4 93 bd 34 99 aa bd 5b 59 96 3d
       0.115743086 -0.07212216 -0.083300024 0.07341262
0000d0 ef d7 c3 3d 13 2c a3 bd 31 c5 18 bd 85 5d 89 3c
       0.095626704 -0.07967391 -0.03729743 0.016768226
0000e0 26 59 d3 bd 02 9e bb 3c 27 9f 46 3a 3b 88 d9 bd
       -0.10319738 0.022902492 0.0007576816 -0.10621687
0000f0 ab e8 ac 3d ac 90 ec 3c 2d 09 c1 bd 74 3d 11 3d
       0.084428154 0.028877579 -0.09425578 0.035458997
000100 7c af b2 3d 05 fb 02 3e 14 b5 c5 bd 57 e0 d5 bd
       0.08724877 0.12791069 -0.096536785 -0.1044318
000110 46 02 60 3d 07 63 38 3d f6 9f bd 3b 6f ec a1 3d
       0.054689668 0.045016315 0.005786891 0.07906424
000120 65 ef a4 bc 7c 4d d2 bd 55 bb eb 3d 9a f9 f5 bd
       -0.020133683 -0.10268685 0.1151034 -0.12010498
000130 14 85 e1 3d 00 06 0d 3e e7 44 bf 3c 44 55 0a ba
       0.11011711 0.1377182 0.023348285 -0.0005276988
000140 b3 25 93 bd cf ca af 3d 17 e7 cd bd 58 ff 14 be
       -0.07184925 0.085836045 -0.100538425 -0.14550531
000150 a8 0e 99 bb ec c3 a0 bd b9 ee 9a 3d 99 1a bb bc
       -0.0046709366 -0.07849869 0.07565064 -0.022839831
000160 32 08 9f bd b7 e1 f6 bd fb 40 23 bd 71 42 5a 3e
       -0.07765235 -0.120547704 -0.039856892 0.21314408
000170 b1 67 be 3d 20 50 ab bc 41 2f bd bd c8 03 d8 bd
       0.09297121 -0.02091223 -0.092375286 -0.10547596
000180 0b 6a 1e 3d 84 45 db bd 48 55 75 3d 1d 32 78 3d
       0.03867535 -0.107066184 0.059895784 0.060594667
000190 f6 75 c2 bd 02 e5 ec 3d d3 67 8d 3d 1f 38 06 3e
       -0.094951555 0.11567117 0.069045685 0.13107346
0001a0 6a cb 3f be 75 a5 8e bc 64 5e 1d bd 48 a7 4f 3d
       -0.1872994 -0.01741288 -0.038420096 0.05069664
0001b0 a1 7b 22 3c 97 d4 15 3d 86 39 a5 3c 07 5d c7 3d
       0.009917171 0.036579695 0.02016903 0.097345404
0001c0 66 29 40 3e 3f 6f 2b 3d 5c 30 eb bd 71 1c 9d 3d
       0.18765792 0.04185414 -0.11483833 0.076714404
0001d0 ed 2b 0d 3d e5 03 e3 bd 60 02 ef 3c c9 93 05 bd
       0.03446572 -0.11084727 0.029175937 -0.032611642
0001e0 b2 4d c4 3b 97 5f c2 3c b9 df 14 3e 1e 14 03 3e
       0.0059907073 0.023727221 0.14538468 0.12800643
0001f0 e7 7f aa 3d 34 28 1d 3d 83 74 e8 3d 12 7c ed bb
       0.08325177 0.03836842 0.11350348 -0.0072474563
000200 33 d7 ac bd 88 ae 13 3e 9e 07 73 be 01 77 92 3d
       -0.084394835 0.14422047 -0.23733374 0.071516044
000210 70 a9 48 3a f8 50 c3 3d 81 c8 88 3d 95 f0 0f 3e
       0.00076546427 0.09536928 0.06678868 0.14056619
000220 30 d6 3b bd 09 56 31 bd 67 7f 96 bc 3c d5 39 3e
       -0.045858562 -0.04329494 -0.018371297 0.18147749
000230 48 c2 10 3c 5d 61 3c 3e 7c b9 01 3d 2a d5 07 3e
       0.008835383 0.18396516 0.031671032 0.1326491

rca.ca.conv_du.0.bias f4 [3]
000000 38 8b 6b 3e ce f0 bd bd 6a b1 c5 bd
       0.23002326 -0.092744455 -0.0965298

rca.ca.conv_du.2.weight f4 [48, 3, 1, 1]
000000 45 58 a9 be 11 2b 99 be ef 17 bc 3e 04 9c b7 3d
       -0.33075157 -0.2991567 0.3673701 0.089653045
000010 80 11 74 3e 32 97 5a bb 6f f5 6c bd 6d e8 d2 be
       0.238348 -0.003335428 -0.05785125 -0.41192952
000020 39 31 23 3f 75 d7 99 3e 3b fa ba be a9 9f 89 3d
       0.6374698 0.30047193 -0.36519036 0.06719906
000030 3c e7 22 be b1 ff 83 3d 56 93 cd be 88 8b 11 3f
       -0.15908521 0.06445254 -0.4015147 0.5685353
000040 b7 ce ff 3d 50 87 51 bc c3 96 0b 3f 70 96 16 bf
       0.124905996 -0.012788609 0.5452692 -0.588233
000050 14 57 f5 3e ef 8e 27 3e c1 47 89 be 1c d6 12 bf
       0.47917998 0.16363119 -0.26812556 -0.57357955
000060 20 4c ea 3c b5 2a 0f 3f 57 cc c0 3d 00 88 75 3c
       0.028600752 0.5592454 0.09413975 0.014986038
000070 a5 ad d9 3e e2 f1 d6 be 54 0b 1b be f1 ec 44 bd
       0.42515293 -0.41981417 -0.1514104 -0.048077527
000080 96 80 1b bf d9 42 46 be ce 0a eb 3d dd 33 7c 3e
       -0.6074308 -0.19361438 0.1147667 0.2462916
000090 b5 93 17 bd 24 74 9a 3e df a2 5a bb 38 52 00 bf
       -0.0370061 0.30166733 -0.003336124 -0.50125456
0000a0 d0 64 cb 3e 65 e7 66 3e f1 c1 cf be 66 66 8b be
       0.3972535 0.22549208 -0.40577653 -0.2722656
0000b0 45 6a 54 bd 2d 54 d0 3d bb a9 b2 3e be 17 86 be
       -0.05185916 0.10172305 0.3489512 -0.2618999
0000c0 31 01 ac 3c e9 3a b1 3c 91 ce 34 bf e8 e3 09 bf
       0.020996662 0.021634536 -0.70627695 -0.5386338
0000d0 af 96 56 3e 8d ef 54 bd 81 6e 47 3f 70 fd 9d 3d
       0.20955919 -0.051986266 0.7790299 0.07714355
0000e0 27 08 ac be c7 10 6a be 7e bc 66 3c 36 93 50 3d
       -0.3359997 -0.22857963 0.014083026 0.05092164
0000f0 b4 aa 34 3f 23 14 4e 3e 2f f1 1a bf e0 fd ad be
       0.7057297 0.20124869 -0.60524267 -0.33982754
000100 3d 85 97 3e b2 b9 b4 be b1 e2 11 bf 9b 8c c0 3d
       0.2959384 -0.35297924 -0.5698653 0.09401818
000110 f4 fc 81 be 2d 64 48 be 6f 89 87 be 0f 65 91 3e
       -0.253883 -0.19569464 -0.2647204 0.28397414
000120 3e 4a ed 3e 76 c4 f2 3d d0 f1 92 be ba e8 32 3f
       0.46345705 0.11853878 -0.28700113 0.6988636
000130 2c bd 27 bf 5a 97 8d 3e 79 5a 13 be 4f 73 e6 bc
       -0.6552303 0.27654535 -0.14389981 -0.028131155
000140 11 44 f7 3d 8c 0f e0 3e 4c c5 cd be e5 65 ee 3e
       0.120735295 0.4376186 -0.40189588 0.46562114
000150 20 e5 04 bf d6 d7 a8 3d 48 ac 88 bd 1d fa 7a 3e
       -0.51912117 0.082442924 -0.06673485 0.24509473
000160 67 cb 5b 3d b1 d1 49 3f 04 16 b5 be ee 34 2e 3e
       0.053660776 0.7883559 -0.3536836 0.17012379
000170 3a 76 47 3f d8 0d 58 be c5 73 ca 3d 98 6e 32 bf
       0.77914774 -0.21099031 0.098853625 -0.697
000180 d8 d5 df 3e 3c 17 06 bd 81 06 fc be e8 4b 34 bf
       0.43717837 -0.032737 -0.49223712 -0.70428324
000190 1e f2 61 3e b5 a3 12 3e 19 51 1f 3f 52 d3 21 be
       0.22065017 0.14320262 0.6223312 -0.15803269
0001a0 a1 bf 20 be bc 27 cb 3e 8f 8f 81 3e 48 eb c3 be
       -0.156981 0.39678752 0.2530484 -0.38265443
0001b0 c3 7f b8 3d cc 58 17 3e 31 89 93 3e d9 2b ce 3d
       0.090087436 0.14779967 0.28815606 0.10066957
0001c0 ec 93 6c be 70 5f 05 3f bc 6f ff 3d 4d 68 cb be
       -0.23103303 0.5209875 0.124724835 -0.39728013
0001d0 a4 45 a4 3e f3 c3 af 3c 9d 8f 31 3e b2 3a 1c be
       0.32084382 0.02145574 0.1733994 -0.15256765
0001e0 57 78 27 be 47 18 53 be 4d 0b c5 be 41 03 ab be
       -0.163545 -0.2061473 -0.38485184 -0.3340092
0001f0 e8 ee fd be d9 6f 21 3d 06 e8 bc be cd 92 dc 3e
       -0.49596334 0.039413307 -0.3689577 0.4308075
000200 71 d8 03 3d 4b be f1 be c1 98 da 3e bf 51 d2 3e
       0.032188836 -0.47215495 0.42694667 0.41077992
000210 39 83 2e 3e 7e 0f 2d 3d c9 fa 21 3f e2 80 a8 3b
       0.17042245 0.042251103 0.6327329 0.005142317
000220 74 85 89 3e 54 7d 0a bf a0 11 01 bf a7 58 b5 3e
       0.2685963 -0.54097486 -0.5041752 0.354192
000230 f9 78 18 be 9e 80 b0 3d 51 fc 5c 3d 44 d3 d1 be
       -0.14889897 0.08618282 0.053951565 -0.40981495

rca.ca.conv_du.2.bias f4 [48]
000000 8c 2d 42 bd 5a 20 15 3f b2 c9 09 3f 96 f8 14 3f
       -0.047406718 0.5825249 0.5382339 0.5819181
000010 cd c4 09 be 44 fa 04 bf 37 96 bb 3e a4 ff 62 3f
       -0.1345398 -0.51944375 0.36638042 0.88671327
000020 c7 8a c7 3e c4 ec 23 3f 4f de a9 3e 24 17 4a 3e
       0.38973066 0.6403315 0.3317742 0.1973539
000030 ff 4e a4 3b 4a 40 3d be d1 7c 27 3e 0a c0 23 3f
       0.0050143 -0.18481556 0.16356207 0.63964903
000040 f8 d1 17 be ac 1f cf 3e 83 a6 b7 be cb 7d 86 be
       -0.1482619 0.4045385 -0.35869226 -0.26267847
000050 01 12 8f bd 08 e2 a4 3c 14 de cf 3e b0 d4 76 bd
       -0.06985856 0.020127311 0.4059912 -0.06026143
000060 8d c2 0f bf a9 a2 c6 bd e7 17 f6 3e b4 b4 e6 be
       -0.56156236 -0.09698994 0.4806511 -0.4505974
000070 d9 44 24 3f 52 e8 22 3f 58 54 4b be 56 21 b8 be
       0.64167553 0.6363574 -0.19856393 -0.35962933
000080 27 52 db 3e 07 4d 4a 3e 88 c5 75 3d d7 fb d4 3e
       0.42836115 0.19755946 0.060002834 0.4159839
000090 23 6c 2a 3e 68 ae be 3d 7f 5c 5b 3f 94 21 6c 3b
       0.16642813 0.09310609 0.8568801 0.0036030756
0000a0 8a 08 ae 3e 85 b4 51 3f 88 d9 1f 3e d5 a9 cb 3e
       0.3399089 0.81916076 0.15610325 0.3977801
0000b0 d8 3e d9 3e 8f 40 c8 bd 3c e7 6a 3e 7a a7 3e 3e
       0.42430758 -0.097779386 0.22939771 0.18618575

rca.body.0.weight f4 [48, 48, 3, 3]
000000 8e ad 2a bc 71 73 77 bd dc 36 03 bd 3d ef bb b8
       -0.010417355 -0.060412828 -0.03203474 -8.9614165e-05
000010 e0 95 e1 3c e1 f0 32 3c 22 60 f4 bc e3 1d c9 3b
       0.027537286 0.010921688 -0.029830996 0.006137596
000020 e2 98 bd bc 75 d6 7f bd 33 da 21 bd 5c 14 a9 3c
       -0.02314419 -0.06246038 -0.03951473 0.02063959
000030 b5 f0 49 3c ec de 86 bc d5 cc 9b bd 14 24 d0 bc
       0.012325455 -0.01646372 -0.07607428 -0.025407828
000040 9c ea 60 bd ac 78 ad bd 71 e9 0a 3b df b9 79 bd
       -0.05491124 -0.08470282 0.002119627 -0.060968276
000050 fe 3b 5e 3d ad 9f e5 bb 1e bf 5a 3d 81 f1 ab bb
       0.05425643 -0.00700756 0.05340492 -0.0052472954
000060 69 a9 d8 bc 20 17 66 3d 64 33 83 3d f4 16 df 3c
       -0.026447969 0.056174397 0.06406286 0.027232625
000070 d0 2f b4 3d 85 65 5a bd 5d 82 1d bd 49 4c e4 3b
       0.08798182 -0.053319473 -0.038454402 0.0069671017
000080 53 11 91 3d 7e 3c 74 bd c0 1c 82 bc 14 ab 45 bc
       0.070833825 -0.059628002 -0.01588285 -0.012064714
000090 90 1d b2 bd 84 f0 f7 3c 03 4d c3 bd c7 35 af bd
       -0.08697045 0.030266054 -0.09536173 -0.08555179
0000a0 73 f5 2a be f0 ce 4d bc 52 d6 14 3d eb 6a 9a bc
       -0.16695194 -0.012561545 0.036337204 -0.01884981
0000b0 85 44 79 3d 88 ed 1d 3d 18 23 04 39 cc 47 db bc
       0.06085636 0.038556606 0.00012601574 -0.026767634
0000c0 bb 3b 4b bc f9 51 76 3d 95 26 2b bd b5 16 7f 3c
       -0.012404378 0.06013677 -0.04178484 0.015569379
0000d0 3b 1f 02 3c f1 21 d1 3a 8e 8d 95 bd 88 77 11 bd
       0.007942016 0.001595555 -0.0730239 -0.035514385
0000e0 bc 64 35 bb a7 d1 20 bd 4e 22 89 3d c5 c2 c5 bb
       -0.002767845 -0.03926244 0.06695996 -0.006035181
0000f0 25 11 26 3c 81 2e 6d 3c 15 80 1f bd 40 d8 bd 3c
       0.0101359235 0.014476419 -0.038940508 0.023174405
000100 7b 10 8d 3c 50 62 18 3d 41 c9 04 3e 55 1b 7e 3b
       0.017219773 0.037203133 0.12967397 0.0038773615
000110 4d 77 e6 bd 1e ff bb bb 51 98 67 bd 19 2b 5d bd
       -0.112532236 -0.0057371994 -0.056541745 -0.05399618
000120 87 18 2a 3d 88 f9 43 3d 81 68 5c 3d a9 05 b8 3d
       0.041527297 0.047845393 0.0538106 0.089854546
000130 ca a7 da 3c 78 7f 93 3c 4a 2e 21 3d 55 c8 17 3d
       0.026691336 0.018005118 0.039350785 0.037056286
000140 a6 cc 1a bd e2 f8 a9 bd 58 e9 92 bd 9e b2 2d bb
       -0.037792824 -0.08299424 -0.07173413 -0.002650417
000150 a6 ba c5 3c 91 fd 5d bc 11 2a 24 ba e8 cc da bc
       0.024136852 -0.0135492245 -0.0006262372 -0.026709035
000160 57 10 53 bd 4d a0 33 bd 3d 05 ac bc d2 0a 46 bc
       -0.051529255 -0.043854047 -0.020998592 -0.012087541
000170 96 1b 94 3d 9a 7b ce 3c 2d 24 a9 3b 51 56 30 3d
       0.07231824 0.025205422 0.005161783 0.043051068
000180 6f 38 7c 3c be 42 53 bc 49 90 1a bd 18 45 b6 bc
       0.015394314 -0.012894331 -0.037735257 -0.022249743
000190 ec 57 f0 3c 6f 8f 21 3d 50 c7 63 3b 41 8f 55 bd
       0.0293388 0.03944343 0.003475625 -0.05213857
0001a0 2c 8d 22 bc b8 aa 9d 3d 37 71 96 3c 5a d8 de bc
       -0.009921353 0.07698578 0.018364532 -0.027202774
0001b0 0c 77 ea bb 7d 67 f6 3b fe 69 4e 3d ae 10 c2 3c
       -0.007155305 0.007519661 0.05039405 0.023689594
0001c0 a6 a3 66 3c 2d ff d5 3c 9d fa 48 3d 61 e6 40 bd
       0.014077103 0.026122654 0.04906713 -0.047094706
0001d0 7c 06 83 bc db 96 70 bd 07 6c c3 bd 8b f9 8f bc
       -0.015994303 -0.058737617 -0.09542089 -0.017575046
0001e0 90 de 0e 3d c1 1c 4a 3d 83 78 dd 3c 46 4f ec 3b
       0.03488022 0.049343828 0.027035004 0.0072115986
0001f0 a8 46 f4 b9 4e c1 d8 bc 2d 82 83 bc d9 ca 26 bd
       -0.0004659195 -0.026459362 -0.016053284 -0.040720794
000200 c1 e8 56 ba de 5e f2 bc 68 d8 86 bd 2e f5 1b bc
       -0.0008198135 -0.029586252 -0.06584245 -0.009518905
000210 da b1 b5 bc c2 59 0d 3d 9a 2f 23 3d fa c2 8f 3d
       -0.022179533 0.034509428 0.03984032 0.07019611
000220 2e b6 63 3d c4 64 9c 3d ac cc a7 bc e3 f6 a7 3d
       0.055593662 0.07636407 -0.020483337 0.08201387
000230 ec 2b 86 bc fc 2f 64 3d ff 7f 81 bb 40 e3 f0 bc
       -0.016378365 0.055709824 -0.003952026 -0.029405236
000240 5b ed 16 bd 1e 9f 3b 3c 93 30 b3 3d e7 65 05 3d
       -0.036847454 0.011451511 0.08749499 0.032567885
000250 41 56 00 3d 1f c3 ae 3d 8c 76 4c bc 47 7a cb bc
       0.031332258 0.0853331 -0.012479436 -0.02483858
000260 e8 4b 27 bd 82 d0 de ba 63 f1 a4 bd 81 51 93 bd
       -0.040843874 -0.0016999396 -0.08053853 -0.0719328
000270 ea 4c 22 3d 00 82 8d 3d ba 64 07 3d 0f 7e bd bc
       0.039624132 0.06909561 0.033055045 -0.023131398
000280 ca 27 1f bd 7f 6a 3c bd 55 b4 f2 bd 54 7c 0c bd
       -0.038856305 -0.046 -0.11850802 -0.034298256
000290 f8 3f 2e 3d f8 28 9d bd 49 bc d2 bd c8 b8 85 bd
       0.042541474 -0.0767383 -0.10289819 -0.06529385
0002a0 5a 10 1a be c1 f9 40 bc d5 1c 53 3c 21 52 9c bc
       -0.150453 -0.011778296 0.012885292 -0.01908213
0002b0 e7 2c 10 bb 1e 5b 80 3d 8e 83 35 3d 3f d4 53 3c
       -0.002199942 0.06267379 0.044314913 0.012929021
0002c0 16 97 96 3d 02 52 f1 bb 1c fe 98 3d 38 f5 b2 3c
       0.07353036 -0.0073645124 0.074703425 0.021845445
0002d0 cd 70 b3 bd e0 a2 d1 bc 3e 74 16 3d a3 04 42 bd
       -0.087617494 -0.02559036 0.03673195 -0.047367703
0002e0 00 d6 cd 3d 76 d3 9a 3d cf f8 12 3c 26 73 ec bc
       0.10050583 0.07559864 0.008970453 -0.0288635
0002f0 3b 27 78 bc 0d fb 22 3b d7 3a 72 3c 0a ac 3b bd
       -0.015146072 0.0024868876 0.014784536 -0.045818366
000300 ce af 8a 3a 34 ac 2b bd d2 36 d2 bc cc cd a9 3c
       0.0010580958 -0.041912273 -0.025660906 0.020728014
000310 b9 ec 83 3c 3e 8e 46 3c 33 4d 77 3c 04 8a 10 be
       0.01610409 0.012118874 0.015094089 -0.14115149
000320 aa 82 fb 3c 78 dc 07 3d 32 fa e4 3c 6d 70 93 3c
       0.030701954 0.03316924 0.027951334 0.017997945
000330 57 d4 64 bd c8 84 a8 3c b8 56 87 3d cb 67 ec bc
       -0.055866566 0.020571128 0.06608337 -0.028858086
000340 49 82 ef bc 16 81 b6 bd 01 b9 17 3d 6b 13 14 bd
       -0.02923693 -0.0891134 0.037041668 -0.03615133
000350 f6 db 8f bb e5 0a a1 3b 87 04 8b 3d 47 09 a2 3d
       -0.004390235 0.004914629 0.06787973 0.07911926
000360 0e 4c e7 bc ed b9 b5 3b 6e ad c7 bc 8e bf f6 38
       -0.028234508 0.0055458457 -0.02437469 0.00011765874
000370 02 93 14 3d 1f e0 db 3c 93 ca 22 3d f6 cd ec bb
       0.03627301 0.026840268 0.03974397 -0.007226701
000380 dd e1 8b 3c 57 92 36 bd 5f 66 61 bd 95 26 bd bd
       0.017075473 -0.044573154 -0.05502927 -0.092358746
000390 d1 f3 9e bc da 83 c6 bd 68 06 4c bd a3 18 48 bd
       -0.01940337 -0.096931174 -0.049810797 -0.04885162
0003a0 a0 80 75 3c 54 9e b3 bc f8 0c 90 3c 14 24 9b bd
       0.01498428 -0.021926083 0.017584309 -0.07575241
0003b0 73 c1 fd bc 0b 66 88 3d 30 d9 1a 3e 31 d3 03 3d
       -0.030976033 0.06660088 0.15121913 0.03218383
0003c0 6b 2f 1b bd 56 34 92 bd 88 b7 9d bd e4 84 cb bc
       -0.03788702 -0.071388885 -0.077010214 -0.02484364
0003d0 8e f6 9a 3c 22 7a 6f bd a5 ed 3d 3d 22 47 26 bd
       0.018916395 -0.058466084 0.046369214 -0.04059518
0003e0 4e ca 3f bd 79 4a 2e 3d 9a 26 c0 ba b6 06 2a 3d
       -0.046823792 0.04255149 -0.0014659942 0.041510306
0003f0 05 2c 3f 3d 52 fe d9 3c 2b dc 72 3c ca 8e 17 bd
       0.04667284 0.026610527 0.014823 -0.03700141

rca.body.0.bias f4 [48]
000000 23 fe 1f be c3 b3 3d be 07 93 95 3e 8d 34 75 3f
       -0.15624289 -0.18525605 0.29213735 0.9578331
000010 a1 eb 0b 3e aa 23 85 bc ef 5b c8 3d 99 ec a7 bd
       0.13664104 -0.016252358 0.0978316 -0.08199424
000020 be b6 93 3e e3 89 ef 3d ac d7 d7 be b7 9d e4 bc
       0.2885036 0.11696222 -0.42156732 -0.027907236
000030 e6 e5 a6 3e 79 a5 6d be 3a 14 84 3b 7a 35 68 be
       0.32597274 -0.23207654 0.0040307315 -0.2267665
000040 0c 6d b0 be 09 34 b2 3e 39 24 61 be a8 0b 99 3b
       -0.34458196 0.34805325 -0.21986474 0.004670579
000050 3e 4a 02 3f c8 c3 6e be 1b 37 d8 bd 01 dd 6a 3e
       0.50894535 -0.23316872 -0.105573855 0.22935869
000060 78 89 a4 be 28 8f 12 3f 4c 82 a5 be 0d 9c c2 3e
       -0.3213613 0.5724969 -0.3232597 0.38009682
000070 11 01 75 3d cd 3b 08 3f ff ec b1 3e 97 cc 2a 3f
       0.05981547 0.5321625 0.34751126 0.6671843
000080 12 4e 6c be 0d 4d cf 3e 88 64 63 be cb c2 22 be
       -0.23076656 0.40488473 -0.22206318 -0.1589462
000090 c6 06 bb bd 37 bd d3 be 24 91 ee 3d a6 e1 7f 3e
       -0.09132151 -0.41355297 0.11648777 0.24988422
0000a0 96 eb 01 be e6 1e 89 3f 12 71 96 3e 7e fc f8 bd
       -0.12687525 1.0712554 0.2938314 -0.12157534
0000b0 ca d9 d5 3e 66 96 65 3c 1e c8 a2 be b2 1f 99 be
       0.41767722 0.014012909 -0.31793302 -0.29906994

rca.body.2.weight f4 [48, 48, 3, 3]
000000 44 6c 9b 3c 83 9d d4 3a a0 17 42 3c 9d 98 39 3c
       0.018972524 0.0016221259 0.011846453 0.01132789
000010 60 6c 97 bc 23 92 bf bb dd 82 4f 3d 39 69 d5 3c
       -0.018484294 -0.0058462783 0.05066191 0.02605115
000020 51 1b 11 3c f7 5b a3 bc cd 78 de bb d8 52 8c 3b
       0.00885661 -0.019941313 -0.006789303 0.0042823367
000030 f9 61 42 3c 81 a1 09 bd 2b 97 c3 3b af cb 13 3c
       0.011864179 -0.033601288 0.0059689484 0.00902073
000040 a9 9e 17 3d c3 d7 5a 3d 14 4a 33 3d af b5 30 3d
       0.037016544 0.053428423 0.04377182 0.043142017
000050 ba f6 44 3a 7a ca 75 bc a4 2f 13 3d e9 a9 1b 3d
       0.0007513572 -0.015001887 0.035934106 0.038003836
000060 e3 3d a8 bd 30 df 18 3d 38 b5 94 3d ea c9 62 3c
       -0.08214929 0.037322223 0.07261127 0.013842085
000070 51 b2 57 bc 15 83 86 3c d9 80 c1 3c c4 19 ff 3c
       -0.013165073 0.016419927 0.02362101 0.031140216
000080 61 09 74 3b 76 2e 01 3c 98 43 e4 ba 79 5b 39 3c
       0.0037237036 0.007884612 -0.0017415164 0.011313313
000090 3b 68 f0 bc 87 1f c1 3c a2 dd 94 bc ca a7 50 bc
       -0.029346576 0.023574604 -0.018172089 -0.0127353165
0000a0 e2 2f 1c 3c 19 64 cb bc fd d3 5a bb b8 c0 2a 3d
       0.0095329005 -0.024828004 -0.0033390515 0.041687697
0000b0 e1 61 c4 3b a3 73 3a bd a9 93 a1 bc 68 84 c2 bc
       0.0059931134 -0.045520436 -0.01972373 -0.023744777
0000c0 2a 0f 86 bb 1a 73 8f bd e7 6d 96 bc fc cd 6c bc
       -0.004091163 -0.07004376 -0.018362952 -0.014453407
0000d0 31 7d 0f bd cb 25 8f bc 35 5d 3d bc f1 62 e0 bc
       -0.0350315 -0.017474076 -0.011557867 -0.027390929
0000e0 61 22 ae bb 09 c9 6d bd e0 0c 1d bd 1a d8 9f 3b
       -0.005314157 -0.05805305 -0.038342357 0.0048780562
0000f0 9b 9d 18 3c db 0d c0 ba 72 ea 68 bd cc 66 e2 bc
       0.00931492 -0.0014652567 -0.05686421 -0.027636908
000100 e7 69 71 bd f5 61 f7 bc c1 40 48 bd 65 13 f0 bc
       -0.058938887 -0.030198077 -0.04888988 -0.029306123
000110 b3 7c cc bc 63 24 27 bc 5c 5a 9c bd 17 80 3e bd
       -0.024961805 -0.010201546 -0.07634422 -0.046508875
000120 af ca 90 3b 5f 9b 47 3c 0f 80 4c bb fe 0c 8f 3a
       0.004418693 0.012183039 -0.0031204259 0.0010913906
000130 81 20 00 bc 2c b5 5e bd 4b 2c 64 3d 1b e6 43 3c
       -0.00782025 -0.054371998 0.055706304 0.011956717
000140 a1 d6 e1 ba b1 7d 0a 3c 0d b8 31 bd 92 76 d7 bd
       -0.0017230102 0.008452819 -0.043388415 -0.10520662
000150 bf 8f c1 bc 73 e3 8e bd 12 c7 7c bd a2 71 43 bc
       -0.023628114 -0.06976976 -0.061713286 -0.011928948
000160 44 46 74 bc e6 ad fe 3b 36 29 94 bb 08 fe f7 bc
       -0.014909331 0.007772195 -0.0045215143 -0.030272499
000170 b0 ab a4 bc 5d c0 87 ba 11 27 28 bc 62 7c 32 3d
       -0.020101398 -0.0010357011 -0.01026322 0.043575652
000180 9e 51 67 3b 4f 3f 87 3c 9c 5d af bc 03 e5 73 3e
       0.003529645 0.01650968 -0.021406941 0.2381783
000190 e9 dc 1c 3c ec 6c 9b 3c 20 c7 87 3d 4c aa 6e bc
       0.009574153 0.018972836 0.06629777 -0.014566969
0001a0 b7 8d a3 3c da 84 2e bd 7f fa ce bc 3e da b7 39
       0.019965036 -0.042607166 -0.02526593 0.00035067083
0001b0 14 35 81 bc 20 1e e5 bb 85 36 aa bc d4 37 a8 3a
       -0.01577238 -0.0069921166 -0.02077795 0.0012834021
0001c0 90 3e d5 ba e3 aa 32 ba 93 4f c7 bc a3 83 15 bb
       -0.0016269255 -0.0006815625 -0.024329936 -0.0022814057
0001d0 d8 80 11 bb b9 53 3f bd 33 f8 42 bd 8b b3 68 3c
       -0.002220204 -0.046710704 -0.047599982 0.014202963
0001e0 e3 86 6c bc 83 6f 18 bd bd 44 8d 3c 38 3e 6a bd
       -0.014436456 -0.03721572 0.017244691 -0.057188243
0001f0 b9 ec c5 bc ac 08 6c 3d de a1 39 bc 32 6f aa bc
       -0.02416073 0.057625458 -0.011330096 -0.020804975
000200 7c e0 94 bc 4b 7e 5d 3c f4 e0 3e 3d 58 a3 1b 3d
       -0.018173449 0.01351888 0.04660125 0.037997574
000210 0e 2b 8e 3c f7 1d e8 bc 44 80 d4 bb 83 00 74 bb
       0.017354514 -0.0283346 -0.006485017 -0.003723175
000220 24 0c 82 bb 6d 67 a8 3b 23 cc f9 bc e4 31 26 bd
       -0.0039687324 0.0051392824 -0.030492848 -0.040574923
000230 07 67 59 3c e9 71 3d 3c dc 69 02 3b a5 52 21 3c
       0.013269193 0.011562803 0.0019899523 0.009846364
000240 f3 ff a2 3c 47 19 b1 3c f7 d9 fc 3c 30 7b 66 3c
       0.019897437 0.021618498 0.030865652 0.014067456
000250 35 55 fa 3c 9b fe 8e 3c 2b d2 a0 3c c4 ae 78 3b
       0.030558208 0.01745539 0.019631466 0.0037945965
000260 3a a1 a9 3c a1 b5 0c bd 92 8a 83 3b 42 3c 5d bc
       0.020706762 -0.034352902 0.0040143216 -0.013503136
000270 b9 9b ce bc c4 55 65 bd d7 bd 50 bc 52 26 b9 3b
       -0.025220739 -0.055989996 -0.012740574 0.00565032
000280 d4 b6 09 bd d1 bb b8 ba 5f 36 e3 3c 90 f5 b3 bc
       -0.033621624 -0.001409406 0.027735887 -0.02196768
000290 96 9b 54 bc 52 d3 6f 3d 69 2b 54 3c b2 c8 2d bc
       -0.012976548 0.05855114 0.012949803 -0.0106069315
0002a0 8f 29 2f 3d f2 0d 02 3d da 5f 37 3c ee 20 03 bd
       0.042764243 0.03175158 0.011192286 -0.032013826
0002b0 81 75 95 bd a8 e7 7c bc 97 f7 2f bd 96 72 35 bd
       -0.07297803 -0.0154360905 -0.04296073 -0.04429873
0002c0 f3 2a 09 bd f2 17 0b 3c 8a e1 d8 bc 94 32 d4 bc
       -0.033488225 0.008489596 -0.026474733 -0.025903024
0002d0 06 91 00 bd 63 d2 e0 bc 7a d8 8a bc 05 77 a2 bb
       -0.031388305 -0.02744407 -0.016948927 -0.004958036
0002e0 91 74 4d bd 33 69 bc bc d4 84 3b bc c1 41 ac bc
       -0.050159995 -0.022999382 -0.011445243 -0.021027448
0002f0 45 84 46 bd 3b 07 1d 3d 02 be 6c 3d 11 dc 95 3d
       -0.048465986 0.038336974 0.057798393 0.07317365
000300 90 05 1c 3d 59 ea 2a 3e 8e e4 48 3d 35 e6 b8 3c
       0.038091242 0.16690959 0.04904609 0.022570709
000310 96 69 45 3d 58 00 46 3d 1d 75 d3 3c 85 61 18 bc
       0.048196398 0.04834017 0.02581268 -0.009300594
000320 a7 52 9e 3c 0b 86 38 3c 50 66 e6 3b 64 a3 3c bc
       0.019326521 0.011262427 0.0070312396 -0.011513565
000330 e7 f1 80 bc 5f 88 42 bd e9 79 20 bc 6f a1 a7 bd
       -0.015740348 -0.047493335 -0.009794691 -0.08185088
000340 34 73 bc bc 93 d4 09 bc 6e 1a 80 bd 08 68 80 bd
       -0.023004152 -0.008412498 -0.06255041 -0.062698424
000350 16 c2 0a bd e1 03 1d bd 10 4b a6 bd bf ef 85 bd
       -0.0338765 -0.038333777 -0.08119786 -0.065398686
000360 bf 9e 8c ba c7 ab 6f bd ab c0 b7 bb fd 54 09 3d
       -0.0010728462 -0.05851343 -0.0056076846 0.033528317
000370 08 ff 07 bd f4 50 a6 3c 11 bf ea bc 4f bc ca 3c
       -0.0332022 0.020302273 -0.02865556 0.024747996
000380 56 a8 00 3c e6 1b 05 bc a9 7f d1 bc 4e 63 1c bd
       0.007852634 -0.008124327 -0.025573568 -0.03818064
000390 f9 a4 25 3c 00 bb 48 bc 36 9a 35 bc aa 82 02 39
       0.010110133 -0.0122516155 -0.01108413 0.00012446442
0003a0 94 0d 12 3d ac ba ba 3c 86 d5 87 3c 4c d3 02 3d
       0.03565748 0.02279409 0.016581308 0.03193979
0003b0 78 f2 cf ba b9 1c 0f 3c dc 3e e7 3d d2 54 23 3c
       -0.0015865108 0.008734875 0.11291286 0.009968953
0003c0 82 98 6f 3d 36 af 90 bc f1 bf 95 bd de bf 86 bd
       0.058495052 -0.017661672 -0.073120005 -0.065795645
0003d0 25 f1 ab bb 4f eb e4 3b 7a d5 25 bb f4 51 cc bc
       -0.0052472525 0.006986059 -0.0025304244 -0.024941422
0003e0 c6 a0 0b bd dd de 04 3c 4c 72 76 3c 07 a6 f1 bb
       -0.034088872 0.008109775 0.015041899 -0.0073745283
0003f0 cd a5 07 bd e8 ac dc ba ae 8d 52 3c ca 4d 90 3c
       -0.033117104 -0.0016836198 0.012851162 0.017615218

rca.body.2.bias f4 [48]
000000 b8 07 83 bd 85 7a e8 3d 2c b6 9c 3e c3 7b ed bd
       -0.063979566 0.11351494 0.30607736 -0.11595871
000010 cc 45 9c be 27 ef df bd e1 4f 4e 3d 49 f5 da bb
       -0.30522 -0.109342866 0.050369147 -0.0066820723
000020 c1 ad 33 be 80 ce 22 3e cf 5f fb bc 21 07 85 3e
       -0.1754675 0.15899086 -0.030685334 0.25982
000030 38 19 1f be 2b 55 e6 3d 34 68 ba bc 93 a0 82 be
       -0.15536964 0.11246713 -0.022754766 -0.25513133
000040 2b 53 9f 3d 82 68 2f bd aa c3 a4 3e 28 37 5b be
       0.07779535 -0.042824276 0.3218053 -0.21407759
000050 55 61 b8 be a2 76 84 bd d2 eb 75 be 08 b8 78 bd
       -0.36011758 -0.0646794 -0.2401574 -0.06072238
000060 fd 67 22 be 53 97 40 3e 10 96 d4 be 22 82 dc bd
       -0.15859981 0.18807726 -0.4152074 -0.10767008
000070 69 8c 20 be 2b 1a 6c 3c 70 25 84 be 0c 2b cd 3d
       -0.15678562 0.014410536 -0.25809813 0.10017976
000080 01 83 21 3e 96 00 ae 3d f5 ce fb bd 38 25 86 bd
       0.1577263 0.084962055 -0.12295333 -0.06550068
000090 74 78 35 3e e1 bf dc bd 31 20 6f bd 14 b4 31 be
       0.1772173 -0.107787855 -0.05838031 -0.1735385
0000a0 84 1c f1 bd b7 86 3c be 84 7c 27 3e 8a 97 2d 3e
       -0.11773017 -0.18410765 0.16356093 0.16952339
0000b0 0f 94 57 3e 0d 3b 18 3e 2f a3 38 3e 63 d3 a9 3e
       0.21052574 0.14866276 0.18031 0.33169088

head.0.weight f4 [48, 3, 3, 3]
000000 47 3f 14 3e 30 24 43 be 63 bc 30 3e 4c d5 aa bc
       0.14477263 -0.19056773 0.17259364 -0.020853661
000010 7d 87 1f 3e 86 51 90 3c 03 49 a6 bc ba da 34 3e
       0.15579028 0.017616998 -0.020298487 0.17661563
000020 5b 74 f3 bc c4 47 c3 bd 45 94 39 be 74 1a 3b 3e
       -0.029718569 -0.095351726 -0.18122967 0.1827181
000030 f3 20 f3 ba 1d 18 13 3d 49 ba 9f bd a1 fe d0 3c
       -0.0018549248 0.035911668 -0.07799203 0.025512042
000040 25 e4 37 be d7 a5 28 be 21 c1 07 3d f5 67 e3 bd
       -0.17958124 -0.16469513 0.033143166 -0.111038126
000050 1f d1 19 3d 8d 99 8e 3d 60 f3 df bd ba bc 35 bd
       0.03755295 0.06962881 -0.10935092 -0.044369437
000060 7c 1a f3 bc a6 0c c6 3d a0 2f 13 bb 3a ed 80 bd
       -0.029675715 0.09670381 -0.0022458807 -0.062952474
000070 22 34 21 3e 07 cb 4a be 1c af 00 3e 12 e6 04 bd
       0.15742543 -0.19804011 0.12566799 -0.032445975
000080 2e d0 48 bc 38 f3 e1 3d 66 7a ab bd 88 1a b0 3c
       -0.012256665 0.110327184 -0.08372955 0.021497026
000090 bf 96 2f 3d f2 73 22 3e 5f ca f6 bd e5 ca 2f 3e
       0.042868372 0.15864542 -0.12050318 0.17167242
0000a0 28 27 9f bd b8 34 b0 bc 97 a8 8a bd e7 7f 1a be
       -0.0777114 -0.021509513 -0.06770437 -0.15087853
0000b0 83 b9 ea 3d 84 fd a0 3d 0c 71 4f 3d a0 28 31 be
       0.11461165 0.07860854 0.05064492 -0.17300653
0000c0 91 ea ce 3c b1 69 8f bd b3 55 0d 3d d2 84 1e 3e
       0.025258334 -0.07002581 0.034505557 0.15480354
0000d0 53 7f bf bd 0f f5 11 bb d7 ca d7 bd 73 c4 c0 bd
       -0.09350457 -0.002227131 -0.105367355 -0.0941247
0000e0 51 cf 64 bd d4 42 87 bd 9b cd 4f 3d 61 fa 09 3d
       -0.055861775 -0.06604543 0.05073319 0.033686046
0000f0 25 6a 23 be df ee 10 3d dd 05 3d 3e 38 1d 17 be
       -0.1595846 0.035384055 0.18459268 -0.1475724
000100 e6 08 95 3d 68 37 d4 bd bf df b8 bd 1c a7 c8 bb
       0.07277088 -0.103621304 -0.09027051 -0.0061234366
000110 42 24 8e bd f2 ba 3c 3c b3 67 29 be 09 f1 a8 3c
       -0.069405094 0.011519181 -0.16543464 0.020622747
000120 3d fd 5e bd e1 d6 07 3e 89 56 61 bd ec 7f ee 3d
       -0.054440726 0.13265564 -0.055014167 0.11645493
000130 7d 8e 77 bd 74 99 cf 3d 64 48 43 3e 83 7a 2a be
       -0.06043862 0.10136691 0.19070584 -0.16648297
000140 01 76 f8 bd 96 b0 8c 3d 3f db 97 3c 83 ed 46 bd
       -0.121318825 0.068696186 0.018537162 -0.048566353
000150 ec f6 21 3e 7d d4 30 3c 0b a3 12 be 6f a0 96 bd
       0.1581685 0.010792849 -0.14320008 -0.07354819
000160 38 94 9a 3d af 1d a4 bd 26 95 a6 3d 44 89 fc 3c
       0.07547802 -0.08013474 0.081339166 0.030827172
000170 f0 e2 78 3c b3 46 44 be 8b 28 d5 3d 9e 3e 3c 3e
       0.015190825 -0.19167595 0.104081236 0.18383262
000180 b5 71 13 be ca dc bf bd ba dc ad 3b 89 10 16 be
       -0.14398845 -0.09368284 0.0053058537 -0.14654745
000190 26 eb 86 bc bc 76 34 be e0 4f aa 3d 86 20 07 3e
       -0.01646955 -0.17623419 0.08316016 0.13196
0001a0 4c 8f a8 3d 5e ea 01 3d b5 bd d6 3d d2 aa 57 bd
       0.08230457 0.03171765 0.104854025 -0.05265314
0001b0 3c d4 05 3e c2 19 ed 3a c1 f8 7b bd b6 db 01 3e
       0.13069242 0.0018089341 -0.061516527 0.1268147
0001c0 69 a8 93 3b d8 ee 11 3d c4 e6 b3 bd ed 84 cc bc
       0.00450616 0.03562817 -0.087842494 -0.024965728
0001d0 24 df 24 be f0 71 59 3d 69 58 3d bc 6f fa e7 3d
       -0.16100746 0.053087175 -0.011556723 0.11327063
0001e0 b0 b5 9a 3c c7 b8 1a be d0 da cc bc a4 64 4d bd
       0.018885463 -0.1510955 -0.025006682 -0.050144807
0001f0 38 ea 7d bb ca f5 2a bd 3b 39 2c bd 03 c6 0c be
       -0.0038744342 -0.04173831 -0.042046767 -0.1374741
000200 4a 0e 1c be 1e 4b d3 bd fd a9 1e be 2a fe 0b be
       -0.15239826 -0.10317062 -0.15494533 -0.13671175
000210 67 33 12 be 9c e5 2c 3e e4 3d 41 3e 8e 4b 08 3e
       -0.14277421 0.16884464 0.18871266 0.13310072
000220 78 80 27 bd 4d ac 0a 3e fc be c9 bd 13 14 bd bd
       -0.040894 0.1354229 -0.098508805 -0.092323445
000230 23 47 1c 3e 50 41 ae bd 2b bc 2a 3d 93 4d 90 bd
       0.15261512 -0.08508551 0.041683357 -0.07046046
000240 18 06 26 be da 94 43 3e a8 9d 45 be a9 a3 0e be
       -0.16213262 0.19099751 -0.19298422 -0.13929619
000250 bd 21 6c 3d 1b 74 2d be 53 f8 d9 bc 90 4c 08 3e
       0.057649363 -0.16938822 -0.026607668 0.13310456
000260 b8 8a 0d 3e 7d 52 1f bd 7b 5e f9 3d 73 d7 2e 3e
       0.13822448 -0.038897026 0.12176224 0.17074375
000270 ea 2f bc 3d 93 07 b3 bd 79 04 32 3d b3 5b 30 be
       0.091888264 -0.08741679 0.043461297 -0.1722248
000280 22 41 ca bd b3 77 7b 3d 96 c5 3e 3e 65 e7 13 be
       -0.09875704 0.06139345 0.1863006 -0.14443739
000290 f0 bf 3e be ef d6 23 3e 96 aa e9 bd 8b 97 45 3d
       -0.18627906 0.1599996 -0.1140949 0.048240226
0002a0 b3 74 37 be c7 c5 73 bd 63 20 1c bc 52 6c 86 bd
       -0.17915611 -0.059514787 -0.009529206 -0.06563629
0002b0 3f 35 31 3c 20 d7 b1 3d 93 e3 15 3c 03 5a e1 bd
       0.0108159175 0.0868361 0.009148496 -0.110034965
0002c0 fd 11 9a bd 08 2e d3 3b a0 3f d2 3d fd 5c 2f be
       -0.07522962 0.0064446963 0.10266042 -0.17125316
0002d0 23 51 e7 3d 07 32 9b 3b 38 7a 14 be f9 37 0a be
       0.112947725 0.0047361883 -0.14499748 -0.13497914
0002e0 a0 da ba 3d ee e3 c1 3c ab 8e 1e be 5b 73 bc bc
       0.09123731 0.023668256 -0.15484111 -0.023004225
0002f0 12 01 c3 bd da 6f 49 bc a1 54 12 3d 46 97 44 be
       -0.095216885 -0.012294734 0.03572524 -0.19198331
000300 b4 4f 37 3d 4b 38 ad bd f6 59 fd 3d e7 ae a3 bd
       0.044753745 -0.08458003 0.12370674 -0.07992344
000310 f6 5c 32 3d f6 85 25 be db 9a 37 3e aa 07 08 3e
       0.043545686 -0.16164383 0.17930166 0.13284174
000320 05 33 16 3e f5 26 41 3d 84 5d fc 3d d9 90 2d be
       0.146679 0.047156293 0.12322524 -0.16949786
000330 65 c9 a3 bd b6 7b 1a 3e db ab 9b 3d e2 5b eb 3d
       -0.07997397 0.15086254 0.07601138 0.11492135
000340 5a 57 19 be 24 47 4b bd 2d 70 08 be 08 41 ec bd
       -0.14974728 -0.04962839 -0.13324042 -0.11535841
000350 a6 e4 c3 bd e6 8d 44 3e fe 3d 92 bd 79 4f 70 bc
       -0.095650956 0.19194755 -0.0714073 -0.014667385
000360 de 66 6f 3d 96 f6 17 3e d5 38 fd bc 61 0c 81 bd
       0.05844771 0.14840159 -0.030910889 -0.06301189
000370 d0 e5 d3 3b 2d 54 c4 3d 05 00 80 bd b6 df af 3d
       0.006466605 0.09586368 -0.06250004 0.08587591
000380 c1 99 1c be bf 98 c3 bc b2 5b f4 3c 27 14 c5 bd
       -0.15293027 -0.023876546 0.02982888 -0.096229844
000390 77 f2 1e be b8 4c e7 3d 54 4f 43 be da f4 c3 bd
       -0.1552218 0.1129393 -0.1907323 -0.09568186
0003a0 a3 41 14 3e c0 fa b7 3d 75 7d 06 bd 72 ea ed 3d
       0.14478163 0.08983374 -0.03283449 0.116169825
0003b0 d9 c5 b0 3d bf c9 09 3e e6 e2 a9 3b e7 55 08 be
       0.086314864 0.13455866 0.005184519 -0.13314019
0003c0 95 e5 5d bc 3a dd cc bd e4 c7 37 3d 25 6b 03 be
       -0.013543506 -0.10003133 0.044868365 -0.12833841
0003d0 1f d2 d9 bd fa d1 38 be da 27 3d 3b 97 38 28 3e
       -0.106357805 -0.1804885 0.0028862865 0.16427837
0003e0 a3 7f 5d 3c 7f fd d7 bd 5c 86 e9 3d b1 d3 a0 bc
       0.0135192005 -0.105463974 0.1140258 -0.019632192
0003f0 db 4d 5f bc 84 fa 32 3d 94 db dd 3c 07 60 00 3d
       -0.013629402 0.04369594 0.027082242 0.03134158

head.0.bias f4 [48]
000000 af ba f5 bd 15 ad de 3b 94 16 52 3d 59 b0 e3 bc
       -0.11998498 0.0067955353 0.051291063 -0.02779405
000010 9a 78 23 3e a9 2b 95 bc 26 2a 03 3d fe 9b 88 bc
       0.15963975 -0.018209295 0.032022618 -0.016675945
000020 f2 2e 6b bf 38 56 01 3d 8e 36 80 3f a5 94 45 be
       -0.9186851 0.031576365 1.0016649 -0.19294985
000030 3e c2 44 be 23 7a 5c 3e 7d 76 61 be bb 92 ed bd
       -0.19214723 0.21530966 -0.22017856 -0.11600252
000040 76 cf 3a bf 58 c6 27 3e 05 51 f3 bd 15 9e 68 3d
       -0.7297281 0.16384256 -0.118806876 0.056791384
000050 69 c6 dd 3d 5f bf e4 3e 92 69 44 be 13 a8 18 bc
       0.10828859 0.44677255 -0.19180897 -0.009317416
000060 bb f4 35 be 43 7e 93 bf f7 95 9d 3e 6b 59 87 be
       -0.17769139 -1.1522907 0.30778477 -0.26435408
000070 56 11 82 bc 5e 20 97 be af 99 22 bf 77 db 29 3e
       -0.015877407 -0.29516882 -0.6351575 0.16587625
000080 a1 10 6b 3d fc 42 36 3e da bc e7 bd aa d1 11 3d
       0.057388905 0.1779899 -0.113153175 0.03560034
000090 36 aa 25 bd 6a e1 6e 3e 60 49 e6 bd 51 54 07 3d
       -0.04044553 0.23328176 -0.11244464 0.033039395
0000a0 01 d9 17 be de 7e ca 3b 6c 54 23 be 12 83 0c 3e
       -0.14828874 0.0061796745 -0.15950173 0.13721874
0000b0 0d 50 2e bf 90 1c 5e be e3 51 9c 3d b7 38 a7 bd
       -0.680909 -0.21690583 0.07632806 -0.081651144

head.1.weight f4 [48, 48, 3, 3]
000000 21 ad 11 bd fd d2 f8 bc c2 65 0c bd 8b 0d 06 3d
       -0.0355655 -0.030374045 -0.03427673 0.03272776
000010 59 c9 0d bd 02 04 48 bc 29 33 ad 3c d6 29 45 bd
       -0.03461585 -0.012207987 0.02114256 -0.0481356
000020 b3 6d 9d bc 1e 4a e1 bc a8 37 bd bc 51 da 60 3c
       -0.019217348 -0.027501162 -0.023097828 0.013723926
000030 19 f7 30 3d 85 d0 87 bc 6f 6d 1d 3b 42 ae 00 3d
       0.0432044 -0.016578922 0.0024021526 0.031416185
000040 8a fc 09 3d a0 9f 40 3c bd 53 31 bd d5 2b 2f bd
       0.033688106 0.011756808 -0.04329275 -0.04276641
000050 b4 7d d3 bc 3e 70 d1 3c 14 6b 67 bd 61 fd 22 bd
       -0.025816776 0.025566217 -0.056498602 -0.039792422
000060 46 fe 94 3a e7 c5 03 bd e3 8c 24 bc b2 4e 58 bb
       0.0011367283 -0.032171156 -0.010043356 -0.003300589
000070 cb 1a d6 3c c6 c0 02 bd e5 dc 40 3c 31 36 0a 3e
       0.026135823 -0.031922124 0.011771415 0.13497235
000080 b1 84 41 3d b7 de 21 bb ab ae 50 bd df aa 29 3d
       0.047245685 -0.0024699399 -0.050947826 0.04142272
000090 01 d4 2c bb 60 03 ba bc 4a ec 37 bd 4c d1 e7 bb
       -0.0026371481 -0.022706687 -0.044903077 -0.0070745107
0000a0 da d2 3a bd 6a 39 69 3c e2 87 4a bd 55 f3 be bb
       -0.04561124 0.01423488 -0.049445994 -0.0058273473
0000b0 db 36 ea 3c 69 65 83 3b d1 f1 09 3d d6 0e 44 bd
       0.02859061 0.0040098918 0.03367788 -0.04786571
0000c0 f7 9c 38 3c e0 11 1c bd 69 58 2c bd 35 0e 60 3d
       0.011267892 -0.038102984 -0.042076502 0.05470105
0000d0 f1 d0 8a 3c 2f 2f bc bb a8 19 cb bb d0 1a 4e 3c
       0.016945334 -0.0057429294 -0.006198127 0.012579635
0000e0 7c c7 3e bd f5 a0 3f bd 47 da 39 3c fe cd b9 bb
       -0.046576962 -0.04678436 0.011343545 -0.005670308
0000f0 7e 1f e7 bb d7 31 b3 bc 9d e8 56 bd ce 6b c9 3a
       -0.0070533147 -0.021874351 -0.05246793 0.0015367211
000100 f3 cf 83 3d c8 6d 68 bb 59 a3 da bc 67 92 70 bc
       0.064361475 -0.0035465825 -0.026689218 -0.014683343
000110 5b f2 bf bc dc 2b a3 3c 75 1b eb 3a ea eb 83 3c
       -0.023430994 0.019918375 0.001793726 0.016103704
000120 28 e3 0f bd 50 8b 85 3c f3 62 d8 3b e6 52 df ba
       -0.035128742 0.016301781 0.0066035925 -0.0017038255
000130 b3 41 ed 3c 28 6b ba 3c 7d c6 15 3d 8d 52 93 bc
       0.028961992 0.022756174 0.036566246 -0.0179837
000140 f4 06 11 bd 50 f6 d2 3c 13 1c b2 bb f6 4e 68 bd
       -0.03540702 0.025752217 -0.0054354756 -0.056715928
000150 17 d7 8e bc 71 9d 08 3d 6e 80 22 bd 85 0c 37 bd
       -0.017436547 0.033353273 -0.03967326 -0.044689674
000160 c3 cc 5c bb f4 9f ba bc d3 55 34 3c 13 bb 44 bd
       -0.0033691383 -0.02278135 0.01100679 -0.04802997
000170 c5 69 03 bd 70 8d b0 bc ff 48 24 bd 92 b9 8f 3c
       -0.03208329 -0.021551818 -0.040108677 0.017544542
000180 9a 03 a3 bc 74 9c 8a 3d e6 b7 5d 3d d1 7f 4b bc
       -0.019899178 0.06768122 0.054130457 -0.0124206105
000190 4e b0 ec 3c 55 e2 30 bc b4 fb d0 3c 65 69 7c 3c
       0.028892662 -0.010796149 0.025510646 0.015405987
0001a0 84 40 ac 3c 7d 50 06 bc 16 c2 20 bd d9 41 e4 3c
       0.021026857 -0.008197901 -0.039247595 0.02786343
0001b0 04 7c 3d bc a3 7d 0e 3c 0f 12 19 bd d8 5e 01 bc
       -0.011565212 0.008696946 -0.037370738 -0.007896148
0001c0 ee 37 17 3d 00 11 62 bc 67 99 14 bc 85 59 38 3d
       0.036918573 -0.013797998 -0.009069777 0.045007247
0001d0 f4 ef 86 3c 76 f1 a5 bc 95 de fc bc 06 a6 e8 3c
       0.01647184 -0.02025674 -0.030867854 0.028399479
0001e0 9e b5 9d 3c 28 37 a9 3c 75 0f 12 3d a8 5a e0 bc
       0.01925164 0.020656183 0.035659272 -0.027386978
0001f0 9a be 84 bb 03 da 88 bc 3c 0d eb bc 75 5e 10 bd
       -0.004051042 -0.016705519 -0.028692834 -0.03524633
000200 cf 25 17 3c 0b de 27 bc d0 af 96 3c e8 1b d0 bc
       0.009225323 -0.01024581 0.01839438 -0.025403932
000210 d7 9f 37 3c c0 cb 98 bb e6 49 9d 3c 40 65 09 bc
       0.011207542 -0.004662961 0.019200277 -0.008385956
000220 02 0f 3e bc d6 61 a4 bc f2 88 c0 bb d3 48 3e bd
       -0.011600258 -0.020066183 -0.0058757 -0.04645617
000230 58 5a 81 3c f5 ba 85 bb 66 cb 35 3a 8d 50 4f 3b
       0.01579015 -0.004081125 0.0006934911 0.0031633705
000240 bd a9 f4 3c f5 d9 76 bb 2a c2 0d 3d 28 2c ae 3b
       0.029866094 -0.0037666534 0.034608997 0.0053153224
000250 68 0b d6 bd d6 c0 1a bc bc ef f1 3c d9 6b 44 3b
       -0.10451394 -0.00944539 0.02953326 0.0029971509
000260 16 2c bc bc b4 1c 21 bb b7 e2 7c 3c 7f ab 0f 3d
       -0.02297024 -0.0024583759 0.015434912 0.03507566
000270 a5 e5 7f bd fa 9d d7 bb 5e 43 b4 bb 3b b5 4b bd
       -0.062474865 -0.0065801116 -0.005501195 -0.04973338
000280 5a 5d 83 3c 2d 73 17 bd f8 83 9d bc 72 c5 36 bd
       0.016035724 -0.036975075 -0.019227967 -0.044621892
000290 9f a6 60 3c 26 f4 a7 3c af 85 23 3d 71 b4 73 3a
       0.013711601 0.020502161 0.039922412 0.0009296602
0002a0 0f 3e 05 3c e1 e5 bd bc 7a 1c 6e 3c 84 28 bb bc
       0.008132472 -0.023180904 0.0145331565 -0.022846468
0002b0 55 f1 16 bd b5 bb 6c 3d 38 9e 03 3d 8e d9 4d bc
       -0.036851246 0.0577962 0.03213331 -0.012564076
0002c0 a9 0c 51 bc 07 ba 88 3c 32 88 19 bd eb 33 b0 bc
       -0.012759366 0.016690267 -0.0374834 -0.021509131
0002d0 72 d8 00 bd 7e d4 bd 3c 9d b4 f6 3b fa 86 c4 bb
       -0.03145642 0.023172613 0.007528855 -0.005997536
0002e0 06 35 fc 3c a8 76 d6 bb 4e 75 8d 3b 8f 22 40 3d
       0.030787002 -0.0065449066 0.0043169623 0.046907958
0002f0 61 91 18 3d c1 2c 8b bc 3a a1 51 bb c8 35 59 3c
       0.03724802 -0.016989114 -0.0031986968 0.013257451
000300 6b b6 48 3c 67 63 90 bd 0b aa de 3c 31 70 39 bb
       0.012250523 -0.070502095 0.027180692 -0.002829563
000310 6f 67 59 bc e1 57 c9 3c 8f 73 1f 3a e0 e5 f9 3c
       -0.013269289 0.024578037 0.0006082588 0.03050512
000320 6b 1b 8c bc 21 75 c0 3b 63 78 90 bd ed f6 91 bc
       -0.017102918 0.005873338 -0.07054212 -0.017817939
000330 42 f1 a0 3c a0 38 e9 bc ce a3 1c bb 29 b2 0f bb
       0.01964629 -0.028469384 -0.0023901346 -0.002192626
000340 ee 01 34 bd 7d 10 52 bc 89 53 32 bd 27 c0 4d 3c
       -0.043947153 -0.012821314 -0.043536697 0.01255802
000350 70 75 d1 3c ad 68 f5 bc d8 bb a2 bc 1d b0 6a bb
       0.025568694 -0.02995714 -0.019864962 -0.0035810538
000360 0d 42 7d bc 2f 07 31 3c 92 b0 12 3c 70 d8 9d bc
       -0.015457642 0.010804935 0.00895323 -0.019268245
000370 5a ea a7 bb 98 2f 13 ba 53 86 a8 3c 8f 41 b0 bc
       -0.0051243724 -0.0005614697 0.020571863 -0.021515636
000380 5b a5 18 3d 03 5a 82 bc f8 d0 08 bb bc 18 41 bd
       0.03726707 -0.015912062 -0.0020876508 -0.04714273
000390 9f 44 da 3c d9 63 9d 3c 40 14 86 bc 33 0c 6f 3d
       0.02664405 0.01921265 -0.016367078 0.058361243
0003a0 a5 d5 e9 3c 4b c3 e4 bc 71 93 19 bd f9 5f 0f bd
       0.028544256 -0.027925154 -0.037494127 -0.035003636
0003b0 08 9f 24 3c 1a 14 b6 3c 34 88 30 bc 63 10 8b bb
       0.010047682 0.022226382 -0.010774661 -0.004243897
0003c0 2f b5 68 bb cc f2 0e 3d 12 a8 7b 3c 67 63 7d bc
       -0.0035508384 0.034899518 0.015359895 -0.015465594
0003d0 e0 d3 f6 bc 69 9b 3b 3c 83 27 12 bd 83 c3 76 bc
       -0.030130327 0.011450627 -0.035682213 -0.015061262
0003e0 2b 17 be 3c a1 d3 3d 3d e5 14 e2 bc ac 2e c1 3c
       0.023204407 0.046344403 -0.027597854 0.023581825
0003f0 96 bf 2f bd 9c 51 8a bc 64 8b 44 bd 96 9d 50 bd
       -0.04290732 -0.016884618 -0.047984496 -0.050931536

head.1.bias f4 [48]
000000 12 06 40 3c 5b ba 09 3e 61 26 57 3e ec 6a 88 bd
       0.011720197 0.13449995 0.21010734 -0.06661019
000010 4a 8e 02 be f5 50 0e 3e dd 99 d8 3b 9f e7 8d 3c
       -0.12749591 0.1389807 0.006610139 0.01732236
000020 56 9c fb be f1 36 f8 be 9b c4 c2 bd d8 46 45 3f
       -0.49142712 -0.48479417 -0.09510156 0.77061224
000030 2e e6 a5 3c f4 76 13 bd 95 70 8c bd 89 23 d5 bb
       0.02025136 -0.036002114 -0.06857411 -0.0065044803
000040 b5 9d 15 3f 15 de 10 bd 59 5b d2 be cb 21 f9 bc
       0.58443767 -0.035368044 -0.41085318 -0.030411622
000050 14 60 6f bf 06 b7 b7 bd 30 b6 30 be d2 e1 1a be
       -0.9350598 -0.08970456 -0.17256999 -0.15125206
000060 e3 b5 1f be 81 d3 f6 3d 69 da 3a bf 3d 75 b4 bd
       -0.15596728 0.1205206 -0.7298952 -0.08811424
000070 b6 e1 ab 3d c6 bd 85 bc c5 75 33 be 1d a9 f9 be
       0.0839266 -0.016325843 -0.17525394 -0.48761836
000080 c8 84 00 3e c5 3c 89 3d 87 72 53 bf 50 67 c4 be
       0.12550652 0.06701044 -0.8259663 -0.3836007
000090 64 10 43 3f 36 cd 3c be ea ea 14 bf 62 05 a1 be
       0.76196885 -0.18437657 -0.5817095 -0.3144942
0000a0 48 14 88 bd b7 e8 ad be 8e 38 12 3e 14 07 e1 3d
       -0.06644493 -0.3396661 0.14279386 0.10987678
0000b0 dc 8e 1e bd 8c b3 e1 3d da d7 55 3e dd c8 02 3f
       -0.03871046 0.11020574 0.20883122 0.51087743
