e_model_files/e_model/eSR-TR_s2_K3_C1.pth (torch, 417464 bytes, 80 tensors)

layer.filter.weight f4 [36, 48, 3, 3]
0	0xbd3cf32a	-0.046130337
1	0xbd02c20c	-0.03192334
2	0x3d607baf	0.054805454
3	0x3d12bdb9	0.035825465
4	0x3f7ee1b9	0.99563175
5	0x3ca9c481	0.020723583
6	0x3d229457	0.03969225
7	0xbdc22e83	-0.09481528
8	0x3abb551d	0.0014292334
9	0xbd8bc96a	-0.06825526
10	0xbd1e02e7	-0.038576987
11	0xbcb7c12a	-0.022430975
12	0x3cb66f1a	0.022269774
13	0xbd7ff199	-0.062486265
14	0x3d4a1339	0.04933474
15	0x3d2a3fad	0.041564632
16	0x3d0a406a	0.033752836
17	0xba99acf4	-0.0011724518
18	0x3bec4186	0.0072099594
19	0x3d0aa70c	0.033850715
20	0xbd3ebd7d	-0.04656743
21	0xbcb45b68	-0.022016242
22	0x3e02bf07	0.12768184
23	0xbcaa2052	-0.020767365
24	0xbc92b499	-0.017908381
25	0xbc27ca46	-0.010241097
26	0x3d133f67	0.035949137
27	0xbd39a078	-0.04531905
28	0x3c5f0be5	0.013613676
29	0xbc978f1b	-0.018500855
30	0x3c35f485	0.011105661
31	0x3d93842d	0.07202945
32	0x3c7e117e	0.0155071
33	0xbc460274	-0.012085546
34	0xbcfb376a	-0.030666072
35	0xbcbc3fa6	-0.022979569
36	0xbc919070	-0.017769068
37	0xbd40c5eb	-0.04706375
38	0xbc3e98c2	-0.0116331
39	0x3c63f0de	0.013912408
40	0xbd34f604	-0.04417993
41	0xbcd08ec4	-0.025458701
42	0xbd5f7ffd	-0.05456542
43	0x3d4d484b	0.050117772
44	0xbce5b1f5	-0.028038958
45	0xbbad0d79	-0.005281147
46	0x3d5421eb	0.05179016
47	0xbc70c1e5	-0.014694666
48	0xbc6b9112	-0.014377849
49	0x3c1f92e1	0.0097396085
50	0xbad63a81	-0.001634434
51	0xbd1fce5c	-0.03901516
52	0xbc432918	-0.011911653
53	0xbd04bc82	-0.032406338
54	0xbd5cd363	-0.05391253
55	0x3c7c700f	0.015407576
56	0x3c8610c9	0.016365426
57	0xbc9a82e7	-0.018861247
58	0xbceaebd2	-0.028676901
59	0xbc720b70	-0.014773235
60	0x3d7584d0	0.059941113
61	0x3d3b24cc	0.04568939
62	0xbc8dbb42	-0.017301206
63	0x3cfc7772	0.030818675
64	0x3d8a094e	0.06740056
65	0xbd1a19b2	-0.03762216
66	0x3d9e386b	0.077256046
67	0xbdccbb7a	-0.09996696
68	0xbc974610	-0.018466026
69	0x3cb933d7	0.022607727
70	0xbd96e596	-0.07368009
71	0x3d33bb51	0.04387981
72	0xbdcab657	-0.0989806
73	0x3b4c1438	0.003113998
74	0xbd33fea2	-0.04394401
75	0xbc0d6a77	-0.00863134
76	0x3ca8575d	0.02054947
77	0x3bd8c421	0.0066151773
78	0x3b619ec3	0.0034426905
79	0x3d3e35a6	0.046437882
80	0xbcbd030b	-0.02307274
81	0x3ce472cb	0.027886769
82	0x3db3636a	0.08759196
83	0x3cd41b12	0.025891814
84	0xbd07bdd2	-0.03314001
85	0xbc7c1cd5	-0.0153877335
86	0xbd97a8e7	-0.074052624
87	0xbc98bab6	-0.018643718
88	0x3d536464	0.05160941
89	0xbd482416	-0.04886254
90	0xbce766fd	-0.02824735
91	0x3d221d6e	0.039578848
92	0x3c6ce820	0.01445964
93	0xbd11f184	-0.035630718
94	0x3dbcb63e	0.092144474
95	0xbcfc856a	-0.030825336
96	0xbc9e1ebb	-0.019301763
97	0xbd672b75	-0.05643793
98	0x3d467539	0.048451636
99	0x3cb70f55	0.022346178
100	0x3d85bdf0	0.06530368
101	0x3d3b6e08	0.04575923
102	0x3dc387d5	0.09547392
103	0x3d197fbf	0.037475344
104	0xbd88ee98	-0.06686133
105	0xbd7049ea	-0.05866424
106	0xbdecab76	-0.11556141
107	0xbca143f7	-0.019685728
108	0x3b7d2131	0.003862452
109	0xbc6dcb67	-0.014513827
110	0x3c2d1890	0.010564938
111	0xbcd87bc5	-0.026426205
112	0xbdb6314f	-0.088961236
113	0x3c121950	0.008917168
114	0x3d0acf79	0.033889268
115	0x3da76652	0.08173813
116	0xbce3f3dd	-0.027826244
117	0x3c4053ca	0.011738727
118	0x3c684c3b	0.014178331
119	0x3d49cf12	0.049269743
120	0xbc8e2c63	-0.01735515
121	0xbdf04b87	-0.11733156
122	0x3be735b7	0.007055964
123	0x3c0e8b99	0.008700275
124	0xbc17e786	-0.009271508
125	0xbc679bed	-0.014136297
126	0xbca2febb	-0.019896856
127	0x3cbcfc64	0.023069568
128	0x3c7a0b26	0.015261447
129	0x3bbde19a	0.005794716
130	0xbce9fa72	-0.028561804
131	0x3d917d65	0.07103995
132	0x3d0791f0	0.03309816
133	0xbcc47017	-0.02397923
134	0xbca55b40	-0.020185113
135	0xbcbdacd6	-0.023153704
136	0xbb7b65ac	-0.0038360162
137	0x3cd71719	0.026256131
138	0x3dd67e39	0.10473294
139	0xbca43ba7	-0.020047976
140	0xbd13d2a2	-0.036089547
141	0xb81ee2a2	-3.7881204e-05
142	0xbcb50470	-0.022096843
143	0xbd8e0b36	-0.06935732
144	0xbc75e0b7	-0.0150071895
145	0x3d3bb752	0.045829125
146	0xbb11324d	-0.0022155226
147	0x3c051161	0.008121819
148	0xbd651c46	-0.055935167
149	0xbcd15971	-0.025555344
150	0xbbd77605	-0.0065753483
151	0x3a3b1916	0.0007137222
152	0x3c66dfab	0.014091413
153	0x3c3e8116	0.011627456
154	0xbdaaed3d	-0.08346031
155	0x3cbf938f	0.023385791
156	0x3c8eef55	0.017448107
157	0xbba44bff	-0.0050139423
158	0x3dbdfe0e	0.09276973
159	0x3c9a1a3c	0.018811338
160	0xbca74868	-0.020420268
161	0xbd72db01	-0.05929089
162	0xbc6f9fcd	-0.014625502
163	0xbd2d8d07	-0.042370822
164	0xbc8ec1fe	-0.017426487
165	0xbdb08f5f	-0.08621096
166	0x3e0f51ec	0.13996094
167	0x3d70ad37	0.05875894
168	0x3bb5f79e	0.0055532
169	0xbd90c5c2	-0.07068969
170	0x3c7df443	0.015500131
171	0xbd9993cc	-0.07498893
172	0x3d2696ee	0.04067128
173	0xbc854d5f	-0.016272245
174	0x3cefc1d6	0.029267233
175	0xbe28b3ce	-0.1647484
176	0x3d4bf8a1	0.049797658
177	0x3d8660e0	0.06561446
178	0x3bd88f65	0.006608891
179	0x3c8af687	0.016963257
180	0xbd687777	-0.056754556
181	0xbbd53159	-0.006506127
182	0x3d96dad9	0.07365961
183	0x3c12b43c	0.008954104
184	0xbb1955cb	-0.0023397084
185	0x3d7a5c21	0.061123017
186	0x3c8dc6ea	0.017306764
187	0xbd21885d	-0.039436687
188	0xbd2d0f42	-0.04225088
189	0xbbe5a46c	-0.007008126
190	0x3c426b9a	0.0118664745
191	0xbd53485e	-0.051582687
192	0x3c1296ad	0.008947057
193	0x3d88280c	0.06648263
194	0xbd89b8f0	-0.06724727
195	0x3c61f476	0.013791194
196	0x3c5cfae3	0.01348755
197	0x3c1abd6a	0.009444574
198	0xbd7c535c	-0.061602935
199	0xbcb6a77f	-0.022296665
200	0xbc89a5fe	-0.016802784
201	0x3d3c6299	0.045992468
202	0xbd847ccd	-0.06469116
203	0xbcc68eb7	-0.024237974
204	0x3c6d08b8	0.014467411
205	0x3db07f2d	0.08618007
206	0x3ca6afe9	0.020347552
207	0x3bac371d	0.0052555935
208	0xbbfdcdd2	-0.007745483
209	0xbca162b8	-0.019700393
210	0x3cb9667c	0.022631876
211	0x3c5d4982	0.013506295
212	0x3d05a76c	0.03263037
213	0xbce2ce24	-0.027686186
214	0xbd3162fc	-0.04330729
215	0xbccaad86	-0.024740946
216	0xbd823499	-0.063576885
217	0x3d212200	0.039339066
218	0x3d693a24	0.056940213
219	0x3d560a21	0.052255753
220	0x3ca4fece	0.020141032
221	0xbda1d754	-0.07902399
222	0x3ce8c772	0.028415415
223	0xbceb8094	-0.028747834
224	0xbcdf1234	-0.02723036
225	0xbd8a4f12	-0.06753363
226	0xbc8b6619	-0.017016457
227	0xbd16b9b6	-0.0367982
228	0xbd99770b	-0.07493409
229	0xbc7df493	-0.015500206
230	0x3d30a566	0.043126486
231	0x3d37a468	0.044834524
232	0x3cd05929	0.02543314
233	0x3d8c375b	0.06846496
234	0x3c0ef1bb	0.008724625
235	0x3cbab0a1	0.022789301
236	0xbc614d4d	-0.01375134
237	0xbb61effd	-0.003447532
238	0xbd2979e7	-0.04137602
239	0xbd1d667a	-0.038427807
240	0xbc04243a	-0.008065278
241	0x3ccfdffa	0.025375355
242	0x3d8598dd	0.06523297
243	0x3cc329d0	0.023823649
244	0x3ca7546b	0.020425996
245	0xbc4d8798	-0.012544535
246	0x3d6d5969	0.057946596
247	0xbb4b87a2	-0.0031056185
248	0xbdc3677b	-0.09541222
249	0xbd21e679	-0.039526436
250	0xbc1d5476	-0.009602657
251	0x3c589554	0.013219196
252	0xbc2a2ea2	-0.010387095
253	0xbd76a4e3	-0.060215842
254	0xb99ca22a	-0.0002987546
255	0xbdb6e9bb	-0.08931299

rca.ca.conv_du.0.weight f4 [3, 48, 1, 1]
0	0x3dd24706	0.10267453
1	0xbdb291b9	-0.08719201
2	0xbde40a16	-0.11134736
3	0x3d27e7c8	0.04099253
4	0xbe42cd4c	-0.19023627
5	0xbdb0f26f	-0.086399905
6	0xbd86f424	-0.06589535
7	0xbe17ef10	-0.14837289
8	0xbcdb2f45	-0.026755938
9	0xbca7b5cd	-0.020472432
10	0xbde78036	-0.11303751
11	0xbd541aa0	-0.051783204
12	0x3d94f2b2	0.07272853
13	0x3ac90c7a	0.0015338801
14	0xbcb85add	-0.022504264
15	0xbe1a291f	-0.15054749
16	0x3c5fa1c4	0.013649408
17	0x3dca7480	0.09885502
18	0x3d7d41e7	0.061830427
19	0x3d9d9afa	0.07695575
20	0xbd54b9d4	-0.051935032
21	0x3d31b80f	0.043388423
22	0x3dbe92df	0.09305357
23	0xbdc1f86c	-0.09471211
24	0xbd9f8f0e	-0.077909574
25	0x3da04c8a	0.07827099
26	0x3e0efb6d	0.13963099
27	0xbcc14851	-0.023594053
28	0xbd02c3d9	-0.031925056
29	0x3d5237da	0.051322795
30	0xbcba37f3	-0.022731757
31	0x3c770558	0.015076958
32	0x3da8ff31	0.08251799
33	0xbd2f710b	-0.042832416
34	0xbd257141	-0.04039121
35	0xbd13cf48	-0.03608635
36	0xbda1c7f1	-0.07899464
37	0x3bd03c71	0.0063548614
38	0x3dd691d3	0.104770325
39	0x3d5fcba4	0.054637566
40	0xbceacebf	-0.028663037
41	0x3da390dd	0.07986615
42	0x3cc4083b	0.023929706
43	0x3d634526	0.055485867
44	0x3d28f96d	0.041253496
45	0xbd431a5d	-0.047632564
46	0xbdc67e99	-0.09692115
47	0xbdc459b3	-0.09587421
48	0x3c15c313	0.009140748
49	0x3e534302	0.2063103
50	0xbd9a6685	-0.07539085
51	0x3d778ab6	0.06043502
52	0x3cef5d80	0.029219389
53	0x3d9f6f72	0.077849284
54	0xbd7a24cf	-0.06107026
55	0xbd4f12a5	-0.05055489
56	0xbdf9b61d	-0.121929385
57	0xbd7f4761	-0.06232393
58	0xbc8c7857	-0.017147226
59	0xbdd103ff	-0.1020584
60	0x3d93e544	0.07221463
61	0x3d4ba9f2	0.04972262
62	0xbb052ab0	-0.0020319633
63	0x3d877f5a	0.06616087
64	0xbd2ca837	-0.04215261
65	0xbd431764	-0.04762973
66	0xbdf272fb	-0.11838337
67	0x3d77f664	0.06053771
68	0xbd1fca45	-0.03901126
69	0x3df1b526	0.118021294
70	0xbd72b9f2	-0.059259363
71	0xbdf05e6b	-0.11736759
72	0xbe26e427	-0.1629797
73	0xbd9fc383	-0.07800963
74	0x3e3ddc30	0.18541026
75	0xbd86057d	-0.065440156
76	0x3d10afd0	0.035323918
77	0xbd11feb9	-0.035643313
78	0x3d6403de	0.05566775
79	0xbbb7a662	-0.005604551
80	0x3dd9ff39	0.10644383
81	0x3d2a92a0	0.04164374
82	0x3ce4660d	0.027880693
83	0xbd37c91e	-0.044869535
84	0x3dc5b5a0	0.09653783
85	0x3d1b5a18	0.037927717
86	0x3dc6d563	0.09708669
87	0xbb9ef4a4	-0.004850941
88	0x3b99b4d7	0.0046907472
89	0xbb054e18	-0.0020340737
90	0x3e1859d3	0.14878015
91	0xbd103b2a	-0.035212673
92	0x3db20251	0.08691848
93	0xbbbefc1d	-0.005828394
94	0x3d33fd19	0.043942545
95	0x3ca21e3c	0.019789807
96	0xbb62ec6d	-0.0034625784
97	0x3d517627	0.05113807
98	0x3d00e57d	0.031468857
99	0xbd796512	-0.060887404
100	0xbdce3a1c	-0.10069677
101	0x3d053c21	0.032528047
102	0xbdc25673	-0.09489145
103	0xbd29e4b3	-0.04147787
104	0x3c826424	0.015916891
105	0x3cc4cd32	0.024023626
106	0xbb098ffb	-0.002099036
107	0xbe0c5b8e	-0.137068
108	0x3dda58d9	0.106614776
109	0x3cf99137	0.030464752
110	0xbe1a3a6f	-0.15061353
111	0x3e077c4a	0.13231006
112	0xbd2d5d01	-0.042325024
113	0x3da17a9e	0.078847155
114	0xbd602b32	-0.054728694
115	0x3d8206a1	0.063489206
116	0x3d45d8f0	0.04830259
117	0xbdced9f1	-0.10100163
118	0x3dc447f4	0.095840365
119	0xbc454c93	-0.0120421825
120	0xbdb1a5f3	-0.086742304
121	0xbe2f6273	-0.17127399
122	0x3d84a459	0.06476659
123	0xbd45d406	-0.048297904
124	0x3cfadea9	0.03062375
125	0xbb4d51b6	-0.003132922
126	0xbcb6e789	-0.022327201
127	0xbdb05c62	-0.086113706
128	0xbc939238	-0.018014058
129	0x3e1ed923	0.15512519
130	0x3d921b58	0.07134122
131	0x3c0362a8	0.008019127
132	0xbdeeeef8	-0.116666734
133	0x3e7e9958	0.24863183
134	0xbc5edb60	-0.013602108
135	0xbe344258	-0.17603433
136	0xbd416a0a	-0.047220267
137	0xbe1143c6	-0.1418601
138	0x3dffe544	0.12494901
139	0x3e2e8344	0.17042261
140	0x3c6542a7	0.013992942
141	0x3c67e7c5	0.014154379
142	0xbdd0c239	-0.10193295
143	0x3dedde3e	0.11614655

rca.ca.conv_du.0.bias f4 [3]
0	0xbdb8305e	-0.089936
1	0x3e08e8a6	0.13369998
2	0x3e22c839	0.15896691

rca.ca.conv_du.2.weight f4 [48, 3, 1, 1]
0	0xbcd3f25e	-0.025872406
1	0xbec545b2	-0.38529736
2	0x3e60ee33	0.21965866
3	0x3e1fef6f	0.1561868
4	0x3e779c68	0.24180758
5	0xbdc0301b	-0.093841754
6	0x3e689cbb	0.22716038
7	0x3f129d82	0.5727159
8	0xbf7d7d26	-0.99019086
9	0x3ce751bb	0.028237214
10	0xbe790cdc	-0.24321312
11	0xbcea4d73	-0.028601384
12	0x3e493c0d	0.19651814
13	0xbe4011ca	-0.18756786
14	0x3ec19f99	0.37817076
15	0xbe8e4981	-0.27790454
16	0xbd255a36	-0.040369235
17	0x3da1012f	0.07861554
18	0x3ebd2335	0.36940923
19	0xbe8970f9	-0.26844004
20	0x3db3ccc1	0.08779288
21	0x3f55056b	0.8321139
22	0x3de35bc7	0.111014895
23	0x3e4db101	0.20087053
24	0x3ee94e90	0.4556775
25	0x3d8b14a4	0.06791046
26	0x3e07067c	0.13186067
27	0x3ea38e24	0.31944382
28	0x3d875d0c	0.06609544
29	0x3e953a0d	0.29145852
30	0xbe1a0edb	-0.1504473
31	0x3e94dbdb	0.29073986
32	0x3f13d788	0.5775075
33	0x3f0d46b3	0.55186003
34	0x3eafd4a5	0.34341922
35	0x3e7dfb8f	0.24802993
36	0x3eb4abee	0.35287422
37	0x3ec5110d	0.3848957
38	0xbf13a4a4	-0.57673097
39	0x3f1213fa	0.5706173
40	0x3e0420c1	0.1290312
41	0xbd1981fd	-0.037477482
42	0xbe34d562	-0.17659524
43	0x3d9546d1	0.07288898
44	0x3de372e9	0.11105902
45	0x3f12c12e	0.5732602
46	0x3dd3c8e7	0.103410535
47	0x3dff81a9	0.124759026
48	0x3eae18d3	0.34003314
49	0xbd97eb85	-0.07417969
50	0x3e733653	0.23751192
51	0x3d9aa199	0.075503536
52	0x3f126617	0.57187027
53	0xbeb363cf	-0.35037085
54	0x3ef4f228	0.47841
55	0xbdd66a83	-0.10469534
56	0xbc8fd424	-0.017557211
57	0xbdfa00d8	-0.12207192
58	0xbf4ede35	-0.8080781
59	0x3f023109	0.5085607
60	0xbda47a73	-0.08031168
61	0xbdf83b23	-0.121206544
62	0xbe3190fa	-0.1734046
63	0xbe3094b6	-0.17244229
64	0x3b908dac	0.00441142
65	0x3e18daad	0.14927168
66	0xbdb195d7	-0.08671158
67	0xbb8b735f	-0.0042556967
68	0x3e3698a9	0.17831673
69	0x3e769795	0.24081261
70	0xbb44a541	-0.0030005726
71	0x3d8c5534	0.06852189
72	0x3ec1fd12	0.3788839
73	0xbed7b13a	-0.421274
74	0xbd9b6c86	-0.075890586
75	0x3ebb18d9	0.36542395
76	0x3ee700d6	0.45117825
77	0x3da7cb65	0.08193091
78	0x3f1558cc	0.5833862
79	0x3d161cb5	0.03664847
80	0xbe07597f	-0.13217734
81	0x3e674080	0.22583199
82	0xbd92ca7d	-0.07167528
83	0x3d124439	0.035709593
84	0x3efe40e9	0.49658898
85	0x3cb82d00	0.022482395
86	0xbd7bcaca	-0.06147269
87	0x3d8ba74a	0.06819017
88	0xbe5bf755	-0.21481068
89	0x3f6f28fc	0.9342191
90	0xbe2a68de	-0.16641566
91	0xbd8373c4	-0.06418565
92	0xbc4cc4de	-0.012498109
93	0xbd38c292	-0.04510743
94	0x3e978a68	0.29597783
95	0x3eab43ca	0.33450156
96	0x3eb8f9dc	0.36128128
97	0x3ee781c1	0.45216182
98	0x3e366aa0	0.17814112
99	0x3f017c80	0.50580597
100	0x3c3792d6	0.011204442
101	0x3e73bb45	0.23801906
102	0x3e952af7	0.29134342
103	0xbe47b939	-0.1950425
104	0x3edcf3bf	0.43154714
105	0x3ed672ef	0.41884562
106	0x3e859074	0.2608677
107	0xbf67454e	-0.90340126
108	0xbd30800d	-0.04309087
109	0x3f2e1158	0.67995214
110	0x3eb6de52	0.35716492
111	0x3f2e0c49	0.67987496
112	0x3d87d87c	0.06633088
113	0x3dea6a86	0.11446099
114	0xbd30424a	-0.04303197
115	0x3e4e148d	0.20125027
116	0x3dedaae1	0.11604858
117	0x3f10085b	0.5626275
118	0xbd207502	-0.039174087
119	0x3d9d4664	0.076794416
120	0x3ea58928	0.32331204
121	0x3cee5799	0.029094504
122	0xbdf4ac0f	-0.1194688
123	0xbe268f46	-0.16265592
124	0xbe0c5bc9	-0.13706888
125	0x3c5e937c	0.013584968
126	0xbea9dbe4	-0.33175576
127	0x3f07a342	0.52983487
128	0x3eb96ab9	0.36214235
129	0x3d81d62b	0.063396774
130	0x3d2c84a4	0.042118683
131	0xbee9be13	-0.45652828
132	0xbbe250a8	-0.0069065876
133	0xbeab89c5	-0.33503547
134	0x3ea7623c	0.32692134
135	0xbeb38e2c	-0.35069406
136	0x3e234c29	0.15947022
137	0xbe9b2f7f	-0.30309674
138	0x3e13e8f5	0.14444335
139	0xbc5a76d5	-0.013333996
140	0x3dd36f7d	0.10323999
141	0x3e323ff5	0.1740721
142	0x3c21d285	0.009876852
143	0x3efb9ff9	0.49145487

rca.ca.conv_du.2.bias f4 [48]
0	0xbe1517de	-0.14559886
1	0x3eee20e2	0.46509463
2	0x3f2e8cb4	0.68183446
3	0xbe18c151	-0.14917494
4	0xbe8507b2	-0.25982434
5	0x3f14715a	0.5798546
6	0x3e5b5b80	0.21421623
7	0x3e86bda7	0.26316568
8	0xbdcfbaa1	-0.101430185
9	0x3e90fd2c	0.28318155
10	0x3f313a90	0.69229984
11	0x3edce4e0	0.43143368
12	0xbe7f1bc8	-0.24912941
13	0x3ecb7ff5	0.3974606
14	0x3e50bc96	0.2038444
15	0x3d071bba	0.032985426
16	0x3dd4a330	0.10382688
17	0x3efee7ab	0.49786124
18	0xbe8e7f66	-0.27831572
19	0x3cfaea87	0.03062941
20	0x3f02d43d	0.511051
21	0x3f1a27cf	0.60216993
22	0x3f425fd4	0.7592747
23	0x3f4fb5de	0.8113688
24	0x3e9e30c0	0.30896568
25	0x3f7de63d	0.9917944
26	0xbe164ade	-0.14676997
27	0xbece8c64	-0.40341485
28	0xbe69ad32	-0.22819975
29	0x3eb7aebd	0.35875502
30	0xbe88a159	-0.26685598
31	0x3e58c618	0.21169317
32	0xbe910934	-0.28327334
33	0xbddd6783	-0.10810759
34	0xbd8f53d7	-0.06998413
35	0x3f32b0b1	0.6980086
36	0xbe9bfefb	-0.30467972
37	0xbe9cfc98	-0.30661464
38	0xbdb1b89d	-0.0867779
39	0x3ed05710	0.40691423
40	0x3ec0b6fe	0.37639612
41	0xbe95e467	-0.2927582
42	0x3f186c65	0.59540397
43	0x3e4e3561	0.2013755
44	0x3dab2a3f	0.08357667
45	0x3f20b65e	0.6277827
46	0x3f11b17c	0.56911445
47	0xbe08629b	-0.13318865

rca.body.0.weight f4 [48, 48, 3, 3]
0	0xbc11e62b	-0.008904974
1	0xbd2abab6	-0.041681968
2	0x3d022b2a	0.031779446
3	0x3c636389	0.0138787115
4	0x3d47bcb3	0.048763942
5	0xbcaca287	-0.021073593
6	0xbd0139cf	-0.03154927
7	0x3ca78909	0.020451086
8	0x3c2f503e	0.010700284
9	0xbd1c67f7	-0.038185086
10	0xbd8f1300	-0.06986046
11	0x3d0a7489	0.033802543
12	0x3d4f002b	0.05053727
13	0xbd4f0559	-0.05054221
14	0xbca86c42	-0.020559434
15	0x3c5a65be	0.013329921
16	0xbb9e63e1	-0.004833684
17	0xbb3fda19	-0.0029274283
18	0xbd0b1e51	-0.03396446
19	0x3d01d2c7	0.031695154
20	0xbd04f450	-0.032459557
21	0x3d15ffaf	0.036620792
22	0x3d25da64	0.040491477
23	0x3ca3f466	0.020014
24	0xbd3ec3e6	-0.046573542
25	0xbc7f73bf	-0.015591561
26	0x3d091993	0.033471655
27	0x3c3016d0	0.010747626
28	0x3d02b305	0.031909008
29	0xbd805da4	-0.062678605
30	0xbd848fb8	-0.06472725
31	0x3c6a0d10	0.014285341
32	0xbd9055fb	-0.070476495
33	0xbd0d2c46	-0.03446605
34	0x3cb7a408	0.022417083
35	0x3d7ca09c	0.061676607
36	0x3d187274	0.037218526
37	0xbb63bb58	-0.0034749117
38	0x3c281b20	0.010260373
39	0xbce152ea	-0.027505357
40	0x3c114ec3	0.008868876
41	0xbc71f2bc	-0.014767345
42	0xbd3349c8	-0.043771535
43	0xbcd94343	-0.02652133
44	0xbcd533f9	-0.026025759
45	0xbb95bbfc	-0.0045695286
46	0xbb2ead9c	-0.0026653772
47	0x3acad60c	0.0015475168
48	0x3c056125	0.008140837
49	0x3d9a7c7d	0.075432755
50	0x3ab2139d	0.0013586167
51	0xbb909a37	-0.004412915
52	0x3d17c017	0.037048426
53	0x3c5b068d	0.013368261
54	0xbc8b70bf	-0.017021535
55	0x3b02607e	0.001989394
56	0xbd056f39	-0.032576773
57	0x3de9c446	0.11414389
58	0x3be80905	0.0070811533
59	0xbcba6ff8	-0.022758469
60	0xbc79b507	-0.015240914
61	0x3c6fb6bd	0.014630971
62	0xbd2eba39	-0.042658065
63	0xba844904	-0.0010092561
64	0x3ca53995	0.020169059
65	0x3c80eeb1	0.015738817
66	0xbd039a9e	-0.032129876
67	0x3d0581c3	0.032594454
68	0xbd095537	-0.033528533
69	0x3cc65ce9	0.024214225
70	0x3cd93f28	0.026519373
71	0xbd0e67dd	-0.03476702
72	0x3c00969c	0.007848408
73	0xbcd427b9	-0.025897847
74	0xbba6179e	-0.0050687334
75	0xbcc3e96e	-0.023915019
76	0x3d940da2	0.07229163
77	0xbc75d470	-0.015004262
78	0x3c69371b	0.01423433
79	0x3d1c3d17	0.038144197
80	0x3ba6cc5e	0.0050902804
81	0xbd02b997	-0.031915274
82	0x3ccfc4ad	0.025362337
83	0xbcca20a6	-0.024673771
84	0xbd6c1227	-0.0576345
85	0xbdca7990	-0.098864675
86	0xbc5fee15	-0.013667603
87	0xba327d60	-0.00068088435
88	0x3baf76b2	0.0053547258
89	0xbae49de1	-0.0017442071
90	0xbd150832	-0.03638477
91	0x3d0ca1dc	0.03433405
92	0x3d147b6d	0.03625052
93	0x3d449968	0.047997862
94	0x3d158f77	0.03651377
95	0x3b8911f6	0.0041830493
96	0xbd803a01	-0.06261063
97	0x3cc7ab8a	0.024373788
98	0x3be3efb0	0.006956063
99	0xbc73fe17	-0.014892123
100	0xbcc35ebf	-0.02384889
101	0x3a794c63	0.00095099787
102	0x3d0da29d	0.03457891
103	0x3c41f752	0.011838751
104	0x3d482b67	0.048869517
105	0xbd2211ea	-0.039567865
106	0x3dbbf683	0.09177878
107	0x3d32c82b	0.043647926
108	0xbd692722	-0.056922086
109	0x3cfce001	0.030868532
110	0x3c88454c	0.016634606
111	0xbb2b1ce5	-0.0026109752
112	0xbd2be35e	-0.04196488
113	0x3d76622f	0.06015223
114	0x3b940ee9	0.004518379
115	0x3c94e87d	0.018177265
116	0x3d8f0efe	0.069852814
117	0x3c345719	0.011007094
118	0xbc8ecadc	-0.017430715
119	0xbda66470	-0.08124626
120	0x3d4b4f94	0.04963644
121	0x3cd09425	0.025461266
122	0xbcc9e1f6	-0.02464388
123	0xbccb084e	-0.024784233
124	0xbde10172	-0.10986604
125	0xbcb95cd9	-0.022627281
126	0x3ba984f1	0.0051733186
127	0xbcc92e9c	-0.024558358
128	0x3c07459a	0.00825634
129	0xbcc82734	-0.024432756
130	0xbd926b28	-0.07149345
131	0x3b6e6b0f	0.003637973
132	0xbcef596f	-0.02921745
133	0x3d1ef9a3	0.03881229
134	0xbcf1195d	-0.02943104
135	0x3c1840f7	0.009292833
136	0xbcd71721	-0.026256146
137	0x3b1fb024	0.0024366463
138	0x3cb2377a	0.021754969
139	0x3ca1ac6b	0.019735536
140	0x3ce7845c	0.028261356
141	0x3db1ac75	0.08675472
142	0x3d0b1ea9	0.033964787
143	0x3d21b9f4	0.03948398
144	0xbca2ced3	-0.019874012
145	0xbb90bb22	-0.004416839
146	0x3d888bcf	0.066672914
147	0xbc45c96a	-0.012071947
148	0xb95e7ec8	-0.000212188
149	0x3d9f58df	0.07780623
150	0x3d827d92	0.06371607
151	0x3c9cc60b	0.019137403
152	0x3d53f8f6	0.0517511
153	0x3c4177e8	0.011808373
154	0x3c3675e7	0.011136509
155	0xbd60f01b	-0.054916482
156	0xbc5351bd	-0.012897906
157	0x3bb3ddc7	0.0054890844
158	0xbd3e1989	-0.04641107
159	0x3cb2baee	0.02181765
160	0x3d1b0cf2	0.037854142
161	0xbd4ebfc9	-0.05047587
162	0x3ce5fb4a	0.028073926
163	0xbc7c6d96	-0.015406987
164	0x3d76496c	0.060128614
165	0x3c0e3c44	0.008681361
166	0xbd81cac6	-0.06337504
167	0x3c9f6876	0.01945899
168	0xbb1491b7	-0.002266986
169	0x3d0edb52	0.03487713
170	0x3d526451	0.0513652
171	0x3cc86318	0.024461314
172	0xbd0e7b76	-0.03478571
173	0xbd962005	-0.07330326
174	0xbdb62df1	-0.088954814
175	0x3c9508bd	0.018192643
176	0xbda7f919	-0.082018085
177	0xbce6897e	-0.028141733
178	0xbcdf671c	-0.027270846
179	0xbd08b98c	-0.033380076
180	0xbccc6242	-0.024949197
181	0xbcd4b577	-0.025965435
182	0x3ca19db9	0.019728528
183	0x3cc4e736	0.024036031
184	0xbd40b5da	-0.047048427
185	0x3dc92845	0.09822134
186	0x3d963641	0.07334567
187	0xbca20ae0	-0.019780576
188	0x3c8f3495	0.017481128
189	0x3d06d938	0.032922
190	0x3d437e02	0.047727592
191	0x3c842e62	0.016135398
192	0x3d7c9945	0.061669607
193	0x3d9a1fda	0.075256065
194	0x3d8119b5	0.06303731
195	0x3daf553e	0.085611805
196	0x3d52b665	0.051443476
197	0x3ba0ec75	0.0049110004
198	0x3c34490b	0.011003743
199	0xbca02da0	-0.019553006
200	0x3cfa6546	0.030565869
201	0x3c390c58	0.011294447
202	0xbd9eef60	-0.07760501
203	0x3caac972	0.02084801
204	0xbc8e51ee	-0.017373051
205	0xbd1ee152	-0.0387891
206	0x3c09b4bb	0.008404906
207	0xbbdfc6a4	-0.0068290997
208	0xbe026068	-0.12732089
209	0xbd903e72	-0.070431605
210	0xbcaf5639	-0.021403419
211	0xbd8cc28e	-0.06873046
212	0xbc2a8a54	-0.010408957
213	0x3c5dab05	0.013529544
214	0xbdb7a424	-0.08966854
215	0x3d26419e	0.04058992
216	0x3ccf902c	0.025337301
217	0xbcf1b343	-0.029504424
218	0x3d19f93a	0.037591197
219	0x3d870584	0.06592849
220	0x3c0f2d39	0.008738809
221	0xbcdbdb52	-0.026837979
222	0xbb467e67	-0.0030287744
223	0xbd514833	-0.051094245
224	0xbb136502	-0.0022490625
225	0xbd7374a9	-0.059437428
226	0xbd9382aa	-0.072026566
227	0x3d3971cc	0.04527454
228	0x3c9b543b	0.018961063
229	0xbc671d5e	-0.014106123
230	0x3d86989a	0.06572075
231	0xbd085cf0	-0.033291757
232	0xbc4859ba	-0.012228424
233	0xbcdc5cc6	-0.026899707
234	0x3d2c1467	0.042011645
235	0x3bcce869	0.0062532914
236	0xbcc55e1e	-0.02409273
237	0xbd9c7585	-0.076396026
238	0xbd344b51	-0.04401714
239	0xbc53964e	-0.012914253
240	0x3d37ce65	0.044874568
241	0xbcfe708f	-0.031059531
242	0x3d316585	0.043309707
243	0x3c97a167	0.01850958
244	0xbc667542	-0.014066042
245	0x3ccb56bc	0.024821632
246	0x3b7860b9	0.0037899448
247	0xbce19f14	-0.027541675
248	0xbd42be02	-0.047544487
249	0x3d50f70a	0.051016845
250	0x3d8742c5	0.06604532
251	0x3ba1f28c	0.004942244
252	0xbceaf351	-0.028680475
253	0x3bde97aa	0.006792982
254	0xbc4ee7ae	-0.012628479
255	0x3ccd0212	0.025025401

rca.body.0.bias f4 [48]
0	0x3e791f55	0.24328358
1	0x3e0eeaf6	0.13956818
2	0xbcc7172a	-0.024303038
3	0x3d4dd475	0.050251443
4	0xba2b8438	-0.00065428345
5	0x3e8d69b3	0.27619705
6	0x3e16e724	0.1473661
7	0xbe5e8542	-0.21730521
8	0x3ed5d9a8	0.4176762
9	0x3f2cd0f5	0.67506343
10	0x3e360a88	0.17777455
11	0xbd81c13c	-0.06335685
12	0x3edcc0f7	0.4311597
13	0x3b2f3dca	0.002673971
14	0x3e9a46bd	0.30132094
15	0xbe157286	-0.14594468
16	0x3dd561b0	0.10419023
17	0x3ec42686	0.3831064
18	0x3e927534	0.28605044
19	0xbe180fcd	-0.14849778
20	0x3de5ccc7	0.11220699
21	0xbe800eb9	-0.25011232
22	0xbe42c2f4	-0.19019681
23	0x3e84316f	0.25818965
24	0x3e92f347	0.2870123
25	0xbf4cdb6b	-0.80022305
26	0x3e451d80	0.19249535
27	0x3edd8874	0.43268168
28	0xbe3f91df	-0.18707989
29	0x3eccdd20	0.40012455
30	0x3f0c0fce	0.54711616
31	0xbeb7d35e	-0.35903448
32	0xbf416f4b	-0.75560445
33	0x3f083e42	0.5322
34	0x3e38f0c9	0.18060602
35	0x3d901199	0.070346065
36	0x3e4e0347	0.20118438
37	0x3df570d0	0.11984408
38	0xbe3d5e52	-0.18493012
39	0x3e5591d6	0.20856413
40	0x3f02a755	0.5103658
41	0xbdd9fe79	-0.1064424
42	0xbedd7247	-0.4325125
43	0x3d6fb683	0.058523666
44	0xbe20011e	-0.15625426
45	0xbeb40b62	-0.35164934
46	0x3ec6d0b3	0.388311
47	0xbe215ec7	-0.15758811

rca.body.2.weight f4 [48, 48, 3, 3]
0	0xbc8ab7b7	-0.016933305
1	0x3caa7766	0.020808887
2	0xbab989c9	-0.0014155443
3	0x3bdbe4aa	0.0067106085
4	0x3b457ea4	0.0030135298
5	0x3ce63ff6	0.02810667
6	0x3d2f09e8	0.042734057
7	0x3d37f4b7	0.044911113
8	0xbcc303d1	-0.02380553
9	0xb865b12d	-5.4762862e-05
10	0x3cfda0ff	0.030960558
11	0x3d0b6337	0.034030166
12	0xbda615c1	-0.08109618
13	0xbd3eb0c7	-0.046555307
14	0x3b9c471b	0.0047692186
15	0xbd6c76ef	-0.05773061
16	0x3da3ec5e	0.08004068
17	0x3d7001f2	0.058595605
18	0x3ce7d191	0.028298171
19	0xbceb0fe2	-0.028694097
20	0xbd93983e	-0.07206772
21	0x3cb0548d	0.021524692
22	0x3d20e4d6	0.039280735
23	0x3b9582c9	0.00456271
24	0x3cc1c4a3	0.023653334
25	0x3d80636d	0.06268964
26	0x3ac89af2	0.0015304966
27	0xbbb315b6	-0.0054652346
28	0x3d1170ca	0.035507955
29	0x3cae9901	0.021313192
30	0xbbdc3999	-0.0067207334
31	0xbd1aec89	-0.037823234
32	0xbcda1208	-0.026619926
33	0xbcc3e3ed	-0.023912394
34	0xbd92091e	-0.07130645
35	0xbdd97eb3	-0.10619869
36	0x3c1fea0e	0.009760393
37	0xbd787663	-0.060659777
38	0xbd65e058	-0.056122154
39	0xbc0ec641	-0.00871426
40	0xbce09a00	-0.027417183
41	0xbd743539	-0.05962107
42	0xbd1bc012	-0.03802497
43	0xbcf7e2d5	-0.03025953
44	0xbc1bf526	-0.009518897
45	0xbd6a121c	-0.057146177
46	0xbc3e008c	-0.01159681
47	0x3d03d922	0.032189496
48	0xbcbe4702	-0.023227219
49	0xbd257cfe	-0.040402405
50	0x3d1bfd2f	0.03808325
51	0x3c84d4c0	0.016214728
52	0x3cb5e65c	0.02220457
53	0xbc3b01a9	-0.01141397
54	0x3bb46829	0.005505581
55	0x3cb68b8e	0.022283342
56	0xbd1e871c	-0.03870307
57	0x3c4d0c60	0.012515157
58	0x3d2c9824	0.04213728
59	0xbd328492	-0.04358346
60	0x3c1727a7	0.009225762
61	0x3c7e5f78	0.015525691
62	0x3c6c00fb	0.014404531
63	0xbd7e668c	-0.062109515
64	0xbd8b05a0	-0.06788182
65	0xbc959a68	-0.018262103
66	0xbd5b2e78	-0.053511113
67	0xbcda0169	-0.026612
68	0xbd4b2175	-0.049592454
69	0xbd9812fd	-0.07425497
70	0xbd811274	-0.06302348
71	0xbd03b83b	-0.032158118
72	0xbc97c26c	-0.018525325
73	0x3dcd4461	0.10022808
74	0x3cbe3d2a	0.023222525
75	0xbd262a55	-0.040567715
76	0x3cc4a423	0.024004048
77	0x3cebafd3	0.028770363
78	0x3cc68a6a	0.024235923
79	0x3d06ddac	0.032926247
80	0xbd69bb40	-0.05706334
81	0xbbfad012	-0.0076541984
82	0xbd24fb49	-0.040278707
83	0xba8f2c5b	-0.0010923253
84	0xbcfeda5c	-0.031109981
85	0xbc6c8f02	-0.014438393
86	0x3c91d8d3	0.017803585
87	0x3c855d9d	0.01627999
88	0xbcb02c38	-0.02150546
89	0xbbf0d1b4	-0.0073492173
90	0x3c6796c1	0.014135064
91	0x3d4fb39b	0.050708394
92	0x3ca63e9b	0.020293524
93	0x3db13214	0.0865213
94	0x3cf8ef07	0.030387415
95	0x3c874f8a	0.01651742
96	0xbc64bf6f	-0.013961657
97	0x3cfd7c57	0.030943079
98	0x3c981b30	0.018567652
99	0x3c04a8cd	0.008096886
100	0xbda29d32	-0.07940139
101	0x3dcd966b	0.100384556
102	0x3c22a68f	0.009927406
103	0xbd4d8a37	-0.05018064
104	0x3d5310b0	0.051529586
105	0x3cb0e5e4	0.021593995
106	0xbbb111c8	-0.005403731
107	0xbb2e0adf	-0.0026556773
108	0x3bbff8f7	0.0058585363
109	0x3c96e134	0.018417932
110	0xbcd18a63	-0.025578683
111	0x3cbf2ca0	0.023336709
112	0xbd0b281f	-0.03397381
113	0xbd14967c	-0.036276326
114	0xbc9052ee	-0.017617669
115	0xbce2cdd5	-0.027686039
116	0x3bdf20c2	0.006809325
117	0x3c3e5597	0.011617086
118	0xbd55318d	-0.05204921
119	0xbd204842	-0.03913141
120	0xbce5795e	-0.028011974
121	0x3aa7a261	0.0012789482
122	0xbda0d37a	-0.07852836
123	0xbca55b05	-0.020185003
124	0x3d2ae37f	0.041720863
125	0xbd3863a6	-0.045016907
126	0x3af7a5c8	0.0018894011
127	0xbd5b698c	-0.053567454
128	0x3c929181	0.017891647
129	0xbd37aca3	-0.044842374
130	0x3c884a58	0.016637012
131	0xbb814d76	-0.0039460016
132	0xbc3ca9c9	-0.011515089
133	0xbd894eb8	-0.067044675
134	0xbad93aa7	-0.0016573266
135	0xbce65eda	-0.0281214
136	0xbc3776b8	-0.011197738
137	0xbc158d88	-0.009127982
138	0xbd6a2ccb	-0.057171624
139	0xbd5525ba	-0.052037932
140	0xbd8914fd	-0.06693456
141	0xbd82181c	-0.06352255
142	0xbd4381d8	-0.04773125
143	0xbcad5992	-0.021160875
144	0xbc27e08b	-0.010246406
145	0xbcdbbe62	-0.02682418
146	0xbca465db	-0.0200681
147	0x3c1fdf98	0.009757899
148	0xbdcee1ee	-0.101016864
149	0x3c1089ff	0.008821963
150	0xbd1557ca	-0.036460675
151	0xbd39c2ab	-0.045351665
152	0xbd702587	-0.05862954
153	0xbd24de20	-0.040250897
154	0x3d04bfc7	0.032409456
155	0xbc8bd47b	-0.017069092
156	0x3b7516cd	0.0037397624
157	0xbd13ee35	-0.036115844
158	0x3d8fdb4a	0.07024248
159	0x3bf584f6	0.007492657
160	0x3c0b3b99	0.008498096
161	0x3ca78afd	0.020452017
162	0x3ca0d362	0.019632045
163	0xbb0043e0	-0.0019571707
164	0xbc83cf0d	-0.01608994
165	0xbd66b249	-0.05632237
166	0xbd3923ef	-0.045200285
167	0xbd1d17b5	-0.038352687
168	0xbcda9dbd	-0.026686544
169	0xbc751565	-0.014958714
170	0xbd813230	-0.06308401
171	0x3db1e39d	0.08685992
172	0x39bb70c0	0.00035751425
173	0xbc1d3fa9	-0.009597697
174	0x3ca1159f	0.01966363
175	0xbcd34b7c	-0.02579283
176	0x3ce82516	0.028337996
177	0xbd13e9cb	-0.036111634
178	0xbd4f26f4	-0.050574258
179	0xbacde92f	-0.0015709753
180	0x3af316b1	0.0018546191
181	0xbc20789f	-0.009794383
182	0x3d34e455	0.044163067
183	0xbd16b66e	-0.036795072
184	0x3cc9bd90	0.024626523
185	0xbc067e24	-0.008208785
186	0x3ceddfd1	0.029037388
187	0x3c3906fe	0.011293171
188	0x3bfbb65d	0.0076816515
189	0x3d1f966c	0.038961813
190	0x3d2d3d43	0.04229475
191	0x3d2ee2a9	0.04269663
192	0xbbb3392d	-0.0054694624
193	0xbca559c0	-0.020184398
194	0x3c18c61a	0.009324575
195	0xbbefc212	-0.007316836
196	0x3c8b1d70	0.01698181
197	0x3d19bf8c	0.03753619
198	0xbbaabf8e	-0.0052108234
199	0xbce03cb9	-0.027372705
200	0xbcab16bd	-0.020884866
201	0xbc1bfffa	-0.009521479
202	0x3d6ff55f	0.058583613
203	0x3d1d79ee	0.03844636
204	0xbd44d408	-0.04805377
205	0x3cac7298	0.021050736
206	0x3c959aac	0.01826223
207	0x3dc3dad1	0.0956322
208	0x3bc12635	0.005894447
209	0xbd097f01	-0.033568386
210	0xbc59bad6	-0.013289174
211	0x3a5c6dee	0.0008408715
212	0x3c29de87	0.010367996
213	0xbbccc630	-0.0062492117
214	0x3ba237b5	0.0049504885
215	0xbb9348a8	-0.0044947453
216	0x3b9a0b27	0.0047010365
217	0xbd62c304	-0.055361763
218	0xbc804faf	-0.015662996
219	0xbd5ad3df	-0.053424712
220	0xbcb2aefd	-0.021811957
221	0xbb3178c5	-0.002708004
222	0xbd19c5e9	-0.037542257
223	0xbd94bd73	-0.07262697
224	0x3c4d4348	0.012528248
225	0x3c8512e6	0.016244363
226	0x3cee4875	0.029087285
227	0xbad922af	-0.0016566123
228	0x3d133655	0.035940487
229	0x3d20fa8d	0.039301444
230	0x3d2478c4	0.040154234
231	0x3c14e55a	0.009087885
232	0xbcf526a5	-0.029925654
233	0x3c860625	0.016360352
234	0xbd85bbef	-0.06529986
235	0x3ba4d900	0.005030751
236	0x3b970eb9	0.0046099094
237	0x3aef0ade	0.0018237492
238	0x3bd4bccc	0.006492233
239	0xbd764086	-0.060120128
240	0x3d3df0af	0.046372112
241	0x3c5bbc11	0.013411538
242	0x3d19970c	0.037497565
243	0xbd0f1c71	-0.034939233
244	0xbd21203e	-0.03933739
245	0xbd191e24	-0.03738226
246	0xbda2944b	-0.07938441
247	0xbdc463a5	-0.09589318
248	0xbd5962aa	-0.05307261
249	0xbd4dbdc9	-0.05022982
250	0xbd107048	-0.03526333
251	0xbd277cc7	-0.04089048
252	0x3d039d16	0.03213223
253	0x3bd1f224	0.0064070392
254	0xbbf681ea	-0.007522811
255	0x390c9214	0.00013405859

rca.body.2.bias f4 [48]
0	0x3cd6d999	0.026226806
1	0xbb1b69d4	-0.0023714202
2	0xbe8a74ea	-0.27042323
3	0xbd929a49	-0.07158334
4	0xbe982b9a	-0.29720765
5	0x3e9a3916	0.30121678
6	0xbdb086b7	-0.08619445
7	0x3c8d5803	0.017253881
8	0x3e309876	0.17245659
9	0xbbd42f8b	-0.006475394
10	0xbea297e7	-0.31756517
11	0xbe20ba47	-0.15696059
12	0x3e847b91	0.25875524
13	0x3e062e6e	0.13103649
14	0xbeefebf5	-0.46859708
15	0xbde1a731	-0.11018217
16	0xbdcced4c	-0.10006198
17	0xbed4bef3	-0.41551933
18	0xbd18c742	-0.037299402
19	0xbe3c3960	-0.18381262
20	0xbc725b00	-0.014792204
21	0xbd3f3f61	-0.046691302
22	0x3e97829c	0.29591835
23	0xbd9b596b	-0.075854145
24	0xbdf3f150	-0.11911261
25	0x3daf2b8a	0.08553226
26	0x3e4f42fd	0.20240398
27	0x3c1de60b	0.009637366
28	0xbc245b7f	-0.01003158
29	0xbda28e9e	-0.07937358
30	0x3e0027ed	0.1251523
31	0x3d829a37	0.063770704
32	0x3dd99f30	0.10626066
33	0x3e686e21	0.22698261
34	0x3cf3dbe1	0.029767932
35	0xbede60cf	-0.43433234
36	0xbe1139b2	-0.14182165
37	0xbd912f7f	-0.07089137
38	0x3cc77260	0.02434653
39	0xbe4b6959	-0.19864406
40	0x3df17cfe	0.117914185
41	0xbc6d1fdb	-0.014472927
42	0xbd39f708	-0.045401603
43	0x3e68d1c6	0.22736272
44	0xbe7e7771	-0.24850251
45	0xbc6ea378	-0.014565341
46	0x3e1c794a	0.15280643
47	0x3e4c43c9	0.19947733

head.0.weight f4 [48, 3, 3, 3]
0	0xbe04d06b	-0.1297013
1	0x3d5ae795	0.05344351
2	0x3dfd1bba	0.12358804
3	0xbe0c2f57	-0.13689934
4	0xbe0ff614	-0.14058715
5	0x3b2e2d9f	0.0026577485
6	0xbda30ddd	-0.079616286
7	0x3c82fdcb	0.015990159
8	0x3e011f8c	0.1260969
9	0xbe2b177e	-0.1670818
10	0xbda37f3e	-0.07983254
11	0x3e3ac3f1	0.18238808
12	0x3caf8d59	0.021429705
13	0x3dd4e073	0.10394373
14	0x3d31bb9d	0.043391813
15	0xbe164af1	-0.14677025
16	0x3e17ee96	0.14837107
17	0x3e3b9624	0.18318993
18	0xbe40d1b9	-0.18830003
19	0x3e3edea4	0.18639618
20	0xbde28afc	-0.110616654
21	0xbba1f6da	-0.004942757
22	0xbe39f638	-0.18160331
23	0x3d7ba7c8	0.061439306
24	0x3de069d2	0.109576836
25	0xbda52b96	-0.08064954
26	0x3d9d27e6	0.07673626
27	0x3e1b65f1	0.15175606
28	0x3cd0b1ad	0.025475347
29	0x3cf8f9fb	0.030392637
30	0xbe0f5862	-0.13998559
31	0x3e082079	0.13293637
32	0xb96cabbc	-0.0002257069
33	0xbce0acf0	-0.027426213
34	0xbd858dcb	-0.065211855
35	0xbda010e8	-0.078157246
36	0xbce74b4f	-0.028234152
37	0x3af24e91	0.0018486549
38	0x3e214de4	0.15752369
39	0xbd0bf58d	-0.034169722
40	0xbc80f3c5	-0.015741238
41	0xbe0d7c74	-0.13817006
42	0x3e07c88d	0.13260098
43	0x3e3b316f	0.18280576
44	0xbe0aefe5	-0.13568075
45	0xbe201f5d	-0.15636964
46	0x3d2dd7f8	0.042442292
47	0xbd9718d1	-0.0737778
48	0xbda2565b	-0.07926627
49	0x3e3b2f2b	0.18279712
50	0x3d8ad351	0.06778587
51	0x3cba7969	0.022762971
52	0xbe2583dd	-0.16163583
53	0xbc3c7d71	-0.011504517
54	0xbe2787cf	-0.163604
55	0xbe1d5657	-0.15364967
56	0xbcf6e592	-0.030138765
57	0xbde813ed	-0.113319255
58	0xbdd8f76b	-0.10594066
59	0xbdef2fa7	-0.11679011
60	0x3e1eb0c8	0.15497124
61	0x3dd38b7a	0.103293374
62	0x3d9c6ba8	0.07637721
63	0xbc769bf2	-0.015051829
64	0xbc204b4d	-0.009783578
65	0xbd646931	-0.05576438
66	0x3daec0d2	0.08532871
67	0x3dbaba1c	0.09117529
68	0xbe029cb8	-0.12755096
69	0xbe09ce17	-0.13457523
70	0xbcd88949	-0.02643265
71	0xbd16d5c1	-0.036824945
72	0xbe031820	-0.12802172
73	0xbd60e534	-0.054906085
74	0xbd917cb3	-0.071038626
75	0xbdd84db4	-0.10561696
76	0x376e5cb3	1.4207489e-05
77	0x3e386ddd	0.1801066
78	0xbe13baf1	-0.14426781
79	0xbe22eef4	-0.15911466
80	0xbdf6d671	-0.1205262
81	0xbd4a8639	-0.04944441
82	0x3cc7fa83	0.024411445
83	0xbe12ceee	-0.1433675
84	0x3b4bfc65	0.003112578
85	0x3dc04102	0.09387399
86	0xbe1b8c58	-0.15190256
87	0xbdb0d130	-0.08633649
88	0xbde6da63	-0.11272123
89	0x3e292460	0.16517782
90	0x3e1d9a8d	0.15390988
91	0xbd592dd6	-0.05302223
92	0xbbe1b7ee	-0.006888381
93	0xbbb93477	-0.0056520062
94	0x3d53ee82	0.05174113
95	0xbcb16f06	-0.021659385
96	0x3dbb84aa	0.09156163
97	0xbd1fb20e	-0.038988166
98	0xbe077ec1	-0.13231947
99	0xbd17cfa5	-0.03706326
100	0x3e14f96b	0.1454827
101	0x3c169907	0.009191758
102	0x3db473ee	0.08811174
103	0x3e2a9a41	0.16660406
104	0x3cc3d174	0.023903586
105	0xbd6f7056	-0.05845674
106	0xbde28b19	-0.11061687
107	0xbc027a67	-0.007963753
108	0xbde3e293	-0.111272
109	0x3c1bca37	0.009508661
110	0xbc7c74f3	-0.015408742
111	0xbe1d2432	-0.15345839
112	0x3e1036d8	0.14083421
113	0xbb68a334	-0.0035497667
114	0x3c9e0b16	0.019292396
115	0x3dec2def	0.11532199
116	0x3dbbdb9c	0.091727465
117	0xbd34eb48	-0.044169694
118	0xbcc1c659	-0.02365415
119	0xbc0ede65	-0.008720015
120	0xbdff7f85	-0.12475494
121	0x3e40e23b	0.188363
122	0xbdb9cce7	-0.09072285
123	0xbcbad316	-0.022805732
124	0x3e48a897	0.19595562
125	0xbdcd99c9	-0.10039098
126	0xbdc14810	-0.09437573
127	0x3e0cc683	0.13747601
128	0x3e1e1685	0.15438278
129	0x3b9373af	0.0044998745
130	0x3d9797fd	0.07402036
131	0xbde2b68e	-0.11069976
132	0xbe0582c8	-0.1303817
133	0xbe10f20b	-0.14154832
134	0x3d578070	0.052612722
135	0x3de7e87f	0.11323642
136	0x3e45a9d5	0.19303067
137	0x3dee0db5	0.11623708
138	0x3d3bac9d	0.045818914
139	0x3e33e567	0.17567979
140	0xbd90a92a	-0.070635155
141	0x3e13dae3	0.14438967
142	0xbe104d5c	-0.1409201
143	0xbda777f3	-0.081771754
144	0xbdf6c57c	-0.12049386
145	0x3d6c03aa	0.05762068
146	0x3d3d0adb	0.04615293
147	0xbda9278f	-0.08259498
148	0xbe0d92d7	-0.13825546
149	0xbe2a01eb	-0.16602294
150	0x3cfba0c3	0.030716306
151	0xbe24d720	-0.16097689
152	0x3dcc947e	0.0998926
153	0xbe0cb2bd	-0.13740058
154	0x3d60d5ed	0.054891516
155	0xbcb112f5	-0.021615485
156	0x3dd6bdd8	0.104854286
157	0xbe326127	-0.17419873
158	0x3dff0501	0.12452126
159	0x3dedf7a6	0.11619501
160	0xbdc7fbe8	-0.09764844
161	0xbcdf7951	-0.027279528
162	0xbc530041	-0.0128784785
163	0xbe274e23	-0.163384
164	0xbe033d33	-0.12816314
165	0x3d49e179	0.049287293
166	0x3e2954da	0.16536275
167	0xbe24909a	-0.16070786
168	0x3e005c91	0.12535311
169	0x3dc866a3	0.097852014
170	0xbd4e378f	-0.050345954
171	0x3dd4844c	0.10376796
172	0x3e08be84	0.13353926
173	0x3e19a923	0.15005927
174	0xbc8efd73	-0.017454838
175	0x3e0fbcd1	0.14036871
176	0x3c848cbc	0.016180389
177	0xbda5caa2	-0.0809529
178	0xbd911d57	-0.07085674
179	0xbce07b48	-0.027402535
180	0xbdcc05e4	-0.09962061
181	0xbcac5b32	-0.021039579
182	0x3d7d545f	0.06184804
183	0x3e3b88d1	0.1831391
184	0xbd812be5	-0.063072
185	0x3d8a7a0a	0.06761558
186	0xbdbf4fa8	-0.09341365
187	0xbe3d94c9	-0.18513788
188	0x3df01500	0.117227554
189	0xbe498c86	-0.19682512
190	0xbddf5c86	-0.10906319
191	0xbd4c83a9	-0.04993025
192	0x3d9beb60	0.076132536
193	0x3d961fce	0.07330285
194	0xbe14d724	-0.14535195
195	0xbe43103a	-0.19049159
196	0x3e2c252d	0.16811056
197	0xbdc4f6d1	-0.09617389
198	0x3e10573a	0.14095774
199	0xbdc4c90e	-0.09608661
200	0x3dee976a	0.11649974
201	0xbe3349ca	-0.17508617
202	0xbe49a774	-0.19692785
203	0x3e1824c7	0.1485778
204	0xbdc03572	-0.09385194
205	0x3d828abf	0.0637412
206	0xbdd6991b	-0.10478421
207	0x3e2c484a	0.16824451
208	0x3da445b3	0.080211066
209	0xbcf7aaf0	-0.030232877
210	0x3df7b6c6	0.12095408
211	0x3e2d0ab0	0.16898608
212	0x3e33ebf0	0.17570472
213	0x3beedd74	0.007289583
214	0x3e00e1bf	0.12586115
215	0x3dd568e2	0.104203954
216	0xbd24adf2	-0.04020495
217	0x3be29ab4	0.0069154147
218	0xbe035269	-0.12824406
219	0xbb4f4976	-0.003162948
220	0x3d8ad162	0.06778218
221	0xbdf4f77f	-0.11961269
222	0x3ccb08c8	0.02478446
223	0xbd380597	-0.044927206
224	0xbe14791c	-0.14499325
225	0xbd99a1a7	-0.07501536
226	0x3cae8910	0.02130559
227	0x3da975cc	0.08274421
228	0xbd7c6b75	-0.061625917
229	0xbe3567a1	-0.17715313
230	0x3dddd0bf	0.10830831
231	0xbd82a859	-0.06379766
232	0xbd10f226	-0.03538718
233	0x3de26d9e	0.11056064
234	0x3df39c15	0.11895005
235	0x3cce43a3	0.025178736
236	0x3e3e3311	0.18574168
237	0xbe237410	-0.15962243
238	0xbba50c56	-0.005036871
239	0xbe3537fb	-0.17697136
240	0xbd3d2212	-0.04617507
241	0x3b3859c2	0.0028129672
242	0x3d5397b4	0.051658347
243	0x3e2190e8	0.15777934
244	0xbddfd1e4	-0.10928705
245	0x3db5727f	0.08859729
246	0xbdff6bac	-0.12471709
247	0xbc9377ab	-0.018001398
248	0x3dd47f1f	0.10375809
249	0xbdeda498	-0.116036594
250	0xbded2d57	-0.115809135
251	0xbdef9ade	-0.116994604
252	0xbdd353b1	-0.10318697
253	0xbd347972	-0.04406113
254	0x3e090845	0.13382061
255	0x3e57d764	0.21078259

head.0.bias f4 [48]
0	0xbe06531b	-0.1311764
1	0x3f31fac1	0.69523245
2	0x3d28cde6	0.041211985
3	0xbd27651a	-0.040867902
4	0xbed372d8	-0.41298556
5	0xbdd38539	-0.103281446
6	0x3e2f4bc0	0.1711874
7	0x3d7d3caf	0.06182545
8	0xbe65fa22	-0.224587
9	0x3e268435	0.1626137
10	0xbc017861	-0.007902236
11	0xbde29b8e	-0.11064826
12	0x3e505a9b	0.20347063
13	0x3e345123	0.17609076
14	0xbe6d0a20	-0.23148394
15	0xbeda32fa	-0.42617017
16	0xbb0433f8	-0.0020172577
17	0xbdf3d8d2	-0.119065896
18	0x3d1ea787	0.038733985
19	0x3c2046f9	0.009782546
20	0x3ddbdb7f	0.10735225
21	0x3e4051f2	0.1878126
22	0x3e924718	0.28569865
23	0x3de5689e	0.11201595
24	0x3abcfe1d	0.0014418993
25	0x3e3b03e1	0.18263198
26	0x3e2704bb	0.16310398
27	0x3d8015cd	0.06254158
28	0x3e384921	0.17996646
29	0x3d9f14a6	0.0776761
30	0x3eab6def	0.3348231
31	0xbf32965e	-0.6976069
32	0xbe0e7aa4	-0.13913971
33	0x3e630b66	0.22172317
34	0xbe3276d0	-0.17428136
35	0xbe8e04a4	-0.27737916
36	0xbd87ea7f	-0.066365235
37	0x3e0b543f	0.13606356
38	0xbda5d5bc	-0.08097407
39	0xbe4ca124	-0.19983345
40	0x3d8191a5	0.063266076
41	0xbe063ec4	-0.1310988
42	0xbe1935b1	-0.14961888
43	0x3d8aeb27	0.06783133
44	0xbe1cae1e	-0.15300795
45	0x3ccd7672	0.025080893
46	0x3ed3d47a	0.41373044
47	0xbe0b5ea3	-0.1361032

head.1.weight f4 [48, 48, 3, 3]
0	0x3cf7eaba	0.030263294
1	0xb9386997	-0.00017586943
2	0x3bb2901c	0.005449308
3	0x3c9f1298	0.019418046
4	0xbcdb6575	-0.026781777
5	0xbd48aefa	-0.048994996
6	0x3d25431b	0.0403472
7	0xbc1e4a45	-0.009661262
8	0xbbbe201f	-0.005802169
9	0x3c8c5539	0.017130481
10	0xbd099320	-0.033587575
11	0xbc97d043	-0.018531924
12	0x3d1057a6	0.035239838
13	0xbc6d8872	-0.014497863
14	0x3c29bb03	0.0103595285
15	0x3c8bdac2	0.017072085
16	0x3ca43c26	0.020048212
17	0xbc4f89a8	-0.012667097
18	0x3c1d3d02	0.009597065
19	0xbc8ac764	-0.01694078
20	0x3d1eead2	0.03879816
21	0xbc44ace8	-0.012004115
22	0xbd27149e	-0.040791146
23	0x3a9cb1bc	0.0011954824
24	0xbc99f631	-0.018794151
25	0xbd5b91e0	-0.053605914
26	0x3abeee34	0.001456684
27	0x3b952816	0.0045518978
28	0x3c060b4f	0.008181407
29	0xbcd870bd	-0.026420945
30	0xbd0de6b3	-0.03464384
31	0x3c9c3407	0.019067777
32	0xbcd39c1f	-0.02583128
33	0x3c133753	0.008985358
34	0x3d1fa0db	0.038971763
35	0x3ca4fcc7	0.020140065
36	0xbd0bf12b	-0.034165543
37	0x3a2b882a	0.00065434224
38	0x3c27fa5a	0.01025256
39	0xbd520e60	-0.05128324
40	0x3d3729e7	0.044717696
41	0x3b6ab742	0.0035814797
42	0xbca1cf83	-0.01975227
43	0x3d47a8bc	0.048744902
44	0x3cfea5b0	0.031084865
45	0xbc11928b	-0.008885036
46	0xbb1e446b	-0.0024149667
47	0xbcf0cfde	-0.029395994
48	0xbd011594	-0.03151472
49	0xbc8f7275	-0.017510632
50	0x3c1a2ad9	0.00940963
51	0xbbbc61f4	-0.0057489816
52	0x3c2ea057	0.010658345
53	0xbbd59015	-0.00651742
54	0x3d2ca3ec	0.042148516
55	0x3cbaf887	0.022823585
56	0xbcb16620	-0.021655142
57	0x3d0ba305	0.034091014
58	0x3c8a9eb7	0.016921384
59	0x3d1a8850	0.037727654
60	0x3c64e25a	0.013969982
61	0x3d41f404	0.047351852
62	0x3cdc56b8	0.02689682
63	0x3d2843c7	0.041080263
64	0x3d1ef7ca	0.03881053
65	0xbca76b28	-0.020436838
66	0x3b1ae5ab	0.0023635428
67	0xbcf5760f	-0.029963521
68	0x3d01520f	0.031572398
69	0xbc09d20e	-0.008411897
70	0x3be69501	0.0070368056
71	0x3ca093f9	0.019601809
72	0xbd07d6c2	-0.033163793
73	0xbc9ca6c0	-0.019122481
74	0xbbd3b683	-0.006460966
75	0xb9c8cd4b	-0.00038299928
76	0xbd0024bd	-0.031285036
77	0xbd377e1c	-0.044798
78	0x3bda1d75	0.0066563436
79	0x3cc1fd37	0.023680313
80	0x3c8dee0c	0.017325424
81	0x3b7b73b2	0.003836852
82	0x3c86aca3	0.016439741
83	0x3c3e1204	0.011600975
84	0x3cae3c07	0.021268858
85	0xbd0518bd	-0.032494295
86	0x3c804919	0.015659856
87	0xbcb6735f	-0.02227181
88	0xbbee979a	-0.007281256
89	0x3d1eebb4	0.038799003
90	0xbc65af73	-0.014018881
91	0xbcf6ab7a	-0.030111063
92	0xbcb568f5	-0.022144774
93	0x3c734745	0.014848535
94	0xbce58bfb	-0.02802085
95	0x3d191ad4	0.0373791
96	0xbc9a7f90	-0.018859655
97	0xbcba5d57	-0.022749586
98	0xbca719db	-0.020398071
99	0x3cc3498a	0.023838777
100	0xbd3721bd	-0.04470991
101	0xbbe7944e	-0.00706724
102	0xbcb169a2	-0.021656815
103	0x3c08b6e8	0.0083443895
104	0x3d08b8c5	0.033379335
105	0xbc765d72	-0.015036928
106	0x3cd7b944	0.026333459
107	0x3cda7d9d	0.026671225
108	0x3d23d168	0.039994627
109	0xbcb4efdf	-0.022087036
110	0xbc7fcd2e	-0.0156128835
111	0x3ce6398d	0.028103614
112	0x3bb9ab43	0.005666168
113	0x3cd38990	0.02582243
114	0xbcedf059	-0.02904527
115	0xbd53eb8e	-0.051738314
116	0x3ce9035e	0.028443988
117	0xbd16ccf8	-0.036816567
118	0xbd4c6cc7	-0.049908426
119	0x3be654f0	0.0070291683
120	0xba165180	-0.00057341903
121	0xbc2155b3	-0.009847092
122	0x3cc9040e	0.024538066
123	0xbcb6165d	-0.02222746
124	0xbd33385f	-0.04375493
125	0x3c5c7d00	0.013457537
126	0xbc226185	-0.009910946
127	0x3c7d4dba	0.015460426
128	0x3b490e87	0.0030678825
129	0x3d537000	0.051620483
130	0xbd1b09c7	-0.03785112
131	0xbcb0b2b3	-0.021569585
132	0x3cbe7da3	0.023253268
133	0x3d03e0fb	0.03219698
134	0x3cc9e4ee	0.024645295
135	0x3c898762	0.016788188
136	0x3cd6d044	0.026222356
137	0x3c1254d5	0.008931358
138	0xbc9fa07f	-0.01948571
139	0xbcd20534	-0.025637247
140	0x3c9d3ed9	0.019195007
141	0xbca892d8	-0.020577833
142	0xbcedbe8e	-0.029021528
143	0x3cb2dba4	0.021833248
144	0xbcafc303	-0.021455294
145	0x3d5154be	0.051106207
146	0xbc5bfe4e	-0.01342733
147	0xbbc56d1d	-0.00602497
148	0xbcdba5c3	-0.02681244
149	0x3cf6d375	0.030130127
150	0x3acbbc9c	0.0015543881
151	0xbb13efd4	-0.0022573369
152	0xbc89afbb	-0.016807428
153	0xbd297484	-0.041370884
154	0xbbe88ad3	-0.0070966273
155	0xbcaa8a74	-0.020817973
156	0xbd5fede7	-0.05467024
157	0xbd366163	-0.04452647
158	0xbd26ba73	-0.040705156
159	0x3cf86ecc	0.03032627
160	0xbcbdd583	-0.0231731
161	0x3cbd781c	0.023128562
162	0x3d470ae7	0.04859438
163	0xbd067bdd	-0.03283297
164	0x3c22d862	0.009939285
165	0xbd28f8ef	-0.041253027
166	0xbd4559d0	-0.048181355
167	0xbcef6365	-0.0292222
168	0xbc1d00e7	-0.009582735
169	0x3d0f3591	0.034963194
170	0x3d2b8d40	0.041882753
171	0x3b939522	0.004503862
172	0xbd4c39cc	-0.049859807
173	0x3c8d678b	0.017261287
174	0xbcb57cbb	-0.022154203
175	0xbcb97005	-0.022636423
176	0xbcd92e09	-0.02651121
177	0xbd0b09aa	-0.033944763
178	0xbd244e09	-0.040113483
179	0xbba5b86f	-0.0050573866
180	0x3bcf5d14	0.0063282344
181	0xbc34e3ab	-0.011040608
182	0xbc707ab7	-0.014677695
183	0x3d38a54e	0.04507952
184	0xbc840220	-0.016114295
185	0x3ca8e2f5	0.020616034
186	0x3c86e58d	0.01646688
187	0x3ceeda72	0.029156897
188	0x3cd12522	0.025530402
189	0xbc065ede	-0.008201329
190	0x3d2f5b03	0.042811405
191	0xbc54da48	-0.012991495
192	0xbb1b6ad5	-0.00237148
193	0xbca5be93	-0.020232474
194	0x3c2e200f	0.010627761
195	0xbc8bc7dd	-0.017063076
196	0xbce29fa3	-0.027664011
197	0x3cebd8a6	0.02878983
198	0x3cb03402	0.021509174
199	0xbcf2d204	-0.029641159
200	0xbc51e831	-0.012811706
201	0x3cbd1160	0.023079574
202	0x3d06e3cb	0.032932084
203	0x3d73bf61	0.059508685
204	0xbd1703c8	-0.03686884
205	0xbd6cabba	-0.05778096
206	0x3c9d744c	0.019220494
207	0x3d17f0ac	0.037094757
208	0xbcffecc3	-0.031240826
209	0xbc215e65	-0.009849166
210	0x3ae5c05a	0.0017528639
211	0x3a99c468	0.0011731507
212	0xbced53fc	-0.028970711
213	0xbcbf40eb	-0.023346385
214	0xbd041ad7	-0.03225216
215	0xbd2051d7	-0.03914055
216	0x3b8711d0	0.0041219965
217	0xbcbdf7ea	-0.023189504
218	0x3cb295e1	0.021799983
219	0xbbc4fcf0	-0.006011598
220	0xbcb5b8fc	-0.022182934
221	0xbb5554ad	-0.0032551691
222	0xbbd95855	-0.0066328445
223	0x3d639392	0.055560656
224	0xbd1be1d0	-0.03805715
225	0xbd1c4185	-0.03814842
226	0x3c1a1bbf	0.009406029
227	0x3c846c26	0.01616485
228	0x3d0557cb	0.03255443
229	0x3cacc0fb	0.021088114
230	0xbcbc2ab2	-0.022969577
231	0x3ccab218	0.024743125
232	0x3d2aead2	0.04172785
233	0x3cb6cc4f	0.022314219
234	0x3cdc3f26	0.02688558
235	0xbd1c08f8	-0.03809449
236	0x3c9fcbf3	0.01950643
237	0xbd1b3dc7	-0.037900712
238	0xbbd7f49f	-0.0065904404
239	0xbbd0b0df	-0.006368741
240	0x3baa2706	0.0051926402
241	0x3d158654	0.03650506
242	0x3c80e2b9	0.01573311
243	0xbce462d3	-0.027879154
244	0xbbdd80a5	-0.0067597204
245	0x3cc5e412	0.024156604
246	0xbd3c4e69	-0.045973215
247	0x3cbf1e03	0.02332974
248	0xbcb2c072	-0.02182028
249	0xbc08fbd5	-0.008360823
250	0x3ca28caf	0.019842474
251	0x3d01f7a3	0.031730305
252	0x3ad24b00	0.001604408
253	0xbb8717fa	-0.0041227313
254	0xbcd4c306	-0.0259719
255	0xbd2fec91	-0.042950217

head.1.bias f4 [48]
0	0xbd31846f	-0.04333919
1	0xbe62a864	-0.22134548
2	0xbe2eb7d6	-0.17062315
3	0x3e0aab7b	0.13541977
4	0xbea9de23	-0.3317729
5	0x3c904f8b	0.017616054
6	0x3eae3fd5	0.34033075
7	0xbe1dff31	-0.15429379
8	0xbbf837c2	-0.007575006
9	0x3d2a976e	0.04164832
10	0xbf0bbd40	-0.5458565
11	0x3d389b79	0.045070145
12	0x3f14e9d5	0.581693
13	0x3ef9ee81	0.48814777
14	0xbf0cb720	-0.54966927
15	0xbef047dc	-0.46929824
16	0xbdf21e05	-0.11822132
17	0xbe8b9d0d	-0.27268258
18	0x3dc893e5	0.09793834
19	0xbf74ee49	-0.95676094
20	0xbf1caa72	-0.6119758
21	0xbeb989bb	-0.36237893
22	0x3f970f8f	1.1801623
23	0x3d89a8d5	0.06721655
24	0x3df81f9b	0.12115403
25	0x3d1099ce	0.03530293
26	0x3e968c37	0.2940385
27	0x3d21622e	0.039400272
28	0xbd31a15e	-0.043366782
29	0x3ef26061	0.47339156
30	0x3df67678	0.12034315
31	0x3d922d1b	0.071375094
32	0x3e354a10	0.17704034
33	0x3d17a19c	0.037019357
34	0xbd6886ed	-0.0567693
35	0x3d9d047a	0.076668695
36	0x3e1bc86a	0.1521317
37	0xbf42d44f	-0.7610521
38	0xbddb2090	-0.1069957
39	0xbe14a604	-0.14516455
40	0x3e15bd7c	0.14623064
41	0x3dcc4c8e	0.09975539
42	0xbf1bbede	-0.60838115
43	0x3ef7fbf9	0.48434427
44	0xbdc8b9f4	-0.09801093
45	0x3debfb92	0.115225926
46	0xbd2c9b45	-0.042140264
47	0xbe186413	-0.14881925
